tabpfn_step8_head.pth (torch, 668441 bytes, 8 tensors)

head.0.weight f4 [512, 1]
-0.8406078 0.8812936 0.60533637 -0.3565103 1.1013244 0.9482163 -0.7850521 -0.49071077
0.84753454 -0.57195574 -0.5301423 0.27726445 -0.13887516 -0.22237018 0.38051105 0.96194476
-0.622191 0.037415095 0.5703021 -0.045045007 0.85447484 0.83987314 -0.60112786 -0.45501664
-0.7461402 0.08172925 0.35365438 0.21426336 0.3673299 0.77501684 0.314045 -0.16556185
-0.20500802 -0.6925857 -0.6894076 -0.3360929 -0.44333968 -0.25711274 0.56611556 -0.27120274
-0.59097034 0.27444208 -0.9446916 0.35773647 -0.5571834 -0.4459513 0.2535662 -0.4466334
0.15659535 0.3766829 0.9224778 0.9410127 0.360271 -0.71168876 -0.20898157 0.23630942
-0.23738612 -0.6863589 -0.52028936 -1.1163325 0.115247004 -0.575954 0.8328598 -0.5510827
-0.49888095 -0.41260886 -0.8207253 -0.37628245 0.8488046 0.5120297 0.5085494 -0.82067287
0.32889515 0.6736298 -0.3240356 0.9735135 0.3337943 -0.7678203 0.7917763 0.15276392
-0.67104656 0.8719337 0.19270502 0.69184 -0.26546812 0.85135424 0.67077106 0.95345026
0.080237046 -0.3689812 -0.5068825 0.5392538 0.17929535 -0.75507903 0.6681153 0.07324918
-0.8201914 -0.9636912 0.46749976 0.7929789 -0.47140402 -0.61769253 -0.32223326 -0.27557218
-0.7541155 0.6570271 -0.52630293 0.1678064 -0.8239794 0.82336915 -0.14294635 -0.8436594
-0.44789633 -0.6142564 0.60711324 0.00014691247 -0.9155865 -0.26677665 0.18220803 1.0716242
0.8774332 0.24324763 0.20358805 0.4251757 -0.01016362 0.54637843 -0.6119015 -0.34269735
0.23665687 -0.23733433 0.41570127 -0.77163976 0.23673032 -0.0027720495 -0.72007805 -0.5205156
-0.6934776 -0.28456116 -0.17732607 0.4247707 0.1649104 1.0027623 -0.37500957 -0.3510958
0.7539607 0.72543687 0.7790596 0.30733287 1.0599804 -0.76540107 0.79206854 0.5437715
-0.029061602 -0.03955041 -0.6855717 0.65683264 -1.0005234 0.2520212 -0.14064021 -0.894593
-0.3793074 0.5099356 0.8288001 0.052788645 -0.61298174 0.19862054 0.3299548 -0.71247554
-0.7861122 -0.5918834 0.92763436 -0.36512056 -0.32652807 0.27239472 0.27187157 -0.70501375
0.32274777 -0.40567008 -0.117046915 -0.00026063976 -0.960896 -0.40521166 -0.15665011 0.42750403
-0.27290696 0.36164904 0.7824013 0.14953607 -0.54799014 0.17456761 0.599512 -0.03202677
-0.18818796 -0.49579155 -0.5936304 0.46759808 0.82903856 0.47696418 0.1663231 -0.8049121
0.079461254 -0.17726545 -0.26007566 -0.22779977 -0.14759447 0.6383878 -0.37177125 -0.86422694
-0.68972737 0.2716777 0.3315027 0.3671741 0.1936892 -0.63149613 -0.47141767 0.31791368
0.46875536 0.02427371 -0.5838584 0.7878377 0.66340995 -0.5706791 -0.101380974 -0.39491975
-0.72805566 0.7016955 -0.61258477 -0.36628675 0.6300927 -0.26562166 0.5590668 0.56278104
-0.7558983 0.40648067 -0.98163736 0.84005934 0.66749364 0.68262875 0.007399822 -0.006038567
-0.44657513 -0.49496898 -0.52371144 -0.32948995 0.34594035 -0.6569166 0.78606194 0.15263483
-0.8316345 -0.61179537 0.14253771 -0.16589834 0.0053812875 -0.27408257 0.6513398 -0.79615366
00000000: 1332 57bf 759c 613f 53f7 1a3f 8588 b6be
00000010: 33f8 8c3f 4ebe 723f 2df9 48bf 713e fbbe
00000020: 06f8 583f b16b 12bf 68b7 07bf 9bf5 8d3e
00000030: 4a35 0ebe 02b5 63be 58d2 c23e 0342 763f
00000040: e947 1fbf 9240 193d 52ff 113f 1d81 38bd
00000050: ddbe 5a3f ed01 573f 84e3 19bf f1f7 e8be
00000060: 0b03 3fbf aa61 a73d 3012 b53e db67 5b3e
00000070: aa12 bc3e 8167 463f 82ca a03e 0c89 29be
00000080: 9fed 51be 4c4d 31bf 047d 30bf 5e14 acbe
00000090: 6bfd e2be 48a4 83be f3ec 103f 16db 8abe
000000a0: d549 17bf ac83 8c3e 4fd7 71bf 3c29 b73e
000000b0: 92a3 0ebf bb53 e4be 6ed3 813e 22ad e4be
000000c0: 885a 203e 95dc c03e 8127 6c3f 35e6 703f
000000d0: 7175 b83e 3c31 36bf 44ff 55be 19fb 713e
000000e0: 5915 73be 38b5 2fbf af31 05bf fce3 8ebf
000000f0: 9f06 ec3d b971 13bf 4d36 553f c113 0dbf
00000100: 536d ffbe 7841 d3be 0e1b 52bf 18a8 c0be
00000110: 424b 593f 6114 033f 4b30 023f 9e17 52bf
00000120: f264 a83e 0173 2c3f ffe7 a5be 2e38 793f
00000130: 16e7 aa3e df8f 44bf dab1 4a3f 256e 1c3e
00000140: b5c9 2bbf 0c37 5f3f 7754 453e 6d1c 313f
00000150: 70eb 87be 5af2 593f a7b7 2b3f 5115 743f
00000160: 5253 a43d 1beb bcbe 0dc3 01bf 890c 0a3f
00000170: 3399 373e dc4c 41bf 9b09 2b3f ab03 963d
00000180: 10f8 51bf 77b4 76bf 215c ef3e aa00 4b3f
00000190: de5b f1be 1921 1ebf c2fb a4be cc17 8dbe
000001a0: b70d 41bf ee32 283f cabb 06bf 71d5 2b3e
000001b0: 50f0 52bf 52c8 523f 8760 12be 10fa 57bf
000001c0: ab52 e5be e83f 1dbf c66b 1b3f 840c 1a39
000001d0: e063 6abf f396 88be be94 3a3e fb2a 893f
000001e0: 769f 603f e815 793e 6379 503e a1b0 d93e
000001f0: 5085 26bc 75df 0b3f 94a5 1cbf 0776 afbe
00000200: 2e56 723e c507 73be ccd6 d43e 2f8a 45bf
00000210: 6f69 723e 46ab 35bb 0957 38bf 8340 05bf
00000220: bf87 31bf 00b2 91be f794 35be 8c7b d93e
00000230: 46de 283e 845a 803f 4101 c0be d4c2 b3be
00000240: 9203 413f 3bb6 393f 7370 473f bc5a 9d3e
00000250: 70ad 873f 53f1 43bf 01c5 4a3f 9c34 0b3f
00000260: 9912 eebc 9cff 21bd a081 2fbf 2f26 283f
00000270: 2711 80bf ec08 813e fd03 10be 0c04 65bf
00000280: 9434 c2be 248b 023f 3e2c 543f e838 583d
00000290: 5fec 1cbf 2f63 4b3e d6ef a83e cc64 36bf
000002a0: a63e 49bf ac85 17bf 7279 6d3f 15f1 babe
000002b0: b02e a7be 5277 8b3e c032 8b3e c87b 34bf
000002c0: 323f a53e fdb3 cfbe 4bb6 efbd 7aa6 88b9
000002d0: 48fd 75bf e777 cfbe e368 20be cfe1 da3e
000002e0: 76ba 8bbe 102a b93e 744b 483f fc1f 193e
000002f0: 1549 0cbf dac1 323e 9e79 193f 812e 03bd
00000300: 58b4 40be 64d8 fdbe 29f8 17bf 0469 ef3e
00000310: df3b 543f a634 f43e 9a50 2a3e b80e 4ebf
00000320: 95bc a23d 1385 35be a328 85be 5844 69be
00000330: 0123 17be 626d 233f cd58 bebe fa3d 5dbf
00000340: f991 30bf 5719 8b3e b9ba a93e 3efe bb3e
00000350: 7656 463e bba9 21bf a85d f1be 95c5 a23e
00000360: b400 f03e a9d9 c63c be77 15bf bbaf 493f
00000370: 3cd5 293f 0718 12bf d4a0 cfbd ec32 cabe
00000380: db61 3abf 51a2 333f 5bd2 1cbf f089 bbbe
00000390: c14d 213f 90ff 87be 001f 0f3f 6b12 103f
000003a0: 8d82 41bf 3c1e d03e 964c 7bbf 210e 573f
000003b0: dde0 2a3f c2c0 2e3f 357a f23b 2cdf c5bb
000003c0: 7fa5 e4be 936c fdbe f411 06bf e8b2 a8be
000003d0: 181f b13e b02b 28bf 5b3b 493f 4e4c 1c3e
000003e0: 00e6 54bf 9f9e 1cbf 68f5 113e 41e1 29be
000003f0: 8355 b03b 8d54 8cbe 35be 263f bad0 4bbf

head.0.bias f4 [512]
0.2857456 0.14976399 0.3496804 -0.3568191 -0.81485164 -0.19292709 -0.29517874 0.43099084
0.64927554 -0.08195448 0.2036681 0.5886811 0.02169014 0.7691512 0.6564127 0.5269586
0.45737046 -0.08190246 0.2362325 -0.4355279 -0.14821309 -0.56525725 -0.12446311 0.10457784
-0.5547387 -0.33788022 0.4215908 -0.07507778 -0.017194334 -0.22022504 -0.08935302 -0.5655134
-0.26445255 -0.20664547 -0.6358668 -0.073043235 0.2288343 -0.8208948 0.77292746 -0.74168134
-0.02871586 0.5988892 0.6917604 -0.091224924 0.616788 0.4554156 -0.21844944 -0.11716986
-0.07862877 -0.3831261 -0.6485688 -0.012548896 0.27124017 0.70089895 -0.06458504 0.26038387
-0.37886804 0.6109289 0.026846709 -1.1344118 -0.5116918 0.19810398 -0.5856714 0.2633642
0.52604693 -0.6237969 0.03722378 0.8351734 0.5824809 -0.48827526 -0.25519663 -0.46838018
0.29272157 -0.14895895 0.59904546 0.79002 0.41752905 0.31341076 0.8310282 -0.038459036
-0.25774118 0.8308225 -0.8698359 -0.6521171 0.04981428 0.60969007 -0.68174803 0.20828475
-0.12811574 -0.09739652 0.29492277 0.52459145 -0.038114667 -0.35934025 0.46877906 -0.2415401
-0.40540814 0.064442106 0.7325655 0.8685172 0.3034064 0.71978754 -0.63718253 0.097043335
0.11491664 0.069811985 0.5376078 -0.63621116 0.7652628 0.7747286 0.74674815 0.81291556
-0.6182868 -0.64067835 -0.098804675 -0.60581696 0.42922774 -0.29633105 0.44882232 -0.431734
-0.09907389 -0.5280942 -0.16135299 0.7391687 0.0024963017 -0.29885128 0.63548887 -0.47334218
-0.18368137 0.7914714 -0.74650365 -0.2980378 0.021264242 0.71530795 0.11465782 0.039709352
-0.6242153 0.2547187 0.31174883 -0.36875138 -0.5201272 -0.024819925 -0.7419372 -0.6726168
0.85834694 0.35445705 0.73284996 0.46619 -0.6011208 0.23758058 0.7394801 -0.50315726
0.05536527 0.34602243 0.70794773 -0.07162326 0.91334385 0.8004649 0.5436421 -0.21158315
0.5783947 -0.47813195 0.4001652 -0.124498434 -0.12529474 0.7232171 -0.61428285 0.412909
0.44690827 0.36499357 0.679337 -0.7634885 0.33788922 0.53485113 0.38652062 -0.62986153
0.8320629 -0.21125115 0.6564671 -0.2858685 0.26079044 -0.59915173 0.06940728 -0.10125275
-0.12981007 -0.4214266 -0.15539928 -0.040590025 0.1218762 0.4282593 -0.32805645 -0.6411531
0.47376046 -0.4110942 0.21816254 -0.7020621 -0.5849792 0.5283787 -0.090989605 0.6811431
0.6321965 0.06587482 0.5518836 0.044715412 -0.52590674 0.3234726 0.0873738 -0.49868542
-0.35056436 0.34850416 0.044631388 0.7538051 0.05168693 -0.30627295 0.4048951 -0.5456056
-0.11904021 -0.40221426 -0.8256618 -0.47754353 0.7568919 0.12826833 -0.58683515 0.22009993
-0.32413867 0.39415756 -0.7047457 0.13157725 0.37550864 0.10068833 -0.6226124 0.49540496
-0.43648455 0.6458067 0.6869955 0.7943729 0.30151045 0.66100866 0.33820423 -0.28075683
-0.0044800313 0.4200694 0.53287435 -0.65060174 -0.5163754 0.1894714 -0.7422407 -0.226588
-0.3945416 0.11072134 -0.18931046 0.43609637 -0.41313663 0.33166772 -0.5940389 0.7729429
00000000: 3f4d 923e bb5b 193e 4f09 b33e feb0 b6be
00000010: 1e9a 50bf ae8e 45be ab21 97be d5aa dc3e
00000020: ec36 263f c0d7 a7bd 5f8e 503e ceb3 163f
00000030: 85af b13c 18e7 443f aa0a 283f c2e6 063f
00000040: 762c ea3e 7abc a7bd efe6 713e 83fd debe
00000050: 2cc5 17be b3b4 10bf 84e6 febd e82c d63d
00000060: 5b03 0ebf a3fe acbe c0da d73e 61c2 99bd
00000070: 22db 8cbc ac82 61be b7fe b6bd 7cc5 10bf
00000080: 5366 87be df9a 53be 2bc8 22bf b197 95bd
00000090: 8a53 6a3e 2926 52bf 93de 453f d4de 3dbf
000000a0: 863d ebbc cd50 193f 3617 313f 22d4 babd
000000b0: d2e5 1d3f 3c2c e93e 36b1 5fbe c0f6 efbd
000000c0: 1f08 a1bd 1b29 c4be 9b08 26bf e299 4dbc
000000d0: fedf 8a3e 1d6e 333f 2945 84bd 0951 853e
000000e0: fefa c1be d665 1c3f a1ed db3c 6834 91bf
000000f0: 3cfe 02bf c5db 4a3e 90ee 15bf acd7 863e
00000100: 03ab 063f 27b1 1fbf f677 183d edcd 553f
00000110: 781d 153f 37ff f9be 22a9 82be 87cf efbe
00000120: 9adf 953e b288 18be 0b5b 193f c03e 4a3f
00000130: 5ec6 d53e 6077 a03e 44be 543f 3987 1dbd
00000140: a7f6 83be c9b0 543f 91ad 5ebf 25f1 26bf
00000150: 0f0a 4c3d a614 1c3f 0a87 2ebf 9948 553e
00000160: c630 03be d477 c7bd 1e00 973e a04b 063f
00000170: 201e 1cbd 72fb b7be cf03 f03e 4a56 77be
00000180: a891 cfbe 39fa 833d 6a89 3b3f 2557 5e3f
00000190: 1558 9b3e ff43 383f 651e 23bf a8be c63d
000001a0: 6a59 eb3d 96f9 8e3d aaa0 093f bcde 22bf
000001b0: 43e8 433f 9d54 463f e32a 3f3f 3c1b 503f
000001c0: 0b48 1ebf 7f03 24bf 1b5a cabd d216 1bbf
000001d0: bdc3 db3e b4b8 97be 0acc e53e 3d0c ddbe
000001e0: 40e7 cabd 2e31 07bf b839 25be 293a 3d3f
000001f0: fe98 233b 0903 99be 66af 223f e859 f2be
00000200: f816 3cbe df9d 4a3f dd1a 3fbf 6998 98be
00000210: 5932 ae3c 6c1e 373f b8d1 ea3d 46a6 223d
00000220: 93cc 1fbf 7d6a 823e 8b9d 9f3e fbcc bcbe
00000230: 0e27 05bf 2853 cbbc 99ef 3dbf 9d30 2cbf
00000240: a0bc 5b3f 657b b53e 0e9c 3b3f 75b0 ee3e
00000250: 0ee3 19bf 5348 733e 914e 3d3f eace 00bf
00000260: b1c6 623d da29 b13e 103c 353f 37af 92bd
00000270: e7d0 693f 45eb 4c3f 212c 0b3f 41a9 58be
00000280: ad11 143f b6cd f4be 74e2 cc3e 09f9 febd
00000290: 444d 00be c224 393f a441 1dbf cf68 d33e
000002a0: 29d1 e43e 70e0 ba3e 08e9 2d3f fb73 43bf
000002b0: d1ff ac3e 01ec 083f 08e6 c53e 9b3e 21bf
000002c0: 1302 553f 3952 58be 3a0e 283f 5b5d 92be
000002d0: 5386 853e 0262 19bf 6725 8e3d 9a5d cfbd
000002e0: eeec 04be 3ac5 d7be fd20 1fbe ba41 26bd
000002f0: 3b9a f93d ce44 db3e 04f7 a7be 9c22 24bf
00000300: bb90 f23e f07a d2be 0066 5f3e 57ba 33bf
00000310: 32c1 15bf d443 073f c258 babd 655f 2e3f
00000320: a1d7 213f 61e9 863d 3e48 0d3f 8227 373d
00000330: d3a1 06bf 339e a53e 09f1 b23d b253 ffbe
00000340: 2c7d b3be 236f b23e 67cf 363d 5ff9 403f
00000350: adb5 533d cfcf 9cbe 694e cf3e cfac 0bbf
00000360: 5bcb f3bd 07ef cdbe 925e 53bf 9680 f4be
00000370: abc3 413f c658 033e d43a 16bf e061 613e
00000380: 81f5 a5be 05cf c93e 376a 34bf 30bc 063e
00000390: ab42 c03e af35 ce3d 8763 1fbf b8a5 fd3e
000003a0: e77a dfbe 9753 253f f0de 2f3f 065c 4b3f
000003b0: 945f 9a3e dd37 293f 1b29 ad3e 5cbf 8fbe
000003c0: 3acd 92bb 5613 d73e 746a 083f d68d 26bf
000003d0: 2e31 04bf ca04 423e 7d03 3ebf af06 68be
000003e0: 5b01 cabe dfc1 e23d 9ada 41be 0648 df3e
000003f0: a586 d3be 5ad0 a93e ef12 18bf 96df 453f

head.3.weight f4 [256, 512]
-0.098838486 -0.0046453616 0.035582878 -0.00520784 -0.013608519 0.067363024 -0.033499077 0.01485727
0.03337738 -0.04385423 -0.08154941 -0.01701693 -0.008223188 -0.019032152 0.030185523 0.031072421
-0.01556188 -0.0072065736 0.014538001 -0.022525232 0.056900773 0.039257005 -0.00564797 -0.10788716
-0.017691465 0.003956509 0.027889123 0.032105356 0.01791298 0.14537463 0.10760954 -0.007898533
0.011713413 0.029886998 0.04230843 -0.028110897 -0.0011418283 0.03753845 0.026425345 0.007831079
0.0036920805 0.023657165 -0.03889536 0.13376896 -0.012509125 0.015791219 0.025114745 -0.014635447
0.011298578 0.011951254 0.050216343 0.035169918 0.044561073 -0.045005128 -0.03634963 0.015643364
0.025236683 0.03148186 -0.06523589 0.04422129 -0.02287018 -0.10411253 0.05670994 -0.035824344
-0.048784222 -0.012780675 -0.04591703 -0.0045803036 -0.015442957 -0.02976305 0.076425746 0.027988175
0.025415672 0.08824715 0.014898731 0.027210573 0.01863121 -0.107959494 -0.031484462 0.12828611
-0.014617301 -0.029971927 -0.0035254334 -0.018424978 -0.096411794 -0.03426745 0.011199088 0.026999438
-0.012592469 0.028741289 -0.05634386 -0.019328294 0.09876151 -0.026500694 0.038592618 0.034578685
-0.0036258884 -0.030734273 0.025081487 -0.026110776 -0.036537427 -0.04061408 0.013705833 -0.10999923
-0.02076616 -0.00466511 -0.0023545092 -0.0389216 -0.03888064 -0.014970238 -0.028726079 0.022127066
-0.026905457 0.032144953 0.0903575 0.024814386 -0.06478157 -0.04378569 -0.034456383 0.10653851
0.018609846 -0.008093518 -0.021152979 0.030593256 -0.04027315 0.050834354 0.0061694374 0.01934143
0.021732697 0.01966468 -0.021496546 -0.027143864 0.029503776 -0.006142771 -0.02846184 -0.016966686
-0.03330501 -0.01714945 -0.012825822 -0.004434187 -0.034067985 -0.013025437 0.015322702 -0.019964403
0.04659843 0.04320973 -0.025721207 -0.032417905 -0.010985228 -0.10461232 0.011086415 0.014073099
-0.037158202 -0.046070475 -0.041321542 0.091600746 -0.050736554 0.020968065 -0.017787175 -0.034114417
-0.029026637 0.05134153 0.012012719 0.034695536 -0.054874405 0.0084524155 0.016390702 -0.051882844
-0.049700055 -0.05498836 -0.02127719 -0.009709464 -0.014495389 -0.037451617 0.02065435 -0.021106532
-0.029137129 0.01893029 -0.007864938 0.008170016 -0.113544956 -0.038970128 -0.06313007 0.12053898
-0.030950818 0.0077626854 0.13934697 0.054494344 -0.0951581 0.042029537 0.030882342 0.00492746
-0.014040725 0.001420457 -0.084864326 -0.011184152 0.022493428 -0.008502126 0.00709409 0.01176246
0.029137898 0.0047014956 -0.015811412 0.00039864136 0.010435386 0.04888925 -0.103841715 -0.017342977
-0.015299946 -0.028653584 -0.0016863762 0.024554372 0.048164297 0.036720242 -0.02612578 -0.0066938237
0.12432804 -0.035225555 -0.02632485 0.011574717 -0.018524194 -0.06952799 -0.041785765 0.021115819
0.009551578 -0.02859647 0.0024609214 -0.05306681 -0.008855176 -0.003166186 0.032922607 -0.019722337
0.03013622 0.009521228 -0.012334159 -0.0009844248 -0.016910572 -0.006442209 0.028165136 0.0074640047
-0.016798716 0.0066981004 0.021660652 -0.025678176 0.024152152 -0.11531912 -0.028940778 0.034260675
0.0068894746 -0.084973514 0.041550502 0.032603383 0.007535774 -0.038843982 -0.01956006 -0.029596511
00000000: d56b cabd 1e38 98bb 5abf 113d 87a6 aabb
00000010: 44f6 5ebc a0f5 893d 5436 09bd e86b 733c
00000020: b8b6 083d 7ea0 33bd 6103 a7bd 1767 8bbc
00000030: 8dba 06bc 51e9 9bbc a147 f73c 978b fe3c
00000040: 41f7 7ebc 1f25 ecbb cc30 6e3c d686 b8bc
00000050: c910 693d f4cb 203d 9b12 b9bb f1f3 dcbd
00000060: b1ed 90bc 9aa5 813b bb77 e43c e880 033d
00000070: 3ebe 923c 16dd 143e 6462 dc3d d968 01bc
00000080: 9de9 3f3c 94d5 f43c 9b4b 2d3d d348 e6bc
00000090: 66a9 95ba ebc1 193d f779 d83c ed4d 003c
000000a0: d5f6 713b accc c13c be50 1fbd bbfa 083e
000000b0: 13f3 4cbc 965c 813c 70bd cd3c 84c9 6fbc
000000c0: ac1d 393c 31cf 433c a7af 4d3d 550e 103d
000000d0: ac85 363d 4c57 38bd 5ae3 14bd 8326 803c
000000e0: 29bd ce3c 1ff3 003d 659a 85bd 6221 353d
000000f0: 3e5a bbbc f338 d5bd af48 683d 8cbc 12bd
00000100: f7d1 47bd 0966 51bc 7f13 3cbd 5f16 96bb
00000110: 7504 7dbc a4d1 f3bc 1a85 9c3d 7547 e53c
00000120: 8734 d03c ecba b43d cf19 743c b5e8 de3c
00000130: 7ba0 983c de19 ddbd daf5 00bd 6f5d 033e
00000140: 677d 6fbc b087 f5bc f50a 67bb fbef 96bc
00000150: 8c73 c5bd 075c 0cbd 617c 373c ed2d dd3c
00000160: a550 4ebc da72 eb3c d2c8 66bd 5f56 9ebc
00000170: 7943 ca3d fc17 d9bc 4b13 1e3d 61a2 0d3d
00000180: 50a0 6dbb 71c6 fbbc b177 cd3c 44e6 d5bc
00000190: 45a8 15bd f35a 26bd 6e8e 603c 4747 e1bd
000001a0: cb1d aabc c7dd 98bb 1c4e 1abb 416c 1fbd
000001b0: 4e41 1fbd bb45 75bc f452 ebbc d243 b53c
000001c0: d568 dcbc 6daa 033d 5a0d b93d 8a47 cb3c
000001d0: 33ac 84bd a058 33bd 2322 0dbd dd30 da3d
000001e0: ad73 983c ad9a 04bc 0349 adbc b59e fa3c
000001f0: 75f5 24bd af37 503d fe28 ca3b eb71 9e3c
00000200: c508 b23c d317 a13c 8619 b0bc cf5c debc
00000210: e7b1 f13c 4c49 c9bb ce28 e9bc b8fd 8abc
00000220: d66a 08bd 017d 8cbc 6623 52bc a84c 91bb
00000230: df8a 0bbd a468 55bc 120c 7b3c 638c a3bc
00000240: ffdd 3e3d b0fc 303d 48b5 d2bc a3c8 04bd
00000250: 63fb 33bc fc3e d6bd cba3 353c db92 663c
00000260: 3333 18bd 65b4 3cbd c740 29bd 2c99 bb3d
00000270: 22d1 4fbd 38c5 ab3c 69b6 91bc 8fbb 0bbd
00000280: 45c9 edbc 7f4b 523d ffd0 443c e81c 0e3d
00000290: fcc3 60bd 007c 0a3c cb45 863c 1b83 54bd
000002a0: 4992 4bbd 793b 61bd 804d aebc 7214 1fbc
000002b0: 117e 6dbc de66 19bd 5033 a93c 9be7 acbc
000002c0: fdb0 eebc b213 9b3c f1db 00bc 88db 053c
000002d0: 428a e8bd 249f 1fbd 574a 81bd 24dd f63d
000002e0: 928c fdbc 205e fe3b f9b0 0e3e 7635 5f3d
000002f0: 40e2 c2bd 2a27 2c3d f7fc fc3c 8876 a13b
00000300: 120b 66bc a12e ba3a 59cd adbd bc3d 37bc
00000310: 2344 b83c 804c 0bbc 8a75 e83b 55b7 403c
00000320: 9ab2 ee3c 010f 9a3b ef86 81bc bd00 d139
00000330: 2ef9 2a3c 1840 483d f7aa d4bd dc12 8ebc
00000340: a0ac 7abc ecba eabc 6509 ddba 4026 c93c
00000350: ed47 453d f767 163d bb05 d6bc dd57 dbbb
00000360: b39f fe3d ac48 10bd 36a7 d7bc e2a3 3d3c
00000370: 0dc0 97bc b164 8ebd 8d27 2bbd 15fb ac3c
00000380: 397e 1c3c 2543 eabc 6947 213b 955c 59bd
00000390: 4d15 11bc c97f 4fbb dbd9 063d bd90 a1bc
000003a0: 3ce0 f63c edfe 1b3c 3615 4abc d107 81ba
000003b0: 0a88 8abc 2a19 d3bb 92ba e63c 9c94 f43b
000003c0: 769d 89bc bd7b db3b ae71 b13c 0a5b d2bc
000003d0: bcda c53c 6e2c ecbd 3615 edbc ec54 0c3d
000003e0: 1ac1 e13b 9806 aebd dc30 2a3d 208b 053d
000003f0: a7ee f63b de1a 1fbd 6b3c a0bc 6274 f2bc

head.3.bias f4 [256]
-0.0060556033 0.035979573 -0.029765638 0.0022795275 -0.032275848 -0.019860033 -0.023999795 0.029756011
0.011255294 0.030114358 0.02768632 0.00051569333 -0.0179704 0.02602525 -0.021840407 0.027009487
-0.027306296 0.030477267 -0.0139676975 -0.022807257 -0.028678183 -0.0024941945 -0.039453268 0.00456703
-0.004969736 0.0068232743 -0.017410778 0.03963479 0.043330986 0.028351245 0.0189578 0.0120937545
-0.018257577 -0.026504878 0.037107382 0.025273891 -0.030020779 -0.0087641645 -0.02044172 0.0031656097
-0.045830354 -0.00027467633 0.009613781 -0.023108695 0.010906274 -0.028372211 0.035653275 0.018929174
-0.02201768 0.046228524 -0.03989909 -0.011543649 0.04469204 0.025237437 -0.0019307238 0.00090298255
0.030807028 0.033941615 -0.022548182 0.0025269082 -0.0019250568 -0.0038416919 -0.010189537 0.03335171
-0.03603371 0.014006371 0.029664956 0.016648153 0.019300703 -0.031931113 0.012794232 0.029601598
-0.03558867 -0.012430722 -0.015880918 0.0068742335 0.0035216324 0.015892696 0.0036773714 -0.03243405
-0.016776819 -0.00016625169 -0.02639425 -0.013194433 0.016424486 -0.007889464 0.004492544 -0.025864208
-0.0026222905 -0.024922282 0.0061669676 0.036094684 -0.00067786046 -0.032037344 -0.033629768 -0.025278477
0.0049692476 -0.03545861 0.0240878 0.0043033054 0.0077893506 -0.032615848 -0.0040623476 0.027572226
0.008949236 -0.0037412606 -0.058524344 -0.008845886 0.020511162 0.04152023 0.02495964 -0.038698472
-0.014145468 0.037713572 -0.01629823 0.018457254 -0.04329501 0.011482437 -0.010145604 0.026621241
0.029984584 -0.0028449467 0.026835665 -0.0054910555 0.01733159 0.021087864 0.009036126 -0.011296263
0.011433125 0.0138742905 -0.017370647 -0.024290895 -0.0064270585 -0.0056745694 -0.029671414 -0.016703745
-0.01607251 -0.032502864 0.026815373 -0.0045044455 -0.02060454 -0.0037678261 -0.02036237 -0.0071146395
0.03580393 -0.011381922 0.042551477 -0.039106544 0.0034315814 0.02624127 0.0315847 -0.034783706
-0.031531867 0.034834556 0.027649783 0.026539853 -0.022404032 -0.0238788 -0.009289251 -0.046568234
-0.03286589 0.0015618951 -0.011355043 0.0018401446 -0.003346163 -0.017003085 -0.025867878 -0.011329682
0.020516017 -0.034325995 -0.033778302 -0.02745145 0.012656086 0.017463764 0.031926848 0.039126717
-0.006890503 0.020291364 0.005946257 0.019997822 -0.0034369153 0.024349632 -0.006276797 -0.0068359
0.020461727 -0.035483427 0.025383035 -0.04563618 0.021870093 -0.023232082 -0.03634148 0.036214158
-0.029062847 0.0017516412 -0.037627246 -0.013144345 0.004392251 0.028150342 0.02249865 -0.002362598
-0.02303783 -0.021529231 0.008927306 0.02929625 0.031061972 0.002449141 -0.020033207 -0.0143773835
-0.027338764 -0.025435794 -0.014497414 -0.03250728 0.018532697 -0.023483181 -0.03645589 -0.04956096
0.019611262 0.0045407075 0.019478638 -0.023170615 -0.013539949 -0.041390397 -0.049723476 -0.016204547
-0.013094447 0.010642851 -0.012701761 0.019477274 -0.014067221 -0.03548371 -0.0018825659 -0.009504979
-0.007387243 0.004939164 0.04619987 -0.038618624 0.0037863757 -0.013296483 0.028788427 0.019016169
-0.03384755 -0.041060753 0.041381992 -0.046530403 -0.012230271 -0.02813444 -0.023554152 0.007937426
-0.00242524 -0.04577439 -0.03880481 -0.019723034 0.009298655 0.006732991 0.024549462 -0.022388909
00000000: 156e c6bb 515f 133d 11d7 f3bc 2064 153b
00000010: ae33 04bd 82b1 a2bc 389b c4bc e1c2 f33c
00000020: 2068 383c 63b2 f63c 6cce e23c 982f 073a
00000030: a936 93bc e832 d53c a7ea b2bc 0043 dd3c
00000040: 74b1 dfbc 76ab f93c c5d8 64bc 49d6 babc
00000050: 82ee eabc a475 23bb c099 21bd 06a7 953b
00000060: 2bd9 a2bb c695 df3b 0ca1 8ebc 1758 223d
00000070: d57b 313d df40 e83c 634d 9b3c e224 463c
00000080: ea90 95bc c220 d9bc e9fd 173d 310b cf3c
00000090: 23ee f5bc 9297 0fbc 6575 a7bc 1e76 4f3b
000000a0: 9cb8 3bbd 6f02 90b9 1f83 1d3c 724e bdbc
000000b0: 3bb0 323c d76c e8bc 2b09 123d 5b11 9b3c
000000c0: 6c5e b4bc 1f5a 3d3d 3a6d 23bd 9321 3dbc
000000d0: 000f 373d bebe ce3c 5710 fdba 22b6 6c3a
000000e0: 055f fc3c 5d06 0b3d f7b6 b8bc 7c9a 253b
000000f0: 3052 fcba e5c4 7bbb 04f2 26bc cd9b 083d
00000100: 1598 13bd fa7a 653c ec03 f33c b561 883c
00000110: 821c 9e3c 33ca 02bd e69e 513c 0d7f f23c
00000120: 6dc5 11bd 3aaa 4bbc b318 82bc 4041 e13b
00000130: 30cb 663b 6631 823c 0e00 713b 91d9 04bd
00000140: 8a6f 89bc d953 2eb9 c138 d8bc 772d 58bc
00000150: a58c 863c cf42 01bc 3136 933b 2de1 d3bc
00000160: bcda 2bbb d029 ccbc 4614 ca3b 05d8 133d
00000170: 72b2 31ba 9739 03bd 5ebf 09bd cf14 cfbc
00000180: 12d5 a23b 0c3d 11bd c753 c53c be02 8d3b
00000190: cf3d ff3b 3298 05bd 711d 85bb 26df e13c
000001a0: d19f 123c f02f 75bb 39b7 6fbd 56ee 10bc
000001b0: 0607 a83c 1e11 2a3d 2978 cc3c 4a82 1ebd
000001c0: 65c2 67bc 8c79 1a3d de83 85bc ab33 973c
000001d0: 1c56 31bd d520 3c3c bf39 26bc ca14 da3c
000001e0: 3ba2 f53c 4972 3abb 78d6 db3c 50ee b3bb
000001f0: fbfa 8d3c 75c0 ac3c 420c 143c f613 39bc
00000200: 0052 3b3c fe50 633c e34c 8ebc b3fd c6bc
00000210: 139a d2bb bdf1 b9bb 7711 f3bc 4bd6 88bc
00000220: 7faa 83bc b921 05bd eaab db3c 079a 93bb
00000230: daca a8bc a2ed 76bb fcce a6bc ec21 e9bb
00000240: 24a7 123d 3e7b 3abc 754a 2e3d 2f2e 20bd
00000250: 62e4 603b eff7 d63c f55e 013d 5c79 0ebd
00000260: 8f27 01bd aeae 0e3d cc81 e23c 1b6a d93c
00000270: a988 b7bc 799d c3bc f131 18bc 55be 3ebd
00000280: 629e 06bd 81b8 cc3a 810a 3abc 0231 f13a
00000290: 4d4b 5bbb 0e4a 8bbc dfe8 d3bc 21a0 39bc
000002a0: 3511 a83c 6a99 0cbd 1e5b 0abd dde1 e0bc
000002b0: 795b 4f3c 2b10 8f3c bac5 023d 5643 203d
000002c0: bbc9 e1bb 133a a63c d2d8 c23b 79d2 a33c
000002d0: df3d 61bb e178 c73c 97ad cdbb afff dfbb
000002e0: 5a9f a73c 1257 11bd 15f0 cf3c 01ed 3abd
000002f0: e928 b33c 3551 bebc ceda 14bd 4c55 143d
00000300: 3515 eebc 5397 e53a 071f 1abd 615b 57bc
00000310: dfec 8f3b 8c9b e63c 174f b83c d1d5 1abb
00000320: d5b9 bcbc 125e b0bc d643 123c b0fe ef3c
00000330: ad75 fe3c c481 203b ae1c a4bc 1e8f 6bbc
00000340: 8bf5 dfbc ba5e d0bc 9086 6dbc 5b26 05bd
00000350: e2d1 973c cd5f c0bc c552 15bd 6f00 4bbd
00000360: cca7 a03c 37ca 943b aa91 9f3c 4dd0 bdbc
00000370: aad6 5dbc fa88 29bd d8aa 4bbd 66bf 84bc
00000380: 178a 56bc 5a5f 2e3c 0c1b 50bc ce8e 9f3c
00000390: 347a 66bc 5e57 11bd 6ec0 f6ba c5ba 1bbc
000003a0: b010 f2bb b6d8 a13b 133c 3d3d 902e 1ebd
000003b0: d824 783b 7ed9 59bc b5d5 eb3c ccc7 9b3c
000003c0: bba3 0abd 522f 28bd 2a80 293d aa96 3ebd
000003d0: 7961 48bc 327a e6bc a3f4 c0bc fa0b 023c
000003e0: c6f0 1ebb ed7d 3bbd cbf1 1ebd 3392 a1bc
000003f0: 6359 183c 6ca0 dc3b f41b c93c f268 b7bc

head.6.weight f4 [128, 256]
0.05776586 -3.6308975e-05 0.065133184 0.026477778 -0.009375597 -0.032106142 0.040930048 -0.03380081
-0.029237682 0.0245855 0.04387698 0.016331254 0.025399135 0.04254463 0.061123863 0.04749839
0.024671415 -0.057419185 -0.03568946 0.00567396 0.026232705 -0.00904149 -0.052293338 0.016248193
0.051533815 0.065719984 0.048553217 -0.015497784 0.047875073 -0.0045992574 -0.016750412 0.042328693
-0.041038822 -0.047361802 -0.021999508 -0.028555814 -0.023678852 0.04585792 0.025759103 -0.021836562
-0.024811817 0.009549365 -0.055249456 -0.030412689 -0.034985512 0.021573393 -0.028752204 0.055743955
0.027095374 -0.027177114 0.020391822 -0.003458751 0.025557803 -0.036456328 -0.014585972 0.018489785
0.03685058 0.047328282 -0.050354823 -0.0064967675 -0.017544989 0.04505887 -0.009276257 0.027999232
-0.06202322 0.027452135 0.05535037 -0.032651655 -0.06685041 0.020702185 -0.05562433 -0.039734732
-0.06436197 -0.033296067 0.003998859 0.04793949 -0.037598852 -0.042812936 -0.01964508 0.032732718
-0.05092398 0.002053922 -0.0049993717 0.00030362888 0.032812875 -0.05668093 0.027083077 0.038914323
0.045751553 -0.03643734 0.051302314 0.0414751 0.004382587 -0.029494448 -0.04718611 0.04164493
0.011236773 0.038415916 0.0529223 -0.039186675 0.04242873 0.023065541 0.042092312 -0.030086271
-0.031084817 -0.067697465 0.007180501 -0.05326872 -0.044700954 0.06180082 -0.047534056 -0.003981051
0.017907357 0.03774038 -0.0074160337 0.00036133442 0.03771604 0.0055577406 -0.045424215 -0.03687206
0.06024891 0.056495633 0.031357903 0.027394528 0.035392024 0.034081765 -0.013125541 0.006745247
0.03291245 -0.042801853 -0.019207384 0.03431935 0.029423874 -0.04031802 -0.012548743 -0.054975536
-0.0011215425 0.0581131 0.03535218 -0.02843537 -0.0034235534 -0.029262442 -0.01355272 0.019949999
-0.018758586 0.02285532 0.036266375 0.03257884 0.0069101606 0.058634892 -0.052887272 -0.016315714
-0.01854725 -0.028663833 -0.031818587 -0.024015177 -0.036596674 -0.045570944 0.0121589415 -0.0026092746
-0.00042887303 0.03160462 -0.003897787 -0.023016913 0.030883798 0.022575386 0.049828883 0.035439722
-0.012887069 -0.032933276 0.04346195 -0.016692659 -0.05700829 0.060040988 -0.04199042 -0.033294518
-0.05420388 0.02212778 -0.053114124 -0.010049332 0.019685397 -0.05261766 -0.008934214 -0.043281112
0.05299719 0.03290286 -0.01472248 -0.002803975 0.033959355 0.010630307 -0.011215021 -0.056292154
-0.04160176 -0.055442307 0.0066154087 0.0070443354 0.008092354 -0.02862135 -0.0064844447 0.013194341
0.029000942 0.031048397 0.038941935 -0.047572013 0.018752204 -0.06421666 -0.045363855 -0.054507136
-0.032456577 -0.047144778 0.0034838535 -0.05407571 0.03510811 -0.055545297 0.05320106 -0.03719874
0.0024014008 0.05491545 0.059906106 -0.037376612 0.048743542 0.0065691164 0.014067436 -0.037958056
0.0041393507 0.021140167 0.0075965086 0.036593452 0.015664477 0.024215829 0.018831981 0.021008415
-0.040358793 0.02277703 -0.045454483 0.044387225 0.0072426978 0.04452466 0.048505824 -0.03489181
-0.055579253 0.015336254 0.05788909 0.051316526 0.019158365 -0.0036513922 0.06723652 0.025501551
0.024666207 0.00311371 -0.04133097 -0.063174486 -0.030565636 0.015636832 0.02125969 0.02672816
00000000: e59b 6c3d 774a 18b8 8c64 853d ede7 d83c
00000010: 1b9c 19bc bb81 03bd 44a6 273d b872 0abd
00000020: dd83 efbc 8867 c93c 59b8 333d 1fc9 853c
00000030: d911 d03c 4743 2e3d 045d 7a3d ac8d 423d
00000040: b51b ca3c 6130 6bbd 1c2f 12bd a0ec b93b
00000050: f8e5 d63c c222 14bc 8a31 56bd ee1a 853c
00000060: 1f15 533d 3398 863d bddf 463d 6bea 7dbc
00000070: a718 443d 5eb5 96bb 2938 89bc da60 2d3d
00000080: 5318 28bd 73fe 41bd 5038 b4bc e2ed e9bc
00000090: 27fa c1bc 84d5 3b3d c104 d33c 97e2 b2bc
000000a0: 2742 cbbc f174 1c3c 414d 62bd 0824 f9bc
000000b0: f84c 0fbd afba b03c be89 ebbc c653 643d
000000c0: 1ef7 dd3c 8aa2 debc c00c a73c 36ac 62bb
000000d0: 995e d13c 3b53 15bd 00fa 6ebc e477 973c
000000e0: a2f0 163d 4ddb 413d dc40 4ebd d6e2 d4bb
000000f0: 82ba 8fbc a68f 383d 71fb 17bc a55e e53c
00000100: 0f0c 7ebd 4de3 e03c 12b7 623d bebd 05bd
00000110: dee8 88bd a197 a93c 56d6 63bd e3c0 22bd
00000120: 35d0 83bd 7561 08bd dc08 833b 335c 443d
00000130: 4101 1abd 9e5c 2fbd b8ee a0bc be12 063d
00000140: aa95 50bd 189b 063b c5d1 a3bb 6130 9f39
00000150: cb66 063d 432a 68bd 54dd dd3c a064 1f3d
00000160: fb65 3b3d 523f 15bd 6022 523d cbe1 293d
00000170: ce9b 8f3b 579e f1bc 3946 41bd e093 2a3d
00000180: 711a 383c 025a 1d3d 0ec5 583d 3582 20bd
00000190: bfc9 2d3d f2f3 bc3c fd68 2c3d 7c77 f6bc
000001a0: 96a5 febc f8a4 8abd 684a eb3b 4d30 5abd
000001b0: 5918 37bd db22 7d3d 12b3 42bd 7a73 82bb
000001c0: 73b2 923c a895 1a3d 3302 f3bb 7c71 bd39
000001d0: 227c 1a3d b51d b63b be0e 3abd 2807 17bd
000001e0: 90c7 763d f767 673d 2571 003d 7d6a e03c
000001f0: 3af7 103d 5299 0b3d 820c 57bc 3c07 dd3b
00000200: 35cf 063d ff50 2fbd ce58 9dbc 7292 0c3d
00000210: 560a f13c 8224 25bd 3e99 4dbc 072e 61bd
00000220: b900 93ba 0008 6e3d 73cd 103d 4bf1 e8bc
00000230: b25d 60bb cab7 efbc 3a0c 5ebc 2e6e a33c
00000240: 9bab 99bc 143b bb3c 0d8c 143d 6471 053d
00000250: a16e e23b 242b 703d 53a0 58bd 88a8 85bc
00000260: 67f0 97bc 6ad0 eabc 3554 02bd 7abb c4bc
00000270: 65e6 15bd 99a8 3abd 4c36 473c 5d00 2bbb
00000280: 5dda e0b9 d973 013d 0472 7fbb f78d bcbc
00000290: 0500 fd3c 04f0 b83c 5f19 4c3d 3e29 113d
000002a0: 4924 53bc 0be5 06bd 2805 323d 0bbf 88bc
000002b0: 8681 69bd 8aed 753d 26fe 2bbd d55f 08bd
000002c0: e304 5ebd 5145 b53c 328e 59bd f4a5 24bc
000002d0: 4543 a13c 9e85 57bd cf60 12bc 8947 31bd
000002e0: 9513 593d 26c5 063d 8f36 71bc e5c2 37bb
000002f0: f718 0b3d bd2a 2e3c 35bf 37bc 9a92 66bd
00000300: 9b66 2abd 7917 63bd 12c6 d83b 2bd4 e63b
00000310: cb95 043c 5277 eabc 777b d4bb 142d 583c
00000320: 6293 ed3c 3559 fe3c 9481 1f3d dfda 42bd
00000330: 399e 993c 0684 83bd 73cf 39bd e042 5fbd
00000340: 30f1 04bd e21a 41bd 5d51 643b 7e7e 5dbd
00000350: 86cd 0f3d 7783 63bd 5be9 593d b55d 18bd
00000360: d260 1d3b 06ef 603d 1b60 753d 3818 19bd
00000370: 4fa7 473d be41 d73b 1a7b 663c e879 1bbd
00000380: 64a3 873b 252e ad3c 22ec f83b 04e3 153d
00000390: ca52 803c 4660 c63c 8745 9a3c d719 ac3c
000003a0: 434f 25bd e596 ba3c 7b2e 3abd 61cf 353d
000003b0: 2754 ed3b 7d5f 363d 0bae 463d b7ea 0ebd
000003c0: 12a7 63bd e944 7b3c 1c1d 6d3d 4731 523d
000003d0: 01f2 9c3c 324c 6fbb 4db3 893d a1e8 d03c
000003e0: c910 ca3c 630f 4c3b aa4a 29bd a061 81bd
000003f0: c964 fabc d018 803c cd28 ae3c 04f5 da3c

head.6.bias f4 [128]
0.009886434 0.07375221 -0.047424864 0.02923129 -0.043968413 0.0914697 -0.07574935 -0.03496759
0.07546032 -0.13393229 0.0393098 0.091115646 0.0059428415 -0.020123538 -0.09261759 0.0018739457
-0.1111277 0.0661993 0.036760107 0.030474601 -0.15369901 0.03961965 0.055013884 -0.14492232
-0.008623623 -0.073575735 -0.06678987 -0.10434656 -0.02634195 0.049606044 0.06447075 -0.04486056
-0.16979235 0.02487661 0.033259835 -0.005014547 0.035212625 -0.021457007 0.059426706 0.08430003
0.06930218 -0.05292431 -0.03150159 0.018466389 -0.10670564 0.083057 0.027388474 0.110056564
-0.0017393493 0.054035615 -0.07984873 0.03612142 -0.09766269 -0.010586921 0.05529024 0.018466413
0.0008790738 -0.14744474 0.020355243 0.033678215 0.087915674 0.027296796 0.029329356 0.06353197
0.084350936 0.07820277 -0.09896624 0.019751912 -0.008212001 -0.104019836 -0.12049503 -0.13563809
0.07849299 0.0920403 -0.09753398 -0.007148929 -0.09332446 0.000824357 0.048218314 -0.03395295
-0.051305834 -0.020102633 0.056684848 -0.07257877 0.07711605 0.043691732 0.033273887 0.080533735
-0.07762696 -0.027554667 -0.0039788582 0.03740612 0.041681588 0.06628839 -0.08641208 -0.14970581
0.014887668 -0.09992887 -0.01735605 -0.01822879 -0.10020058 -0.08031992 0.06049968 -0.10456253
0.062173594 -0.026131427 0.0729878 0.039404247 0.011876245 0.035178266 -0.03798279 -0.025589323
-0.020946413 0.069212705 -0.14428592 -0.02577245 -0.07099516 -0.022302877 -0.019887898 0.10116295
0.059558038 0.07151505 -0.09719654 -0.020433636 -0.0035688512 -0.07579975 -0.004046127 -0.0655787
00000000: b6fa 213c 660b 973d 9340 42bd 7576 ef3c
00000010: 3918 34bd 7754 bb3d 7a22 9bbd 2d3a 0fbd
00000020: f18a 9a3d 8c25 09be 5003 213d d79a ba3d
00000030: 2bbc c23b 1eda a4bc 4bae bdbd 2f9f f53a
00000040: eb96 e3bd 8093 873d c491 163d dfa5 f93c
00000050: 4663 1dbe 3748 223d 3d56 613d 8466 14be
00000060: 194a 0dbc e0ae 96bd 21c9 88bd a6b3 d5bd
00000070: 13cb d7bc b52f 4b3d 3e09 843d b5bf 37bd
00000080: 0cde 2dbe 08ca cb3c 773b 083d 1251 a4bb
00000090: 1d3b 103d 9bc6 afbc 6b69 733d 7ea5 ac3d
000000a0: 4dee 8d3d 29c7 58bd d007 01bd d346 973c
000000b0: 7d88 dabd ca19 aa3d cb5d e03c 5665 e13d
000000c0: e1fa e3ba 7354 5d3d bb87 a3bd 0ef4 133d
000000d0: 6003 c8bd c474 2dbc 0578 623d e046 973c
000000e0: a571 663a c1fb 16be 0ac0 a63c 2bf2 093d
000000f0: 220d b43d 889d df3c 1e44 f03c 0d1d 823d
00000100: 2fc0 ac3d c628 a03d d0ae cabd c3ce a13c
00000110: a18b 06bc 5a08 d5bd 19c6 f6bd b6e4 0abe
00000120: efc0 a03d a07f bc3d e5bf c7bd 9041 eabb
00000130: e520 bfbd a919 583a 9180 453d 4012 0bbd
00000140: 1126 52bd 47ae a4bc 5f2e 683d 2ea4 94bd
00000150: 05ef 9d3d 1af6 323d 334a 083d dfee a43d
00000160: e2fa 9ebd 53ba e1bc 1561 82bb 2937 193d
00000170: 50ba 2a3d 35c2 873d d1f8 b0bd 7b4c 19be
00000180: 68eb 733c 82a7 ccbd 462e 8ebc 8b54 95bc
00000190: f635 cdbd c57e a4bd 83ce 773d e124 d6bd
000001a0: bda9 7e3d 9311 d6bc a17a 953d 5966 213d
000001b0: 9594 423c 1617 103d d893 1bbd b3a0 d1bc
000001c0: d097 abbc 64bf 8d3d b0bf 13be bf20 d3bc
000001d0: e965 91bd 86b4 b6bc f2eb a2bc 852e cf3d
000001e0: 21f3 733d 7c76 923d fb0e c7bd 7164 a7bc
000001f0: 63e3 69bb e63c 9bbd 6095 84bb 204e 86bd

head.9.weight f4 [7, 128]
0.011682781 -0.0009743828 -0.010037834 0.0008067867 -0.000961696 -0.0037558938 -0.019320212 -0.011239069
0.0068565505 -0.012257101 0.019378377 0.0004423976 0.013189067 -0.022829724 -0.026940824 0.012524622
-0.020627495 0.0018660255 0.018493325 0.013751388 -0.017370299 -0.0059633474 0.005301054 -0.014379532
-0.02164597 -0.02216071 -0.02419507 -0.02280409 -0.012787098 0.012072147 0.012265253 -0.023554176
-0.02703928 0.012902547 -0.0011294023 -0.0051627234 0.0009754483 -0.01866055 0.0010179898 0.017461138
0.004739245 -0.00061379775 0.01176343 -0.0020206992 -0.007240142 0.013418684 -0.0024982372 -0.005635979
0.008973909 0.019811578 -0.026675249 0.0059972773 -0.028077908 0.0052716453 0.013426272 0.015407087
-0.022369998 -0.019836558 -0.020601675 0.008852426 0.019726412 0.0066563766 0.011920189 -0.0043085692
0.015469829 0.014319203 -0.020749561 0.008727874 -0.017399 -0.021083087 -0.010707717 -0.027215704
0.0019770854 0.024666732 -0.016400522 0.004942771 -0.015938142 -0.024983613 0.014062435 0.00568206
-0.0184432 -0.018700825 0.018132286 -0.013908862 0.010671126 0.01659657 0.010128984 0.0126185855
-0.032134134 -0.025176667 0.01286851 0.013067274 0.019968536 0.014537538 -0.014731409 -0.010953287
0.014427838 -0.01365268 0.015349087 -0.015046088 -0.01615525 -0.015458678 0.012744578 -0.024539407
0.015325628 0.008663566 -0.00194391 0.010054838 -0.0026914235 -0.0011584712 -0.021778183 -0.025665052
0.00810751 -0.0040922947 -0.007459961 0.0023476675 -0.015719932 -0.003418857 0.0092477705 -0.003468137
0.013654456 0.012025276 -0.024867026 -0.021203127 0.0068962686 -0.0015500725 -0.010380611 -0.013662884
0.010707247 -0.00989075 -0.053734895 -0.12588866 0.018276474 -0.03931376 0.05961132 0.026854904
-0.022587817 0.020183813 0.016360937 -0.04003241 0.03369695 -0.03826784 -0.034917567 0.018268656
0.016396724 -0.009622384 0.032144487 0.011326294 0.03034934 -0.054883346 -0.03521635 0.006755015
-0.046728373 -0.0045114947 0.0031838699 -0.0134110935 0.017849285 -0.000620656 0.018687692 -0.0551555
0.05620756 0.015958423 0.0077107414 -0.034171637 -0.04534461 0.023629162 -0.064475685 0.0051115695
-0.070072874 0.02265448 0.020713191 -0.024060838 0.05334146 0.000111433066 -0.009560698 -0.0133336745
0.0037314834 -0.007609696 0.0007861519 0.018195342 -0.040180266 -0.06736269 0.011383627 0.023684092
0.0071370136 0.017270058 -0.037541933 -0.006146593 0.015236438 0.042432647 0.0038680376 -0.027129807
0.032527577 0.003905886 -0.029785197 0.016629955 -0.0562584 -0.01579869 0.016118012 0.0130277015
-0.006049438 0.02208633 -0.002880683 -0.017414931 0.031904195 -0.008810843 0.016418958 0.010023986
0.023787975 -0.010622623 0.009506675 -0.022255393 -0.017925145 -0.005385155 0.028872756 0.022414995
0.0312141 -0.020192744 0.03161249 0.036955923 0.031630896 0.019372946 -0.008182641 0.031373926
0.018380944 0.056703288 0.008776111 -0.0065603154 0.022345169 -0.019800719 0.019039275 -0.0042280294
0.004355338 0.025192166 0.00786321 0.019355755 -0.027492385 -0.0055584274 -0.03752198 -0.06527652
0.040583823 -0.048825163 0.040146697 -0.067670874 0.0062185023 0.036277376 0.01114738 -0.030604467
-0.017110942 0.0011830366 0.008410712 -0.019989254 -3.9473e-05 0.021857759 0.042381607 0.007360052
00000000: 2369 3f3c b96d 7fba ba75 24bc 8a7e 533a
00000010: 531a 7cba 7125 76bb 6c45 9ebc 1224 38bc
00000020: eaac e03b 02d2 48bc 67bf 9e3c 9af1 e739
00000030: f516 583c 6705 bbbc 01b3 dcbc 1234 4d3c
00000040: fefa a8bc 6d95 f43a 507f 973c 804d 613c
00000050: 284c 8ebc 2f68 c3bb 77b4 ad3b 2198 6bbc
00000060: e452 b1bc 618a b5bc bd34 c6bc a5cf babc
00000070: fa80 51bc 41ca 453c 33f4 483c b0f4 c0bc
00000080: 7b81 ddbc 3465 533c 7408 94ba 102c a9bb
00000090: 3ab5 7f3a 02de 98bc 126e 853a a90a 8f3c
000000a0: ab4b 9b3b 45e7 20ba 67bb 403c b56d 04bb
000000b0: b73e edbb 0ada 5b3c 77b9 23bb 05ae b8bb
000000c0: 4d07 133c e44b a23c 0d86 dabc cf84 c43b
000000d0: a403 e6bc c4bd ac3b def9 5b3c 026e 7c3c
000000e0: 4941 b7bc 4780 a2bc d8c4 a8bc c409 113c
000000f0: 4999 a13c bc1d da3b e54c 433c e62e 8dbb
00000100: 2a75 7d3c 179b 6a3c fcfa a9bc 5bff 0e3c
00000110: 5988 8ebc 70b6 acbc 6c6f 2fbc 78f3 debc
00000120: fd91 013b e311 ca3c 635a 86bc f8f6 a13b
00000130: b590 82bc 6faa ccbc 2166 663c 9330 ba3b
00000140: 3216 97bc 7932 99bc 298a 943c ffe1 63bc
00000150: f2d5 2e3c 88f5 873c 0af4 253c 2fbe 4e3c
00000160: 159f 03bd 4c3f cebc 71d6 523c 1f18 563c
00000170: 0e95 a33c db2e 6e3c 025c 71bc 6a75 33bc
00000180: bd62 6c3c 7eaf 5fbc bd7a 7b3c de83 76bc
00000190: 0458 84bc 6546 7dbc a2ce 503c de06 c9bc
000001a0: 5818 7b3c a1f1 0d3c ccca feba 0cbd 243c
000001b0: 9862 30bb d8d7 97ba 2968 b2bc 843f d2bc
000001c0: 5dd5 043c a818 86bb b072 f4bb 53db 193b
000001d0: 16c7 80bc e70e 60bb f683 173c af49 63bb
000001e0: f0b6 5f3c aa05 453c efb5 cbbc 2eb2 adbc
000001f0: 18fa e13b cd2b cbba 7013 2abc 4ada 5fbc
00000200: 736d 2f3c d00c 22bc 1f19 5cbd f5e8 00be
00000210: 8bb8 953c 7707 21bd 002b 743d d1fe db3c
00000220: 160a b9bc 8658 a53c 5f07 863c 06f9 23bd
00000230: d005 0a3d bdbe 1cbd b905 0fbd 26a8 953c
00000240: 6c52 863c 34a7 1dbc f0a9 033d ec91 393c
00000250: 2e9f f83c 5ccd 60bd 053f 10bd 2c59 dd3b
00000260: 4066 3fbd 29d5 93bb 79a8 503b 34ba 5bbc
00000270: aa38 923c 85b3 22ba ee16 993c bcea 61bd
00000280: e639 663d 3dbb 823c 63aa fc3b 8ff7 0bbd
00000290: 45bb 39bd f291 c13c d40b 84bd f47e a73b
000002a0: 5e82 8fbd e395 b93c b6ae a93c 3c1b c5bc
000002b0: 937c 5a3d 2cb1 e938 79a4 1cbc 7c75 5abc
000002c0: e78b 743b c25a f9bb c315 4e3a 660e 953c
000002d0: 1094 24bd 73f5 89bd 6482 3a3c 2405 c23c
000002e0: 9cdd e93b f079 8d3c 92c5 19bd 5c69 c9bb
000002f0: 41a2 793c dbcd 2d3d e77e 7d3b 543f debc
00000300: a33b 053d e5f9 7f3b 1600 f4bc 8b3b 883c
00000310: 356f 66bd 416c 81bc ec09 843c 2472 553c
00000320: 5d3a c6bb 64ee b43c d7c9 3cbb c2a9 8ebc
00000330: f9ad 023d 5b5b 10bc 0d81 863c a53b 243c
00000340: 00df c23c 830a 2ebc e3c1 1b3c f150 b6bc
00000350: c1d7 92bc f475 b0bb 8f86 ec3c a79f b73c
00000360: b6b4 ff3c 416b a5bc 197c 013d 185f 173d
00000370: 668f 013d 03b4 9e3c 7c10 06bc f281 003d
00000380: a293 963c b541 683d adc9 0f3c eaf7 d6bb
00000390: 370d b73c 1e35 a2bc 41f8 9b3c 488b 8abb
000003a0: 39b7 8e3b cd5f ce3c b1d4 003c f68f 9e3c
000003b0: b637 e1bc 7823 b6bb a6b0 19bd b2af 85bd
000003c0: 393b 263d e5fc 47bd dd70 243d 0797 8abd
000003d0: 94c4 cb3b 9697 143d 80a3 363c 38b6 fabc
000003e0: 3f2c 8cbc 1f10 9b3a 15cd 093c 81c0 a3bc
000003f0: d08f 25b8 0b0f b33c 5698 2d3d 972c f13b

head.9.bias f4 [7]
0.115999065 -0.025117097 -0.014023665 -0.22996974 -0.01571541 0.2911761 -0.2532196
00000000: eb90 ed3d 5fc2 cdbc 84c3 65bc 307d 6bbe
00000010: 9abd 80bc 0915 953e 00a6 81be
