script/step8_fast_head.pth (torch, 682749 bytes, 8 tensors)

net.0.weight f4 [512, 8]
000000 58 1f 8c 3d dc f6 8e 3c cc 18 1f 3e 92 68 75 be
       0.06841916 0.017451696 0.15536803 -0.23965672
000010 46 c2 58 be 8f 70 84 3d c7 2c 26 be 29 6e 6e be
       -0.2116786 0.06466781 -0.16228019 -0.2328421
000020 81 5c 5c 3d 65 0f 63 be b6 b8 98 3d 76 cd b8 3d
       0.053799156 -0.22173841 0.07457106 0.090235636
000030 48 11 8b 3d be 5c 15 be 18 c9 02 be af c8 15 be
       0.067904055 -0.1458616 -0.12772024 -0.14627336
000040 45 cc 90 3e 2a 75 0d 3e 00 db b3 bd 53 2e 89 be
       0.28280845 0.13814226 -0.08782005 -0.26793155
000050 72 92 c6 3d 4a 11 8c 3e 54 ec 28 be a7 a1 39 be
       0.09695901 0.2735694 -0.16496402 -0.18128072
000060 6f 08 b6 3e 87 db 0e bd cc 1f 30 be 84 72 ad be
       0.3555331 -0.034877326 -0.1719963 -0.3387643
000070 f5 49 80 3e 10 37 8d be 60 a4 a3 be 31 b5 0d be
       0.25056425 -0.27581072 -0.31961346 -0.1383865
000080 29 17 20 3e 80 1e 21 3e db 13 a1 bd 20 9d 37 bd
       0.15633835 0.15734291 -0.07865115 -0.04482758
000090 0d 74 7f 3e 74 e7 44 3e 09 f7 f3 bd 5b 40 91 3e
       0.24946614 0.19228917 -0.119123526 0.28369412
0000a0 63 4a e7 be e3 7f 9e 3c 7f 36 f3 bd 08 6e 85 3e
       -0.4517394 0.01934809 -0.11875629 0.2606051
0000b0 81 3a 00 3e 08 c5 92 3d 43 1b 12 be 79 37 dd 3d
       0.12522317 0.07166487 -0.14268212 0.10801596
0000c0 9e 52 7b 3e d1 29 a9 3d 31 f9 1d be ea 27 44 be
       0.24543235 0.08259929 -0.1542709 -0.19155851
0000d0 31 71 f7 bd cb 24 18 3e 79 fa 0d 3e 69 97 0f 3d
       -0.120821364 0.14857785 0.13865079 0.035056505
0000e0 ec 4d 4e 3e 2c 13 a9 3d db 9d e9 bc f4 8c 48 3e
       0.20146912 0.0825561 -0.028517654 0.1958502
0000f0 d3 20 32 be 80 8e f9 bd 28 3e 86 3e 02 1f ac 3e
       -0.17395334 -0.12185383 0.26219296 0.33617407
000100 a2 ac aa 3e 23 96 24 be 03 e0 ea bd d3 46 e8 3b
       0.33334833 -0.16072898 -0.11468508 0.007088521
000110 8b 3e c4 3c 46 37 a9 bd 42 88 20 3e 80 2b c1 ba
       0.023955604 -0.08262496 0.15676978 -0.0014737695
000120 1c 1e a5 be 0e 7e 20 3e 1c 60 cc 3c 0a 3d a0 3e
       -0.32249534 0.15673086 0.024948172 0.3129657
000130 7d a3 49 be 84 6a 11 be ea 09 1d 3e 20 8b 2b be
       -0.19691272 -0.14200789 0.15335813 -0.1675229
000140 35 bf b1 be 6f e5 08 3d 3f b1 4c be fc 10 2d 3e
       -0.34716192 0.03342193 -0.19989489 0.1690101
000150 eb ff 19 be 54 51 62 3d ab 57 be 3d eb a3 01 be
       -0.15039031 0.05525334 0.09294065 -0.12660186
000160 bc 54 a0 bb 00 25 c4 bd 1e 4a 14 3e 61 c4 87 bd
       -0.0048929136 -0.0957737 0.14481398 -0.06629253
000170 83 28 7c bc 77 5b 4d 3d 78 da 17 3d bf 0b a5 be
       -0.015390518 0.050136056 0.037073582 -0.32235524
000180 30 37 85 be 28 6b 07 3d ec 91 0d 3e 9d 3c de 3d
       -0.26018667 0.033061177 0.13825196 0.10851405
000190 98 98 8b be 73 1c 5a be ee 03 47 3d c7 1c b3 3e
       -0.27264857 -0.21299915 0.048587732 0.34982893
0001a0 60 77 e2 3d ac fd 90 3c 5d 85 ae 3d af af e9 bd
       0.11057925 0.017699085 0.08521531 -0.11410462
0001b0 1a 43 e1 3d 80 13 5c 3e a3 c9 c3 3e eb 69 d9 3e
       0.10999127 0.21491814 0.38239774 0.42463621
0001c0 32 c5 3b 3e 48 a0 9e bc e6 11 00 bd 7a 4e 1b be
       0.18336943 -0.019363537 -0.03126707 -0.15166655
0001d0 f5 8c 69 3e 5e 3e 80 bd 99 a1 c4 3d 8d e0 51 bd
       0.22807677 -0.062618956 0.09601135 -0.05123954
0001e0 66 08 2f bd f1 df 42 be e7 81 04 bc 47 d9 6c 3e
       -0.04273262 -0.1903074 -0.008087612 0.2312976
0001f0 b6 52 38 3e 53 fc 64 3e 19 f7 1b 3e d3 71 e8 be
       0.18000302 0.22361879 0.15230979 -0.4539934
000200 d2 72 c5 bd b2 db f4 bd 36 a8 d5 3d 35 6c 29 be
       -0.09641041 -0.11955966 0.10432474 -0.16545184
000210 44 84 67 3e 86 37 5e 3e 0d 74 7d 3d 30 4e ab 3e
       0.22609049 0.21700868 0.061878253 0.3345809
000220 a1 22 4b be 69 ac 8c bb 16 1c 3c bd da 75 10 3e
       -0.19837429 -0.004293014 -0.045925222 0.14107457
000230 24 48 16 3d 59 a6 a0 bd 09 4e e5 3d 01 d3 08 3e
       0.036689892 -0.07844228 0.11196525 0.13361742
000240 ab 79 32 3e 98 2a ed bd 9a e9 ba 3d 88 b2 4b be
       0.17429225 -0.1158039 0.09126587 -0.19892323
000250 41 aa 47 be c5 4f 18 be 79 5a 07 bd e4 2c 97 3d
       -0.1949854 -0.1487418 -0.033045266 0.07381609
000260 22 2a a2 3c f7 9e 01 be cc ac ac bd 8b e8 22 be
       0.019795481 -0.12658297 -0.08431396 -0.1590902
000270 65 9a 30 be a0 d4 a1 3e 34 bf a2 be 54 9e 69 be
       -0.17246397 0.31607533 -0.317865 -0.22814304
000280 8b e4 80 be 6b 1c dd bd 97 51 01 3e 4b ad f7 3d
       -0.25174364 -0.10796436 0.1262878 0.120936
000290 9c 1a 39 be 75 f9 39 3e e0 8a 14 bd 43 7c 8c 3e
       -0.18076557 0.18161567 -0.036265254 0.27438554
0002a0 b4 08 2f be f4 47 fc 3d da 6c ab bd c9 d2 2b 3e
       -0.17093164 0.123184115 -0.08370371 0.16779627
0002b0 e0 00 95 bd f3 d9 36 3e fa 25 b9 bd 5c ae 91 3e
       -0.072755575 0.17856579 -0.090404466 0.28453338
0002c0 3d 56 d8 3d 2a 9d 5f bb 89 7d 59 bd fe bf 8b 3e
       0.10563324 -0.0034120777 -0.053098235 0.27294916
0002d0 cd ac 0c 3e c6 06 58 be 64 63 9b be 92 70 2a 3e
       0.13737793 -0.21096334 -0.30349267 0.16644505
0002e0 72 87 39 3e 3a d5 79 be 3c 40 9c bd be 03 e0 bd
       0.18118075 -0.24397746 -0.07629439 -0.10938214
0002f0 e3 f6 f9 3c 14 38 1e 3e 05 f4 b9 bd c3 d7 ae be
       0.030513233 0.1545108 -0.09079746 -0.34148988
000300 5c 3e c3 be b1 b2 07 3e 31 81 b3 3d ce 6f 7f 3e
       -0.38133514 0.13251759 0.08764876 0.24944994
000310 8f e7 1d 3d d0 a9 c6 3d 2e 0f de bd f0 62 5a 3e
       0.03855091 0.09700358 -0.10842739 0.21326804
000320 48 b7 9b 3e 1a 61 43 be 50 c4 cd 3c 0e 80 37 be
       0.3041327 -0.1908001 0.025118023 -0.17919943
000330 29 90 8a bd a4 57 7a be db 62 49 3e f0 83 eb bd
       -0.067657776 -0.24447495 0.19666617 -0.114997745
000340 5d 39 18 3d f4 cb 8c be 34 e4 4f 3d 3f 2a 0d 3e
       0.03716408 -0.27499354 0.05075474 0.13785647
000350 3d d2 ee bc 9c 96 9e 3e d8 b3 7b be 89 95 0d be
       -0.029152984 0.3097428 -0.24580324 -0.13826574
000360 e0 8e 93 3e 51 00 3e 3c af 14 d1 bd e5 f3 8e 3e
       0.28819942 0.011596755 -0.10209023 0.27920452
000370 c8 44 29 be 44 c0 71 be a3 d2 65 3e 26 9c 15 3e
       -0.16530144 -0.236085 0.22443633 0.14610347
000380 3a a7 ba 3d 27 8b 63 be f6 6d b5 bd 5d e5 43 be
       0.09113927 -0.22221051 -0.08858864 -0.19130464
000390 51 55 91 3e 37 5d c3 3e 3d 16 c5 bc 03 17 c9 be
       0.28385404 0.38157055 -0.024058456 -0.3927537
0003a0 4c 57 7d be b3 87 47 3d 12 2b 60 3d d9 dc a6 be
       -0.24740332 0.048713397 0.054728575 -0.32590368
0003b0 70 c9 0c 3e 9f 97 0b be 71 6c 5a 3e 80 fd 08 be
       0.13748717 -0.13632058 0.2133043 -0.13377953
0003c0 ee a5 f1 be de bf 2f 3d 09 0e 83 3d 36 ff 29 bc
       -0.47196907 0.04290759 0.06399161 -0.010375788
0003d0 f3 57 84 3e 97 20 8c 3d 06 80 9f 3d 3a 8a 26 be
       0.2584835 0.068421535 0.077880904 -0.16263667
0003e0 e5 b8 a1 be 94 5a 81 3d 8c cb 1f bd cb 3f 12 bd
       -0.31586376 0.063161045 -0.039012477 -0.03570537
0003f0 b6 7a 01 3e 42 0a e6 3d 24 9d 12 3e b0 46 4b 3e
       0.12644467 0.11232425 0.14317757 0.19851184

net.0.bias f4 [512]
000000 73 0b 05 be 1e 8b 1b 3e 29 fa 9e bd d0 42 2e bd
       -0.12992649 0.15189788 -0.07762558 -0.042544186
000010 83 78 39 3e f1 e3 d5 bd 00 3e bf 3d da ce 91 be
       0.18112378 -0.10443867 0.093379974 -0.28478128
000020 bc 71 5c 3e 10 82 26 bd ca e0 85 be 1e 75 32 3d
       0.21527761 -0.04065138 -0.26148063 0.043568723
000030 b9 64 7c be 31 07 3a 3e 0b f5 86 3e 5d 5a 7a 3e
       -0.24647798 0.18166806 0.26358828 0.24448533
000040 e0 31 b1 bd b7 e3 23 3d c6 29 a2 bd 6a 95 0b be
       -0.08652091 0.040012088 -0.07918124 -0.13631216
000050 e1 3c 71 be 61 03 c0 3d cb 88 9e 3c bd b1 41 3e
       -0.2355838 0.093756445 0.019352337 0.18915458
000060 30 11 2b be 09 d4 c7 3d 2f 89 9d be 2c 40 ac 3c
       -0.16705775 0.09757239 -0.30768725 0.021026693
000070 17 2b 4f 3e 21 d1 ac 3a d4 5d 78 3d 39 ef 65 be
       0.20231281 0.0013184884 0.060636356 -0.22454537
000080 3c e3 9d bd 05 fa 02 3d 3d 26 d4 3d 67 8e 8e be
       -0.07709357 0.03197672 0.10358856 -0.2784302
000090 5d 53 4b 3e db 2f 1a be 21 09 88 3e 65 3a 98 3e
       0.1985602 -0.15057318 0.26569465 0.29732051
0000a0 b9 fa 81 be 1b 2d 48 be ce a5 9b bd ec 1b 72 be
       -0.253866 -0.19548456 -0.07599984 -0.23643464
0000b0 d2 80 59 be 14 7b 97 3b fc c3 dd 3c 09 5e 0d be
       -0.21240547 0.0046228264 0.027070992 -0.13805403
0000c0 8b 7f 80 be 10 29 23 be db 37 8d 3d 16 89 21 3c
       -0.25097308 -0.15933633 0.06895419 0.009859344
0000d0 fe bb ef 3b 3c b8 af bd 3f 33 80 be 65 f7 82 3e
       0.0073161116 -0.08580062 -0.25039098 0.25579372
0000e0 40 7b b6 bc 16 5e 62 be 70 cf 82 3e b4 40 27 be
       -0.022275567 -0.22106203 0.25548887 -0.16333276
0000f0 ce a2 a1 be 03 a9 c1 3d c4 47 03 3e 14 1b 47 3e
       -0.31569523 0.094560646 0.12820345 0.19443923
000100 84 47 9f be ac 48 12 3e 2b 91 83 3e 93 22 0e be
       -0.3110925 0.14285535 0.25696692 -0.13880377
000110 f0 e7 17 3e 15 9a 6f 3d e7 3c 5e 3e 17 77 94 3d
       0.14834571 0.058496553 0.2170292 0.07249277
000120 e7 da 74 3e 68 bf 88 be 69 de 3c 3e d6 76 c8 3e
       0.2391163 -0.2670853 0.18444218 0.39153165
000130 03 40 0d 3e 6c a3 ee bc 3a 2d 3e be 08 b9 04 bd
       0.1379395 -0.02913066 -0.1857194 -0.032403022
000140 99 53 a3 be 5e 41 18 3c 3e e7 62 be 33 57 a1 bd
       -0.31899717 0.0092929285 -0.22158524 -0.0787796
000150 ad dd d4 3d 8f 82 7d 3e 0c 7d 22 bc 67 a7 60 bd
       0.10393844 0.24756835 -0.009917509 -0.054847147
000160 fd c9 92 be 6e 4b 8a bd b0 77 be 3a db 33 48 be
       -0.2866973 -0.06752668 0.0014531519 -0.19551031
000170 26 aa 6b 3d dd 81 68 3d 39 42 5f 3e 54 57 19 be
       0.057535313 0.056764472 0.21802606 -0.1497472
000180 02 fe 37 bd aa 6d 3b 3e 84 a7 4b be 23 d4 4d 3e
       -0.044919975 0.18303552 -0.19888121 0.20100455
000190 98 a9 0a be dc f8 74 be f1 ff 44 3e dd 51 05 3e
       -0.13541257 -0.23923057 0.19238259 0.1301951
0001a0 b0 1b 89 3a fd 13 e1 bd 26 82 3a 3e b0 9c 36 3b
       0.0010460522 -0.109901406 0.1821371 0.002786439
0001b0 22 19 73 3c e8 1e 91 3d 4a de 25 bd db 6a c7 3d
       0.014837535 0.07085973 -0.040495194 0.09737178
0001c0 f5 07 9b be 35 ce d9 3d 97 da 3f 3e 8e e2 e6 3d
       -0.30279508 0.10635034 0.18735729 0.112736806
0001d0 db 5f 4c 3e a8 aa 92 3e 32 a2 7c bd 2b e5 de 3d
       0.19958441 0.28645825 -0.06167812 0.10883554
0001e0 96 5d 9b be c1 f5 92 be 11 53 db 3d 9d 7e 18 be
       -0.30344838 -0.2870312 0.10709203 -0.14892049
0001f0 3c 6c a7 be 95 0a 9c be e9 46 17 be a5 c3 3b be
       -0.32699764 -0.30476823 -0.14773144 -0.18336351
000200 7e d9 0f 3e 18 16 8e 3e 7b ca 35 3e 67 cb 94 be
       0.1404781 0.2775123 0.17753021 -0.29061434
000210 66 f3 1d 3e 83 73 0e be dd 7c 2b be e1 85 08 be
       0.1542488 -0.13911252 -0.1674685 -0.13332321
000220 0a 0e 91 be 8e 46 ea 3d b8 ae be 3d 4c b0 c5 bc
       -0.28331023 0.114392385 0.09310669 -0.024131916
000230 45 49 82 be 14 65 81 3e 6b 46 f4 bd 2f 24 4b be
       -0.25446525 0.2527243 -0.11927494 -0.19838022
000240 2a 04 8e be c0 ce 80 be 97 e1 4b 3e 53 c5 f3 ba
       -0.27737552 -0.25157738 0.19910274 -0.0018598236
000250 8e 37 b4 bd 1c 56 80 3e 0f 43 a4 3d 2d 83 2c be
       -0.08799659 0.25065696 0.08020603 -0.16846915
000260 6d 35 36 3e e7 f7 2a 3b e2 51 05 bd ff b4 68 3c
       0.17793818 0.0026087703 -0.032548793 0.014203309
000270 d4 68 95 bd ca a3 b0 3d fa 4f 87 be a5 ec 9e 3d
       -0.07295385 0.0862499 -0.26428205 0.0775998
000280 cf c3 a3 be 6c ca 6b 3d 7b 5a 8e be 85 b3 be 3d
       -0.31985328 0.05756609 -0.27803406 0.093115844
000290 8f 96 98 3d 1c 45 9a bc a4 72 4e bd 2b 55 5b 3d
       0.07450592 -0.018831782 -0.0504023 0.05354802
0002a0 bc 88 87 bd c4 c0 53 3e 40 90 b6 bd 41 0b 39 3e
       -0.06617877 0.20679003 -0.08914232 0.180707
0002b0 ef bb 18 3e 2f c0 09 3e 02 b5 c2 3d 28 3f ff bc
       0.14915441 0.13452218 0.09507181 -0.031158045
0002c0 00 26 c2 3d 45 03 4f 3d 6b 7d 77 3e b8 42 84 bd
       0.09479904 0.050540227 0.24168937 -0.06458038
0002d0 f4 86 28 3e 9e 39 03 3e 3f 9d 81 bc ff 20 f3 bd
       0.1645773 0.12814948 -0.015822051 -0.11871528
0002e0 b4 c2 3c 3e 04 a5 f4 3c 5b f6 43 be c6 20 dd 3c
       0.18433648 0.029863842 -0.19136946 0.026993167
0002f0 85 18 b5 bd 6f ed be bc 26 a2 06 be f5 56 79 3e
       -0.08842567 -0.023306577 -0.13147792 0.24349578
000300 fd 5e 28 be 4a 46 a5 bd 7d e8 8c bd 7a 80 9a be
       -0.16442485 -0.08070047 -0.06880281 -0.30176145
000310 75 f6 1c 3e b3 6a ac bd 2a 51 dc bd fa 65 f9 bd
       0.15328391 -0.08418789 -0.10757668 -0.121776536
000320 7e 6a 53 3e 88 16 af 3d 7d 49 da 3c 2e aa 95 bd
       0.20646092 0.08549219 0.02664637 -0.0730785
000330 e1 2b 10 3d a9 39 21 3e b3 79 44 bd d3 ff 93 be
       0.035198096 0.15744652 -0.047967624 -0.28906116
000340 86 cd 7b be 71 74 9b bd 09 39 4d 3d 51 5d a7 bd
       -0.2459012 -0.07590569 0.05010322 -0.081720956
000350 6b db ff bd b9 f4 3b be 1d 8f 29 3e 2f 50 a6 3d
       -0.124930225 -0.18355073 0.165585 0.081207626
000360 e0 12 10 3c c9 f1 b9 bd f1 ab 57 3e 26 0d 6c bd
       0.008793563 -0.0907932 0.21061684 -0.057629727
000370 44 81 8d 3d 13 21 6f be b8 1e 80 be 97 f1 5a 3e
       0.06909421 -0.2335246 -0.25023437 0.21381222
000380 12 7e 62 3e ed cf 72 be 05 2a 81 3e d8 4e c3 bd
       0.22118405 -0.2371213 0.2522737 -0.095365226
000390 c8 af b6 be e4 e6 b2 3d 9f f9 3d 3e 13 0c 6b be
       -0.35680985 0.08735445 0.18552254 -0.22953825
0003a0 5d 0b d9 3d 22 f8 96 be bf 21 70 3e c0 a1 8a be
       0.105978705 -0.29486185 0.23450373 -0.2707653
0003b0 e5 32 76 3e 7a 89 1a 3e fd 0d a3 bd 71 33 18 3e
       0.24042852 0.15091506 -0.079616524 0.14863373
0003c0 24 67 8b 3c 56 1e a4 be ae 1a 36 3d ee 63 6c bc
       0.017016955 -0.32054394 0.044459037 -0.014428122
0003d0 bd 4c be 3d a5 59 06 be 79 26 75 be 36 e5 94 3e
       0.092919804 -0.13120134 -0.23940457 0.29081124
0003e0 65 bf b7 3d e0 ff a6 be 91 48 17 be 63 6d 27 bd
       0.089720525 -0.32617092 -0.14773776 -0.040875804
0003f0 be 4a b9 bd 06 2a e1 bd 94 d5 31 3d 3c 1a 87 3e
       -0.09047459 -0.109943435 0.043416575 0.26387203

net.3.weight f4 [256, 512]
000000 a6 a4 ac 3c b5 91 00 3c e9 dc 0b bc 28 31 15 bb
       0.021074604 0.007847239 -0.008536556 -0.0022764895
000010 98 50 59 bd f5 cf bc bc 44 cf e0 3c b7 81 cd 3a
       -0.053055376 -0.02304838 0.027442582 0.0015678917
000020 1d af 86 3d 87 9c 1b bc 3c b8 0e bd 73 09 ac bc
       0.06576369 -0.009497768 -0.03484367 -0.0210006
000030 9b 81 47 bd 16 30 dc 3b 95 b3 a7 3a 60 74 6c bd
       -0.048707586 0.0067195995 0.0012794608 -0.05772817
000040 38 fe 37 3c c3 e2 31 bc 15 0b 1c 3c 74 12 77 bd
       0.011230044 -0.010857287 0.009524127 -0.060320333
000050 89 ab 6c 3d ab 9e 46 3b d8 4a ce bd 36 b5 32 bc
       0.057780776 0.0030306976 -0.10072869 -0.010907462
000060 64 56 46 bc 39 15 ed 3b 3f 1f 11 3c 43 e3 c1 3c
       -0.012105558 0.007235196 0.008857547 0.023667937
000070 2a 3d a1 bd a0 be 3c 3d 57 22 ab bb 64 99 98 3c
       -0.07872994 0.04608023 -0.0052225995 0.01862783
000080 4e ae 88 bc 6d 7f 06 bd 89 25 79 bd 3e 57 d5 bd
       -0.016684677 -0.032836366 -0.060826812 -0.10417031
000090 e9 1c 87 bd 73 2b 73 bc 81 be b8 bb d2 b2 da bb
       -0.06597311 -0.014841902 -0.005637944 -0.006674149
0000a0 f7 94 01 3d a1 58 3c bd d8 34 bd 3b 26 b1 d7 bd
       0.031636205 -0.04598296 0.0057741217 -0.10531835
0000b0 de c8 83 3b c5 88 0a 3c 46 67 89 bb 8f e3 12 bd
       0.004021748 0.00845546 -0.0041932194 -0.035861548
0000c0 f0 b9 80 bb 67 f7 52 bd 9a 53 10 3d e5 e1 7c bc
       -0.0039284155 -0.051505473 0.03523598 -0.015434717
0000d0 b9 ae 25 bc 56 5d 62 bc 75 b0 25 3d 95 2b c1 3c
       -0.010112458 -0.013816198 0.040451486 0.023580352
0000e0 15 eb fa bc 7e 52 0d bd d8 68 c2 bc 89 9a 88 bc
       -0.030629674 -0.0345025 -0.023731634 -0.01667525
0000f0 d6 ae 3e 3c 59 0d 54 bd 79 93 d5 bc 1b d2 34 3c
       0.011638364 -0.05177054 -0.026071297 0.011036421
000100 59 ad ac bc 8c cf 71 bd d4 3e 88 3c 48 f2 0b 3d
       -0.021078752 -0.059035823 0.016631521 0.034166604
000110 ba 6a 00 3d bf 8e cf bc 73 23 55 bd a3 85 ad 3c
       0.031351782 -0.025336621 -0.05203576 0.021181887
000120 06 ff f4 bc cb 65 b7 3c 0b 9a ce 3b a3 9d 0a bd
       -0.02990676 0.022387406 0.0063049844 -0.03384174
000130 f3 df ee 3b 18 45 f6 3c c9 a8 e5 3c 5c 85 35 bb
       0.0072898804 0.030062243 0.028034585 -0.0027697897
000140 5b 8a 3d bc b9 97 7a bd f6 79 60 bd fd 65 64 bd
       -0.011568631 -0.06117985 -0.05480381 -0.055761326
000150 23 07 91 bc eb b1 9e bc 97 cd d4 3b 9b 9c 3f bd
       -0.017703598 -0.019371947 0.006494235 -0.04678021
000160 0d 79 94 3d 0d 98 f0 3b dc 6a ee bc 67 55 d7 bc
       0.07249651 0.0073423446 -0.029103689 -0.02628584
000170 bd a4 32 bc d1 f8 bb bc 15 68 bb bd cd f3 5f 3c
       -0.0109035345 -0.022945793 -0.091507114 0.0136689665
000180 eb 5d 05 bd 22 66 95 bc a5 c6 1d bc 41 31 a9 3b
       -0.03256027 -0.018237177 -0.00962988 0.005163342
000190 1f a9 25 bd 8e 6c bf b9 67 00 33 bd b8 53 e4 bc
       -0.04044449 -0.00036511238 -0.043701556 -0.027871951
0001a0 f1 b6 4a 3a 55 3c 0c bc 0d 0b 13 bd 70 24 07 bc
       0.0007732949 -0.008559306 -0.03589921 -0.0082484335
0001b0 d1 cf 0f bd 0b 70 61 bd 15 6e bf bc 9b 6f d3 bc
       -0.0351103 -0.055038493 -0.02336792 -0.025810054
0001c0 94 e6 dc bc c2 6d 08 3c d2 8b 9b bc 3f e3 94 bb
       -0.026965417 0.00832695 -0.01898757 -0.0045436914
0001d0 41 ea 7d 3b 75 01 60 bc 84 47 c9 3d 78 3f cb bc
       0.0038744363 -0.013672222 0.09828094 -0.024810538
0001e0 5a 13 4a 3d 7b d2 a6 3d e9 d5 b6 bc 12 2e 44 bd
       0.04933486 0.08145615 -0.022318797 -0.0478955
0001f0 c6 be 37 bd cf f3 2e bd 50 44 c1 3b 00 c0 6a bd
       -0.04485967 -0.042712983 0.005898036 -0.05731201
000200 9b 1e 35 bd 04 8b 7a 3c c7 12 13 3c 78 8b e9 bb
       -0.04421864 0.015291933 0.008976645 -0.0071272217
000210 f4 51 9f 3c 49 b5 ff bc e5 e8 27 bc 3f 8b aa bb
       0.019448258 -0.031214373 -0.0102483975 -0.0052045877
000220 f8 be b3 3d 82 cf 3e bc 9a 13 48 bd 16 a1 2f 3d
       0.08776659 -0.011646153 -0.04884682 0.042878233
000230 1f 0a ad 3c 4c 0f 0d bd 24 c0 be bd 07 b9 84 bd
       0.02112299 -0.034438416 -0.09313992 -0.06480604
000240 74 ee 0e bd 96 d8 03 bd a3 6b 8e 3c c7 43 74 3c
       -0.034895375 -0.032188974 0.01738531 0.0149087375
000250 8c af 14 3d 88 d9 5a bd ce 36 00 bd 84 30 04 bd
       0.036300227 -0.05343011 -0.031302266 -0.03227283
000260 1e bf 4d 3d 3d 92 a7 bc 6c f9 3d bd 3a 0a da bc
       0.05023109 -0.020455474 -0.046380445 -0.026616205
000270 22 36 74 3c 19 47 55 bd 84 c6 07 bd e5 d9 29 bd
       0.014905484 -0.052069757 -0.033148304 -0.041467566
000280 29 ff d7 3c 2f 20 b3 bc 0f d9 28 bd fd 9f e9 3c
       0.026366787 -0.021865932 -0.04122263 0.028518671
000290 db 44 b0 bc e8 0b cd bc 7a ed 93 bd 25 25 71 3c
       -0.021517208 -0.025030091 -0.072230294 0.014718329
0002a0 09 a0 ba 3c 2f 2b ab bd 3d e8 06 3d c6 b0 94 bc
       0.022781389 -0.08357846 0.032936323 -0.018150698
0002b0 1a 06 b4 b9 67 cb 9c ba 33 86 06 bc fc 93 b2 3c
       -0.0003433682 -0.0011962474 -0.0082107065 0.02179908
0002c0 f0 75 f4 ba 6a 82 b6 3c dc eb 16 3d fa de 71 3c
       -0.0018650871 0.022278983 0.036846027 0.014762634
0002d0 0c cc 67 3c 03 6b 89 bc 8a 16 22 3d 5c ae 3b bd
       0.01414777 -0.01677466 0.039572276 -0.04582058
0002e0 e4 b9 a1 bb 0e a3 82 bd 9f 55 1f 3c d5 80 e3 bc
       -0.00493549 -0.063787565 0.0097250035 -0.027771393
0002f0 27 47 97 bb 85 0d 1e 3d 8f 3d ae 3c 6e 0e c9 bb
       -0.0046166363 0.038587112 0.021269588 -0.0061357534
000300 b8 09 a3 3b 35 90 a6 bc b0 39 e9 bc 9b be 48 3c
       0.004975524 -0.020332435 -0.02846989 0.012252475
000310 aa 00 2e bd d8 1d a5 3c 64 82 fa b9 90 04 5a 3d
       -0.042481102 0.020155832 -0.00047780864 0.053227007
000320 24 85 1d 3d 92 15 fb 3c cb 49 25 bd f9 cb e0 b9
       0.03845705 0.030649934 -0.040353578 -0.0004287658
000330 29 62 eb 3b 06 fa b0 3c bb 3b 0a 3d af 3a 32 3d
       0.0071833325 0.021603595 0.03374837 0.043512996
000340 5b 96 ac 3d 3a 9e e8 bc e3 ed eb bc eb b3 bf bb
       0.084271155 -0.02839576 -0.028799957 -0.0058503053
000350 8c c8 ee b9 67 51 b7 3c 12 09 5d bd 26 b3 64 bd
       -0.00045544317 0.022377683 -0.05396373 -0.05583491
000360 9b b9 de 3c 72 0a 49 bd 18 50 23 bd 7a 6b 4f bd
       0.027188113 -0.049082227 -0.039871305 -0.050639607
000370 dd e3 78 3d 43 82 ac 3c ad 13 0c 3d ab ed 19 3d
       0.060764182 0.021058207 0.03419845 0.037580173
000380 34 54 69 bd 00 c9 a2 3c 2a f1 16 bd 4f 2a 2f bd
       -0.056965068 0.019871235 -0.036851086 -0.042764958
000390 db ad be 3c 11 68 eb bb 40 cf 3b bd b8 b2 db 3b
       0.02327626 -0.0071840365 -0.045851946 0.0067046545
0003a0 4e 5c 03 3c 8d b7 ad bc b5 99 7b bd d8 7c 77 bc
       0.008017613 -0.021205688 -0.061425883 -0.015105449
0003b0 f5 dc de bc 9f 51 a3 bc bf 67 82 3a 01 1b 90 3c
       -0.02720497 -0.01993638 0.0009949132 0.017591001
0003c0 17 2b 3f bd ff e4 e2 3c 36 87 64 bc 17 8c d1 bc
       -0.046671953 0.027697084 -0.013948252 -0.025579495
0003d0 22 70 c8 bc ba 0f 58 3d 5b fb b1 3c 23 76 11 bd
       -0.024467532 0.052749373 0.021726301 -0.035513055
0003e0 67 2e 82 3c 31 2d 41 3d 25 5c e0 bc e8 90 a9 b9
       0.015891267 0.04716224 -0.027387688 -0.00032342155
0003f0 e4 62 19 bd b6 48 0d bd cb a7 bd 3c 7d 4f 45 bd
       -0.037447825 -0.03449317 0.023151299 -0.04817151

net.3.bias f4 [256]
000000 31 35 8e bd a2 ee 89 bc 11 5d 93 bd 4a 88 ed 3c
       -0.06943739 -0.016837422 -0.071954854 0.028995652
000010 38 d5 9a bc 2e 40 07 bd d6 81 ab b9 c9 94 46 bd
       -0.018900499 -0.03302019 -0.00032712397 -0.048481736
000020 b3 88 37 bc 87 33 1b bd 30 71 0d bd 39 cf 22 be
       -0.011202025 -0.037890937 -0.034531772 -0.15899362
000030 70 42 e9 bd 7f 30 f0 3c 3a ab e1 3b 6e 86 9a bd
       -0.11389625 0.02932 0.006886867 -0.07545172
000040 14 59 bb bd c0 36 1c bd 3b e6 6c bd 32 aa 7c bd
       -0.0914785 -0.03813815 -0.057836752 -0.06168575
000050 8a 2f 8e 3b d9 20 2a ba b8 2f 88 3c 9f 16 a9 3b
       0.004339163 -0.000648988 0.016624317 0.0051601673
000060 1a 10 b7 3c 99 92 8e bc d7 af 5e bd a2 8b ff bc
       0.022346545 -0.017403888 -0.054366913 -0.031194512
000070 ce ec 47 bd 3c 79 c6 3b b0 5f b1 bc 9e fb 56 bc
       -0.04880982 0.0060569327 -0.021652073 -0.013121514
000080 43 cb 3f bd e7 c3 ec bd fa ba d2 bc ce e0 ce bc
       -0.046824705 -0.11560803 -0.025723923 -0.02525368
000090 91 5c 7f bd ce 58 1e bd 21 66 47 3c be 9b 3d bd
       -0.062344138 -0.03865891 0.0121703455 -0.046291105
0000a0 17 84 9b bb 42 d1 0c bd 39 59 ca bb 05 12 43 bd
       -0.004745971 -0.03437925 -0.006175187 -0.047624607
0000b0 ab 89 ab bc 54 39 77 bd 4a 2b cd 3c f9 35 75 bd
       -0.020939669 -0.060357407 0.025045056 -0.059865925
0000c0 11 c0 ff bd 0a 31 ed bd 9a 12 4e b9 db 8b 85 bd
       -0.12487806 -0.11581619 -0.0001965262 -0.06520816
0000d0 ec 3a d6 bc 9f cf 23 bd 28 c9 95 3c 04 c6 ea bc
       -0.026151143 -0.039992925 0.018284395 -0.028658874
0000e0 3b c4 3e 3d b6 10 28 bd 3a a9 80 bd a5 a7 00 be
       0.04657386 -0.04103156 -0.062822774 -0.12563951
0000f0 aa ee 5e bd 2e 02 9e bd 98 4a 9f bd 2c e4 65 bb
       -0.054426827 -0.077152595 -0.077778995 -0.0035078628
000100 f9 2b ae bc cb 6b 7f bd f0 b0 90 3c 62 4e e2 bb
       -0.021261202 -0.06235866 0.017662495 -0.0069063166
000110 7f 93 87 bd dd be cd bc b1 5b 80 3c 7f 8e 6b 3d
       -0.066199295 -0.025115425 0.015668722 0.05750894
000120 15 8a a4 bd 03 51 21 3d 59 da 3a bd b8 03 80 3b
       -0.080341496 0.0393839 -0.04561839 0.0039066933
000130 aa 03 03 3d 40 34 3a bd 16 c3 cc bc 92 c2 a1 3c
       0.031985916 -0.045459986 -0.024995368 0.019746099
000140 57 68 8f bd 10 10 d9 bc 5e c1 cb bc ed 20 82 bd
       -0.07002323 -0.026496917 -0.024872478 -0.06353936
000150 a2 c4 3a be 29 7f b0 bc 43 80 10 bd 08 8d a2 3c
       -0.18239072 -0.02154501 -0.03527857 0.01984264
000160 b9 22 7e bd 85 cf 8e bd 03 59 30 bd 8e a9 41 bc
       -0.062044833 -0.06973175 -0.04305364 -0.01182021
000170 7b 0a 97 3c 68 c2 29 be e5 e9 c6 bc 1b c5 3d bd
       0.018437615 -0.16578066 -0.024281451 -0.046330553
000180 61 c1 51 bc 83 28 58 3c e5 56 18 bd 03 c0 fa 3c
       -0.012802453 0.0131932525 -0.037192244 0.030609136
000190 bc 55 45 be b0 32 37 3c 00 49 02 bd db d1 b2 bc
       -0.19270986 0.011181518 -0.0318079 -0.021828583
0001a0 88 3b 4c 3c a1 fa bc bd 2f cf 8d bb 66 9f 6b bd
       0.012465365 -0.09227491 -0.0043276767 -0.05752506
0001b0 57 f7 10 be 19 4c 1e bd 18 f1 4d be 47 9b 3d 3d
       -0.14156853 -0.03864679 -0.20111501 0.046290662
0001c0 d9 c2 c2 bc ef 8b 88 bc 39 ca 6c bd e2 2f a2 bd
       -0.023774551 -0.016668288 -0.057810042 -0.07919289
0001d0 3c 15 b9 bc c8 80 68 bd 4a 0d 15 bd e6 77 08 3d
       -0.022593133 -0.05676344 -0.036389627 0.03331747
0001e0 2f 92 1a bd 0a 2a 82 bb c6 c7 b6 3c 82 27 39 bc
       -0.037737068 -0.0039722966 0.022312056 -0.011300923
0001f0 08 4e a8 bd 78 f9 9a bc 03 59 23 bd 71 72 1d bd
       -0.08218008 -0.018917784 -0.03987981 -0.038439218
000200 72 8b 36 3d 58 83 31 bc b3 41 00 bd 8c b1 db 3b
       0.04456658 -0.010834537 -0.031312656 0.006704515
000210 f7 50 2e 3c 92 3b 0e 3d b5 d7 c4 3c 6d 6a f1 bd
       0.010639421 0.03472478 0.024028638 -0.11787877
000220 0e ad 53 bd b6 cf e3 3b fe fc 9b bd 0f 66 a5 bd
       -0.05167871 0.0069522513 -0.07616614 -0.08076107
000230 e2 b7 4c bd 25 ef 91 bb 59 cb 10 bd 31 92 ab bd
       -0.04998005 -0.004453557 -0.035350177 -0.08377493
000240 a4 88 42 bc 4e 7e 07 bd 73 42 90 bd 43 f9 28 3d
       -0.011873398 -0.033079438 -0.07043924 0.04125334
000250 65 07 8c 3c 63 65 13 3c 0c df e0 38 d9 44 16 3c
       0.01709337 0.00899634 0.00010722698 0.009171688
000260 20 c6 c3 bc 23 f2 2e bd 16 97 e2 bd f3 d3 32 3c
       -0.023898184 -0.04271139 -0.110639736 0.01091479
000270 17 c9 03 be ee 4b a6 bd fd 6e fb bd 1a 5b 2b bd
       -0.12869678 -0.08119951 -0.12277029 -0.041834928
000280 be 98 ca 3b 99 eb 9a ba 52 be 5a 3b ef 96 53 bd
       0.006182759 -0.0011819481 0.00333776 -0.051657613
000290 52 01 20 bd 1b 37 cf 3c cc 67 88 3c 40 51 96 bd
       -0.03906376 0.025294831 0.016651057 -0.07339716
0002a0 3a 57 3e bd 8b 99 29 bd 14 1e 54 bc 71 ad f2 3c
       -0.046469904 -0.041406196 -0.012946624 0.029623719
0002b0 9c 43 9c bd 17 8e 5a 3c bf bd 03 3d b9 e8 05 bc
       -0.07630083 0.013339541 0.032163378 -0.008173161
0002c0 ed 2a 85 bc 64 a1 d9 3a 16 71 da bd 6f a2 36 3d
       -0.01625582 0.0016603884 -0.10666101 0.044588502
0002d0 f9 5e a6 bc 35 bd 9d bb 7a aa e6 bc 2e a2 f0 3c
       -0.020308958 -0.004813815 -0.028157461 0.029374208
0002e0 d3 db 87 bc f2 5d c2 bc c2 69 5c 3a 24 18 2e bd
       -0.016584313 -0.023726437 0.0008408093 -0.04250349
0002f0 96 ee 2e 3a 98 84 52 3c b5 2e 9e 3c b8 3b 10 bd
       0.00066731253 0.012848996 0.019309381 -0.035213202
000300 22 fc f0 3c 13 51 38 3c 25 9a e2 3b 0f 63 01 bd
       0.029417101 0.011249798 0.006915348 -0.03158861
000310 a8 5a d8 bc 45 3f b3 3b 89 7a 84 3c fe e5 e1 3c
       -0.026410416 0.005470189 0.01617171 0.02757549
000320 fd dd 8b 3c 02 78 e4 bc 66 2c 0a bd 54 7c 44 bd
       0.017073626 -0.027889255 -0.033733748 -0.04797013
000330 46 59 84 bc d4 23 23 bd 47 36 47 bc ae 1f b5 bd
       -0.01615585 -0.03982909 -0.012158937 -0.08843933
000340 06 07 26 bd 80 a6 ac bc d0 23 b6 bd 94 7e 4f 3c
       -0.04053404 -0.021075487 -0.088935494 0.012664456
000350 80 c6 25 ba 11 5e 50 bd 9e df 2c bd 56 98 12 bc
       -0.00063238293 -0.05087096 -0.042205445 -0.0089474525
000360 ab 6b 87 bd 48 1f 31 bd 57 f6 5d bd cd da 71 bc
       -0.06612333 -0.043242723 -0.054190006 -0.014761639
000370 ba 14 df bd 4f 3f 27 3c bb a0 de bc 64 06 66 3b
       -0.10892625 0.010207965 -0.027176252 0.0035099024
000380 df 9b 4b bd f9 bd c8 bd 30 a6 d9 bc 08 3c e8 bc
       -0.049709197 -0.098018594 -0.026568502 -0.028348938
000390 aa 9e 23 bd b1 32 52 3c 61 b4 45 bd ab dd c7 bc
       -0.039946236 0.012829469 -0.048267726 -0.024397692
0003a0 5a af 4f bc d4 78 1e bc e0 c4 11 3b 26 c6 1b bd
       -0.012676084 -0.009672362 0.002224259 -0.038030766
0003b0 07 a7 56 3d 8c 08 67 bd ff 80 a7 bd af 31 03 bd
       0.052405383 -0.056404635 -0.08178901 -0.032029804
0003c0 52 e1 20 bc 01 50 02 bd a2 06 58 bd dd 92 3e bd
       -0.009819346 -0.03181458 -0.0527407 -0.04652678
0003d0 ea de 37 bd 14 da 40 bd aa 08 1c 3c e4 49 b3 3b
       -0.04489032 -0.047082976 0.00952355 0.005471455
0003e0 f0 37 82 bb 9b ef 9a bc 4b e6 e3 3c 2e c4 7c bc
       -0.0039739534 -0.01891308 0.027819773 -0.015427632
0003f0 5a b3 ff ba 49 6c ac bc 17 c3 2b 3c a4 45 0e 3c
       -0.0019508407 -0.021047728 0.010483525 0.008683596

net.6.weight f4 [128, 256]
000000 36 7f a6 3d 74 d2 ad be 93 c4 15 3e 5a dc ef bb
       0.08129732 -0.33949625 0.14625768 -0.007319969
000010 0a 08 da bd 1e 3d 0d bc 01 97 38 3d 6a 3b b0 bd
       -0.106460646 -0.0086205285 0.045065884 -0.08605082
000020 6a f2 8e 3e 39 9a 62 3e 9e ac 9c 3e b3 0f 54 3e
       0.27919322 0.22129144 0.30600446 0.20709114
000030 f3 bd b6 bc c6 6c c0 bd da 20 89 3d 52 c9 f8 bd
       -0.022307372 -0.09395747 0.06695719 -0.12147774
000040 e0 e1 82 3e 1b 3c 70 3e 1b 02 0f be 2f 9d 8d 3e
       0.25562954 0.23460428 -0.13965647 0.27658984
000050 a1 96 4a be 48 fc bf bd a3 a0 eb bc ab 63 fa bd
       -0.19784023 -0.09374291 -0.028763121 -0.122260414
000060 c6 d6 96 be 6f ef 02 3d ee 79 87 3d bb 05 db bd
       -0.29460734 0.031966623 0.06615053 -0.106944524
000070 4b cb 01 bd 7f 77 30 3b de 85 61 3e de bf 20 3e
       -0.031688016 0.0026926694 0.22023723 0.15698192
000080 29 a0 44 be 55 98 c2 3e 8a 42 f9 3d c8 8c f3 bd
       -0.19201721 0.38006845 0.121708944 -0.11892086
000090 9c 9f bc 3e 10 69 7c be 96 57 9d bc 2e 0d 91 3e
       0.36840522 -0.24649453 -0.019206803 0.28330368
0000a0 cd ac 6c be 73 f4 62 be c9 d2 2a 3d 5f 3d 56 3e
       -0.23112793 -0.22163562 0.041704927 0.20921849
0000b0 5d fc 3b 3e 82 29 d7 3e 09 4a 5e 3b 69 16 54 3e
       0.18357988 0.42023855 0.003391864 0.20711674
0000c0 a8 d6 2c 3d 43 a5 61 3e bd 20 05 be 60 13 97 3e
       0.0421969 0.22035699 -0.1300077 0.2950697
0000d0 e8 63 81 be 7c a3 20 3e f7 f2 cc be 14 55 b3 be
       -0.25271535 0.15687364 -0.40029117 -0.35025847
0000e0 36 bc 96 3d df 99 b0 3d ac 5f 92 bd 47 da 95 3e
       0.07360117 0.086230986 -0.07147154 0.29268095
0000f0 f0 05 8e 3d 07 3d 17 3e 0a 66 81 3e 4b 36 82 be
       0.06934726 0.14769374 0.25273162 -0.25432047
000100 fc 98 ef bc d8 0a 93 3e 9a 68 70 be 4a 54 4e 3e
       -0.029247753 0.2871921 -0.23477402 0.20149341
000110 34 07 a4 3e a3 1c da 3e d7 ba 5f 3e 14 b4 ab bd
       0.32036746 0.42599973 0.21848617 -0.083839566
000120 f5 1d bf be 1b e2 d5 3d 31 0e 1b be c5 b8 23 3e
       -0.37327543 0.10443517 -0.15142132 0.15988453
000130 53 70 99 bc f3 84 bc 3e 99 35 44 3d 35 1d af bd
       -0.018730318 0.36820182 0.047902677 -0.08550493
000140 46 df fe 3e fc a6 33 3e f5 aa 55 bc 75 5a 7d 3e
       0.4977972 0.17544168 -0.013041248 0.24741538
000150 7c 69 ef bd 5e 95 a5 3e ea 2d db 3d 5f f6 e1 3c
       -0.116900414 0.3234052 0.10702117 0.0275833
000160 11 f2 b7 3e f0 a4 37 be 58 b5 1f 3c f1 3a 4b bd
       0.3592687 -0.17934012 0.009747826 -0.049616758
000170 21 ae 62 bc 08 e1 3c ba 5f 9a 62 be 5a de 3d be
       -0.013835461 -0.0007205163 -0.221292 -0.18541852
000180 47 0a d5 3d ae 2f 17 3e e1 0c 8e 3e c4 fe 1c bd
       0.10402351 0.14764282 0.277442 -0.0383289
000190 5c cb d6 bd e8 a8 dc bd b8 10 e5 3e 54 c3 bf bd
       -0.104880065 -0.10774404 0.44739318 -0.09363428
0001a0 92 0a 10 bd cc 02 5a 3e b5 c4 e9 bc 19 df ca 3e
       -0.03516633 0.2129013 -0.02853618 0.39623335
0001b0 3e b1 41 3c 75 d0 b4 3c b4 08 dd 3d be 41 a0 3c
       0.011822043 0.022072056 0.107926756 0.019562598
0001c0 d7 3a af 3e 71 1e d2 3e 34 3e 12 3e a4 49 ee bd
       0.3422458 0.4103885 0.14281541 -0.116351396
0001d0 b3 c8 ea 3c 3f 16 e3 3c bb 48 36 3e 25 a1 aa 3d
       0.028660154 0.027720569 0.17801182 0.08331517
0001e0 2d 21 d2 3d b8 7b f0 bd e8 8c d8 be 89 3f 0a 3e
       0.10260234 -0.117423475 -0.42295003 0.13500799
0001f0 1f 0f 63 3e 7b d1 d0 3e 78 6f 85 3d 1f 1a 59 3e
       0.22173737 0.4078482 0.065154016 0.2120137
000200 a2 ee 57 bd 12 94 5d bd 87 89 55 3d 83 b9 23 3e
       -0.052717812 -0.05409629 0.05213311 0.15988736
000210 08 ea 4a bd f3 25 c9 bc 0f 6c 9b be b7 14 52 3e
       -0.049539596 -0.024554228 -0.3035588 0.20515715
000220 b5 78 00 3d 5c 6a c4 bd 99 97 11 be 1b 6e 6f 3e
       0.031365115 -0.09590599 -0.14217986 0.23381846
000230 8b 43 77 3e 45 1e ef bd 56 45 79 be bd c4 85 3e
       0.2414686 -0.11675695 -0.24342856 0.26126662
000240 b2 ab 1f be 25 b2 22 be 7e 2f 08 3d 92 c5 fc bd
       -0.1559284 -0.15888269 0.033248417 -0.12342371
000250 cb ff ce bd f7 ec 6e be 66 43 9e 3c 30 26 8b 3e
       -0.101073824 -0.23332582 0.019319247 0.27177572
000260 fd 32 94 3e e9 f1 4b be c2 86 34 3d 8a a3 5d be
       0.2894515 -0.199165 0.044073828 -0.21644416
000270 6a 73 c8 bc 94 e8 83 3e c0 e4 c4 3c d6 95 75 3e
       -0.024469096 0.2576338 0.024034858 0.23982939
000280 1d 15 b4 3d f0 2b 2a 3e 10 cc f9 3d e2 52 b9 3e
       0.087930895 0.16618323 0.12197125 0.36196047
000290 79 75 72 be f4 43 59 3e 61 8f b0 3d e1 3c 58 3d
       -0.23677625 0.21217328 0.08621097 0.052792434
0002a0 f2 cf 99 3d ff 03 34 be 16 0a 6f bd 58 85 04 be
       0.075103655 -0.1757965 -0.058359228 -0.12941492
0002b0 fc a8 2e 3e 77 71 26 be 21 e6 ef be 9e 7f 12 be
       0.1705665 -0.16254221 -0.46855262 -0.14306495
0002c0 4a 8f ba bd fa 96 10 bd f6 3c 20 3e 6e 43 18 be
       -0.091093615 -0.035300232 0.15648255 -0.14869472
0002d0 c0 aa 70 ba 2b f0 b1 be fb f5 81 3d c8 0d 78 3c
       -0.0009180717 -0.34753546 0.06345745 0.015140004
0002e0 86 57 53 be 8e 98 1b be 58 01 82 3e b5 e9 10 be
       -0.20638856 -0.15194914 0.2539165 -0.14151652
0002f0 5d 73 46 be d7 22 e2 bc bd 81 5e bd b9 a7 1b 3d
       -0.19379945 -0.027604504 -0.054322947 0.03800175
000300 7c 9b be be 00 27 0f be f0 53 12 bd 48 c6 ab bd
       -0.37228 -0.13979721 -0.03572458 -0.083874285
000310 e0 6c 15 3e 06 e0 6e bc 75 67 ec bd 30 32 f4 bd
       0.14592314 -0.014579779 -0.1154317 -0.11923635
000320 32 d3 10 3e 73 dc 84 3d 83 06 b5 be d0 42 a4 bd
       0.14143065 0.0648736 -0.3535653 -0.08020556
000330 2f 99 b1 bd 31 af 75 3d ed 17 d4 3e 47 c5 68 3e
       -0.086717956 0.05998153 0.41424504 0.22731505
000340 0f 96 9b 3c 6c 0c 8a bd 85 4a d6 3c c3 d8 6a be
       0.018992452 -0.067406505 0.02615858 -0.2293425
000350 05 63 c8 be 42 92 61 3e 40 d1 be 3d a2 5d 8b bd
       -0.39138046 0.22028449 0.09317255 -0.068049684
000360 1c b0 81 3e 3e 99 63 3e 26 76 b6 3e 09 80 6b 3d
       0.25329673 0.22226426 0.35637015 0.05749515
000370 b9 cb a9 3e d3 5d 29 3e d5 1f fd 3e 93 64 89 3e
       0.3316324 0.16539697 0.49438348 0.26834545
000380 a7 46 15 3e 1e c2 01 be b8 53 42 3e 84 de 98 3e
       0.14577733 -0.12671706 0.18977249 0.29857266
000390 ab 24 51 bd e3 2a 01 be 3e c3 3d be 75 45 36 3e
       -0.05106036 -0.12614016 -0.1853151 0.17799933
0003a0 00 90 8d 3d 89 5a 44 be e1 fa d3 bd b9 65 50 bc
       0.069122314 -0.19175161 -0.10350586 -0.012719565
0003b0 3b 0e 20 bc 72 2f f9 3c af 00 b6 3e 21 bc 58 3e
       -0.009769018 0.030418132 0.35547397 0.21165515
0003c0 8b d9 4c be 10 eb 65 be 38 a4 54 3e 6e e8 8a 3e
       -0.20004861 -0.2245295 0.2076577 0.27130455
0003d0 e3 6c 93 3e c6 4e ab ba ca 2f 16 3e 63 ea 56 3e
       0.2879401 -0.0013069741 0.14666668 0.20987849
0003e0 68 00 6b bd f1 9b 64 be 14 c4 80 3d 5b be 3f be
       -0.057373434 -0.22325112 0.06287399 -0.18724959
0003f0 75 09 03 be c2 3d 85 bd 03 4d 0c be 42 6e b0 3c
       -0.12796576 -0.0650592 -0.13701253 0.02153695

net.6.bias f4 [128]
000000 75 14 d9 be b0 6c d2 bd 0a 5e 84 be 45 80 a5 be
       -0.4239842 -0.10274637 -0.25852996 -0.32324424
000010 bb b9 47 bd 25 40 cf 3c 55 b2 18 be fa 67 e3 bb
       -0.04876111 0.025299141 -0.14911778 -0.006939885
000020 f2 8c 01 be 2c 02 a4 bd f7 fd 9f bc 0b 49 0f 3d
       -0.12651423 -0.08008227 -0.01953028 0.03498177
000030 5b b5 40 bd 95 9e cd 3c 02 49 a8 bd 1d 43 07 bc
       -0.047047954 0.025100032 -0.0821705 -0.008255747
000040 aa d6 49 3b 70 7a 55 bd 34 76 db bd bb e1 8e bd
       0.0030798116 -0.05211872 -0.10715905 -0.069766484
000050 2e bb a7 bd a6 c3 43 be 24 58 6b 3c b7 3a 91 bd
       -0.081899986 -0.19117603 0.014364276 -0.07091277
000060 02 ac d7 3b 27 7e 06 be 5a 41 b4 bd b2 e3 bb bd
       0.006581784 -0.13134061 -0.08801527 -0.09174289
000070 4a b4 7a 3d ff 87 d8 bb d4 5f 68 bd 8b 1a 68 be
       0.061207093 -0.006608009 -0.056732014 -0.22666375
000080 62 df 5e bc b4 23 2b 3c fd 9c b9 bd 0f eb 01 be
       -0.013603063 0.010445524 -0.09063146 -0.12687324
000090 c6 2e 18 bd 86 61 f4 3b 14 12 8d 3c b2 71 0a 3d
       -0.03715398 0.0074579148 0.017220534 0.033799835
0000a0 da 5e d0 bd 4b fc 2d bb 0a 32 ac bd aa 96 bf bc
       -0.101743415 -0.0026548083 -0.08407982 -0.023387272
0000b0 c6 7b fa bc b2 9d ba 3d 18 0d d5 bc 3c fc 9b bd
       -0.030576598 0.09112109 -0.02600722 -0.07616469
0000c0 0b a1 9e 3d cb 6d 58 3b 14 25 df bc d8 59 04 3d
       0.0774556 0.0033024426 -0.02723936 0.032312244
0000d0 46 e1 56 bc ea cb 25 3d 5a c2 03 3c 5a a3 a0 bd
       -0.013115233 0.04047767 0.0080419425 -0.07843657
0000e0 8d 8a ec bd 57 92 0e bc 38 54 15 3d 0a db 8f be
       -0.11549864 -0.008701882 0.03645727 -0.280968
0000f0 12 8a 9b be a3 4a 86 3b c0 a9 62 3c 95 6b 82 bd
       -0.30378777 0.004098253 0.013834417 -0.06368176
000100 93 97 1f 3d b2 b5 64 bd 79 00 c3 bd 87 97 81 bd
       0.03896291 -0.05583734 -0.095215745 -0.0632773
000110 e9 e5 00 bd 46 7c 4f 3c 30 71 c6 bd 4a 93 99 3c
       -0.03146926 0.012663906 -0.096895576 0.01874699
000120 c2 a0 1d be 79 08 26 3d 1e 68 5f bc 25 e3 8d bd
       -0.15393355 0.040535424 -0.013635663 -0.0692809
000130 b3 da 09 be 8e 9f 0f bd 92 2c 99 3c ba 73 aa bd
       -0.13462333 -0.035064273 0.01869801 -0.08322854
000140 73 4d bb bd a5 0d 3d bd 05 e4 2d 3d df e4 2f 3d
       -0.09145632 -0.04615559 0.042453784 0.042942878
000150 5d 41 6c bd 59 3e 82 3c 34 b9 22 bd cd fe b5 bc
       -0.057679523 0.01589887 -0.039727405 -0.022216225
000160 c6 58 98 bd 1f fb a8 3a b6 27 69 bd 4d 0a ee bd
       -0.07438807 0.0012892223 -0.056922637 -0.116230585
000170 36 a8 3a bc 66 58 9f bd 2b 7b 41 bd be 48 de 3b
       -0.011392644 -0.077805325 -0.047236603 0.006783574
000180 fc 27 24 be e0 26 91 3b 94 aa 85 3c dc e8 6a 3c
       -0.16030878 0.004429683 0.01631669 0.014337745
000190 54 76 8d bd 0a f0 d1 ba 35 05 13 bd 53 89 a6 3c
       -0.06907335 -0.0016016972 -0.035893638 0.020329153
0001a0 c9 6a a9 bd e1 ab 0a bd a6 ec 4d be a1 b1 77 bd
       -0.08272321 -0.033855323 -0.20109805 -0.060472135
0001b0 6c 46 ed bd 1e bd 36 bd c5 ed 87 bc 27 2c 3c bd
       -0.115856975 -0.04461395 -0.01659287 -0.045940544
0001c0 79 cc 7d bd d0 72 82 bd e6 c4 e5 bc bf cf c6 be
       -0.06196258 -0.06369555 -0.02804799 -0.38830373
0001d0 63 7e 89 3d 26 32 0b be e2 6f c4 bd 90 64 41 bd
       0.067135595 -0.13593349 -0.095916525 -0.047215044
0001e0 a4 8c ba ba 3a 1f 4c bd 20 25 b3 bc c6 40 4d 3d
       -0.0014232588 -0.049834467 -0.021868289 0.0501106
0001f0 4b 21 b0 bd 57 c9 f6 bc ae 65 8d 3c 09 6f 2f 3d
       -0.086001 -0.030125303 0.017260399 0.0428305

net.9.weight f4 [7, 128]
000000 31 cf b5 bc 12 c7 a1 bc ca 62 72 3b 8c 82 74 3a
       -0.022193523 -0.019748244 0.0036985152 0.00093273143
000010 69 31 b1 bc bd c6 33 bc b2 b9 cd b8 7d 34 42 3c
       -0.021630006 -0.010972676 -9.80975e-05 0.0118533345
000020 c8 2f b9 3b 41 b7 1a 3a 88 c9 31 bc b1 a8 65 3c
       0.005651448 0.0005901941 -0.010851271 0.01401727
000030 9d 15 ac 39 d0 a5 0d ba d9 a0 49 bc 41 93 f1 3b
       0.000328225 -0.0005403431 -0.0123064155 0.0073722904
000040 d2 7d 88 bc ba ba 73 3c dc b9 d7 3b ed f5 86 3c
       -0.016661558 0.014876062 0.0065834355 0.016474688
000050 9b 13 aa bc 4e a2 87 3c e1 b1 51 3c 00 bb e0 ba
       -0.020761302 0.016556885 0.012798757 -0.0017145574
000060 f6 c5 da 3b 9c 9a 6b ba 35 4d 98 bc e7 46 1d 3c
       0.006676431 -0.0008987577 -0.018591503 0.009599424
000070 69 8b 3f bc 37 2c 91 bc 85 25 df 3b f8 38 04 3b
       -0.011690953 -0.017721279 0.0068098926 0.0020175558
000080 e3 ed a8 bc b4 6d a0 bb 75 f4 8a bc e0 0c d3 bb
       -0.020621246 -0.00489589 -0.01696227 -0.006440744
000090 3d 1a 11 bc d0 47 59 3c 07 d6 78 3c 82 cc 41 bc
       -0.008856353 0.01326175 0.015187747 -0.011828544
0000a0 a5 97 92 3c 6e 46 9b 3c b9 8f ee 3b 61 7e 70 bc
       0.017894575 0.018954482 0.0072803167 -0.014678569
0000b0 48 58 59 bc a2 7a 7d ba 80 4d e7 ba d0 54 35 bc
       -0.013265677 -0.0009669458 -0.0017646998 -0.011067584
0000c0 9f 91 34 bc f3 cd b4 bc ed ab a2 bc 16 3b 96 bc
       -0.011021047 -0.02207086 -0.019857371 -0.018338721
0000d0 60 df c6 3a fe 6d 2d bc 8d 2b a4 bc 8d 4b 73 3b
       0.0015172772 -0.010585306 -0.020040298 0.003712389
0000e0 04 d1 33 3b a3 e2 97 bc b4 f8 97 3c 66 15 93 3c
       0.0027437815 -0.018540686 0.018551208 0.01795454
0000f0 d8 e5 99 ba 95 b4 8a 3c 75 2b ad bc 99 0a ff 3b
       -0.0011741472 0.016931811 -0.021138886 0.0077832458
000100 36 9d 51 bc bb 4f 81 3c 60 e6 0c 3b 00 c2 b5 bc
       -0.01279383 0.015785089 0.002149962 -0.022187233
000110 fa 6a ab bc 3b 70 1a 3c f6 c6 9d bc 7c 6a ac bc
       -0.020925034 0.009426172 -0.019259911 -0.02104687
000120 16 22 55 3b 61 ef 81 ba 54 97 82 3c 0e c6 e8 ba
       0.0032521538 -0.000991326 0.0159413 -0.001775922
000130 c5 47 28 3c 3d 19 98 3c ca 32 f9 bb 1b e2 89 bc
       0.010271017 0.018566722 -0.0076049315 -0.016831448
000140 2b e0 02 3b c9 d0 87 bc 7d c1 7f 3c 34 45 a0 bc
       0.001997004 -0.016579049 0.015610096 -0.019564249
000150 05 09 77 bc 57 30 80 bc f2 1e 5a 3c 8f 0b 9d bb
       -0.015077834 -0.01564805 0.013313042 -0.0047926377
000160 f4 ab a2 3b 9a d8 c8 3b 3e 62 93 3c 38 14 c3 3b
       0.004964346 0.0061293365 0.017991181 0.005953338
000170 ac cc 9f bc c0 44 48 bc 6a 63 72 3c 87 6d 77 3c
       -0.019506775 -0.0122234225 0.01479421 0.015101797
000180 12 d9 5c b9 fb 58 17 bc d2 16 85 3c 86 5d a1 bc
       -0.000210617 -0.009237523 0.016246233 -0.019697916
000190 d6 0f 6b 3c 15 d6 00 3c 59 bd 1a bc 65 b7 83 3c
       0.014347037 0.007863541 -0.009444558 0.01607866
0001a0 ab f5 fc 3b eb 32 70 3c 73 8c 81 ba f7 b5 6b 3c
       0.0077197156 0.014660577 -0.0009883776 0.0143866455
0001b0 aa bc 93 bb 51 57 9e bb ee 92 9a 3c 6b d8 20 3b
       -0.0045085745 -0.0048321863 0.01886889 0.0024543058
0001c0 ed e5 b8 bb 43 f6 55 3c 00 ba 2e 3c 9a 54 dc ba
       -0.0056426437 0.013059202 0.010664463 -0.0016809881
0001d0 7e b0 ed bb 8e 0d 30 39 28 46 81 bb 3c bc 85 3c
       -0.0072537055 0.00016789717 -0.003945131 0.016325109
0001e0 91 6b 8a 3c c3 44 bf 3b 55 7b 95 bc 3a 95 d7 3b
       0.016896995 0.0058370545 -0.018247286 0.0065790685
0001f0 e9 bf 5c 3c 9e 7e 58 3c 80 3e af bc d4 8e c6 3a
       0.013473489 0.013213782 -0.021392107 0.0015148767
000200 20 6b b1 3c b0 86 ad 3a 23 3f 0b bc 09 9d a9 bc
       0.021657526 0.0013238993 -0.00849894 -0.020704763
000210 87 d7 78 bb 03 54 fc bc fe d2 9d bc f0 e1 69 bb
       -0.0037970261 -0.030801779 -0.019265648 -0.0035687648
000220 b3 c1 cf 3c 66 28 7e 3c 05 36 73 3b 42 f8 82 bc
       0.025360918 0.015512561 0.0037111056 -0.01598752
000230 f2 8e 98 3d 32 2e 90 bc c0 20 f8 bc 0f 8d 12 3d
       0.0744914 -0.017600153 -0.030289054 0.035779055
000240 91 53 93 bb a2 99 9b ba b0 32 72 3c f5 78 1b 3c
       -0.004496046 -0.0011871348 0.014782593 0.009489288
000250 cb 3e 09 bc 0f 5a a2 bc fa ac 37 bc 49 fb 0e 3c
       -0.008376787 -0.019818334 -0.011210674 0.008726903
000260 b8 70 8c 3d fe 6f d9 bb d5 e2 98 3c 6d e6 05 3d
       0.06857437 -0.006635665 0.01866285 0.032690454
000270 56 93 c8 3b 0e a7 b5 ba 46 0c e9 3c d6 86 69 3d
       0.0061210794 -0.001385899 0.028448235 0.057013355
000280 76 6b 72 3a aa 03 e8 bd 35 99 bf 3b 2a 1d c5 bc
       0.00092475803 -0.11328824 0.005847121 -0.024061758
000290 9d 3b 39 bd 5e 04 52 3c 82 5f 9d 3c e7 d4 81 3b
       -0.045222867 0.012818424 0.01921058 0.0039621475
0002a0 50 f7 09 bc f7 36 0b 3d cf 54 0d 3d 4e aa 07 bb
       -0.00842078 0.033987965 0.034504708 -0.0020700875
0002b0 ca b9 b8 bb 77 8f ae bb 76 1e d8 bd 0f c7 c2 bc
       -0.005637382 -0.005327161 -0.10552685 -0.02377656
0002c0 87 49 c9 bb ba 9c 85 bb 84 9a fd 3a 9f d4 af 3a
       -0.0061427983 -0.004077521 0.0019348417 0.0013414806
0002d0 ea bb d4 3d f5 c1 11 bd a5 02 32 bc a6 49 b1 bd
       0.10387404 -0.035585362 -0.010864888 -0.086566254
0002e0 ee 30 57 3d db d6 15 bc c2 cc 3a 3b 2e 04 56 3a
       0.052536897 -0.009145464 0.0028503393 0.0008164075
0002f0 84 2f eb 3a 73 e5 ce 3b b0 ca b8 3b 36 d4 ad 3d
       0.0017943238 0.0063139736 0.0056393966 0.08487742
000300 bc 01 8d 3b 28 6b 1d b9 ad bf 65 3d ec 02 6f 3a
       0.0043031853 -0.00015012606 0.056091 0.0009117562
000310 bb 76 6d 3c c6 b5 be 3d 8e 5a 04 3b 84 67 26 3c
       0.01449364 0.09312014 0.0020195576 0.010156516
000320 c7 84 85 bc 2a 3d e6 3b 8d 1e 44 3c a7 9f 5c 3d
       -0.016298665 0.0070263343 0.0119701745 0.053863194
000330 dd d1 ae 3c 56 fb 31 3c e5 0e fe 3b df 5e e1 3b
       0.021340305 0.010863146 0.0077532404 0.0068777646
000340 05 ca 31 3d b8 34 fa 39 1a d2 0d 3c 16 c6 7f 3a
       0.04340555 0.00047722994 0.008656049 0.0009756995
000350 f0 45 55 bc 96 6d ff 3a bc 90 8e 3c de 69 2f 3d
       -0.013017163 0.0019487615 0.017403 0.042825572
000360 28 2a fa 3c 77 e4 0c 3b 32 aa 1b 3c 6d 70 b1 bc
       0.03053768 0.002149848 0.009501027 -0.021660054
000370 de 76 70 ba 64 7a f9 bb 0d 7c b5 3c 01 96 7a bc
       -0.0009172986 -0.007613467 0.022153879 -0.015294553
000380 5b a5 2d 3d 26 1d 12 3d e5 4a 27 3c 3b 1c 57 bc
       0.042394023 0.03567233 0.010210727 -0.013129289
000390 04 85 86 3a 5d 13 a2 bd 1a 9d 9d bb 30 3f 7b 3c
       0.001026303 -0.079138495 -0.0048099877 0.015334889
0003a0 3d 58 58 bc e2 e3 87 bc ea b8 8c 3b 01 76 cb 3b
       -0.013204631 -0.016588155 0.0042945044 0.0062091355
0003b0 d3 ae c5 bd 9c 4c 12 3d d7 1a 32 bb 19 56 51 bc
       -0.09652486 0.03571759 -0.0027176642 -0.012776875
0003c0 97 d3 11 3d 2c 83 f4 3c 82 c2 a8 bb 9f a1 5e bc
       0.03560218 0.029847704 -0.0051501403 -0.013588338
0003d0 b6 ad 9d bb 89 c9 44 3d 76 2d 14 bb 66 20 a2 3c
       -0.0048119677 0.04804376 -0.0022610105 0.01979084
0003e0 0d 6d b4 bc 2b bd dc 3b 78 6e be 3a 04 0f bf bd
       -0.022024656 0.0067364178 0.0014528772 -0.09329036
0003f0 50 50 a6 bc ef e9 b6 bb 3e 91 62 3c f0 70 db bd
       -0.020301968 -0.0055820863 0.013828574 -0.107149005

net.9.bias f4 [7]
000000 82 7e 5a bd 6a 3d cb bd 23 06 f2 bc 15 fb 11 bf
       -0.053343304 -0.09923823 -0.029543942 -0.57023746
000010 c6 6a b3 bd 02 27 34 3f 59 d8 2c bf
       -0.087606 0.7037202 -0.6751762
