script/tabpfn_sabr_step8_stacking.pth (torch, 685015 bytes, 8 tensors)

head.0.weight f4 [512, 9]
0.06935058 0.33557665 -0.17308685 -0.12219781 -0.032147236 0.35312945 -0.010869413 -0.28929174
-0.2569268 0.0067740623 -0.008270436 0.05954698 -0.32769045 0.25589 0.02689584 -0.072693214
-0.20136969 -0.11922443 0.0974187 -0.036521096 0.11375907 0.2706858 -0.029254459 0.012040096
-0.033608537 0.062846914 0.31455368 -0.13074027 0.0031764358 -0.09216496 0.35859507 0.16755004
-0.21436475 0.015458042 -0.041318275 -0.03573374 0.07906942 0.152096 -0.07373872 -0.071858
0.092737 -0.10835719 -0.09907809 -0.08661676 -0.3455341 0.09174258 0.05094763 -0.12803139
0.2742102 -0.08740586 -0.32025528 -0.2692857 0.25049362 -0.09413569 -0.039379247 -0.01501371
-0.03688352 0.20541368 0.0077677094 0.10942612 0.019192094 0.032126363 0.4030375 -0.006287841
0.047063537 -0.09779996 0.21783456 -0.1879945 -0.052312758 0.048081513 0.042468753 0.36316434
0.037839632 0.07616833 0.034683663 -0.11434453 0.055574078 -0.09957378 0.17196009 0.11527639
0.38825378 0.049428217 0.006589642 -0.013432776 0.019413034 -0.069625735 -0.13212234 0.06561991
-0.083841644 0.5778913 -0.05609316 -0.05670319 -0.07617109 0.094058596 0.25284162 0.26851076
-0.17737296 -0.3093944 0.449966 0.025087781 0.1635414 0.06034761 -0.11027401 -0.018782362
-0.022537334 -0.1750197 -0.066985205 -0.40240544 -0.08715765 0.1112702 0.049828164 -0.3239978
0.08354238 0.036926694 0.13485476 -0.08659635 0.31335953 -0.10034805 -0.06731615 0.011131943
0.37059575 -0.069409706 -0.2010059 0.14024349 -0.02120885 0.23251136 0.09613738 0.08250097
-0.07900394 0.26159662 0.082098804 -0.3007837 0.10390842 -0.11712951 0.41762826 0.012584821
0.09616977 0.06717017 -0.1273434 0.011189083 0.0051702554 0.11442246 0.3431612 -0.24401581
-0.048956737 -0.03004639 0.17639396 -0.079580404 0.14146394 0.11448542 0.19823061 0.02289825
0.2810323 0.021704543 -0.15082006 0.010115637 -0.16480061 -0.23302959 0.21775168 -0.11145954
-0.11697158 -0.41610888 -0.041516073 -0.011380188 0.12514235 -0.086786345 -0.1349892 0.03139492
-0.19393075 -0.40524915 -0.026820447 -0.051193424 -0.008427894 0.024336917 0.05610328 -0.09753647
0.024058217 -0.027281338 -0.10169896 0.42453596 -0.022347782 -0.040207494 -0.06160009 0.10420103
0.19105731 -0.104190186 0.12805253 -0.10634647 0.37919793 -0.1480842 0.23643103 -0.10143575
0.21899405 -0.2137075 0.034112513 0.310726 0.22950803 -0.41723427 -0.13399486 -0.17027712
0.08163469 -0.116641626 0.08662845 -0.052439637 0.34059983 0.09995461 0.04894051 -0.24144427
-0.17965406 -0.0072472 0.15846069 -0.033379383 0.05764798 0.052123185 -0.10021371 -0.23042557
-0.071096145 0.28312212 0.28966534 -0.07189268 0.23057139 0.14371327 0.37031823 0.27665585
0.08275931 0.14440855 0.14669558 0.058877353 0.17970815 0.0024262846 0.12590733 0.08587275
0.29278445 0.20711732 0.15024835 -0.031653345 -0.20398326 -0.093450904 -0.061412845 0.10053189
-0.16434029 0.063336276 -0.3835644 -0.104880035 -0.10880022 -0.07355804 -0.22660525 0.08999794
-0.14185564 0.1440539 0.0879823 -0.08066102 0.07181047 0.034529086 -0.1021615 -0.31672403
00000000: ad07 8e3d b4d0 ab3e ae3d 31be d842 fabd
00000010: d2ac 03bd 62cd b43e 9f15 32bc 0c1e 94be
00000020: e98b 83be f4f8 dd3b b980 07bc 89e7 733d
00000030: 0bc7 a7be 0404 833e aa54 dc3c 2ee0 94bd
00000040: db33 4ebe f02b f4bd 7583 c73d 2597 15bd
00000050: 84fa e83d 5497 8a3e 0ca7 efbc d343 453c
00000060: 1ba9 09bd e2b5 803d 2e0d a13e c7e0 05be
00000070: c02b 503b fcc0 bcbd c699 b73e 3d92 2b3e
00000080: 6f82 5bbe ba43 7d3c 5a3d 29bd 8b5d 12bd
00000090: 26ef a13d 0ebf 1b3e 5304 97bd 492a 93bd
000000a0: e5ec bd3d 60ea ddbd 74e9 cabd 2164 b1bd
000000b0: d8e9 b0be 89e3 bb3d 76ae 503d a91a 03be
000000c0: 4865 8c3e d801 b3bd 80f8 a3be d1df 89be
000000d0: b340 803e 36ca c0bd 224c 21bd 10fc 75bc
000000e0: 2d13 17bd f757 523e 4588 fe3b cd1a e03d
000000f0: bd38 9d3c ef96 033d ee5a ce3e 3c0a cebb
00000100: b2c5 403d 584b c8bd 0610 5f3e a181 40be
00000110: e745 56bd 1ff1 443d b7f3 2d3d adf0 b93e
00000120: bbfd 1a3d 24fe 9b3d 7510 0e3d 772d eabd
00000130: a5a1 633d 57ed cbbd 4e16 303e 0716 ec3d
00000140: 33c9 c63e 3e75 4a3d eced d73b 2515 5cbc
00000150: 1508 9f3c f097 8ebd 144b 07be bb63 863d
00000160: 2bb5 abbd aff0 133f f1c1 65bd 9b41 68bd
00000170: 97ff 9bbd cba1 c03d 7574 813e 3e7a 893e
00000180: 42a1 35be f168 9ebe f261 e63e e484 cd3c
00000190: 6677 273e 0e2f 773d 57d7 e1bd 78dd 99bc
000001a0: 37a0 b8bc 5d38 33be 8a2f 89bd 1608 cebe
000001b0: b67f b2bd a1e1 e33d 9e18 4c3d 0ae3 a5be
000001c0: 4418 ab3d 7240 173d 5e17 0a3e 6d59 b1bd
000001d0: a970 a03e 4783 cdbd 0ddd 89bd c162 363c
000001e0: babe bd3e ad26 8ebd 7ed4 4dbe fd9b 0f3e
000001f0: 2fbe adbc 7517 6e3e ade3 c43d 45f6 a83d
00000200: d1cc a1bd feef 853e 6b23 a83d 5200 9abe
00000210: f0cd d43d 99e1 efbd 5fd3 d53e 9130 4e3c
00000220: a8f4 c43d 8490 893d 4f66 02be 6a52 373c
00000230: 3f6b a93b 5356 ea3d d3b2 af3e 48df 79be
00000240: dc86 48bd d923 f6bc 9ea0 343e 0dfb a2bd
00000250: ecdb 103e 5577 ea3d f7fc 4a3e 1c95 bb3c
00000260: 77e3 8f3e bacd b13c 9370 1abe 0fbc 253c
00000270: 7ec1 28be 4f9f 6ebe 4cfa 5e3e e644 e4bd
00000280: cc8e efbd 390c d5be c20c 2abd f873 3abc
00000290: 5125 003e 0abd b1bd 9c3a 0abe f697 003d
000002a0: c895 46be d17c cfbe 8eb6 dbbc 32b0 51bd
000002b0: 2615 0abc 375e c73c 8ecc 653d 33c1 c7bd
000002c0: bd15 c53c 1d7d dfbc 8b47 d0bd c75c d93e
000002d0: b212 b7bc 9db0 24bd 6050 7cbd 5a67 d53d
000002e0: 87a4 433e aa61 d5bd 3420 033e 2ecc d9bd
000002f0: 3b26 c23e 62a3 17be fa1a 723e 8cbd cfbd
00000300: fa3f 603e 24d6 5abe 90b9 0b3d 7a17 9f3e
00000310: 2704 6b3e bb9f d5be f335 09be 205d 2ebe
00000320: 1730 a73d cee1 eebd 426a b13d f2ca 56bd
00000330: 1a63 ae3e 01b5 cc3d d875 483d 2b3d 77be
00000340: 3cf7 37be eb79 edbb 8543 223e d2b8 08bd
00000350: 4a20 6c3d 1f7f 553d d83c cdbd aef4 6bbe
00000360: db9a 91bd 62f5 903e 044f 943e 783c 93bd
00000370: e81a 6c3e 9229 133e 5a9a bd3e d6a5 8d3e
00000380: b77d a93d d6df 133e 5e37 163e 6129 713d
00000390: 6a05 383e 4d02 1f3b daed 003e 0dde af3d
000003a0: d8e7 953e 9016 543e b4da 193e f0a6 01bd
000003b0: fde0 50be 3063 bfbd 098c 7bbd aae3 cd3d
000003c0: d248 28be 73b6 813d 8e62 c4be 58cb d6bd
000003d0: a6d2 debd 99a5 96bd 350b 68be d750 b83d
000003e0: 9b42 11be de82 133e 1030 b43d 9b31 a5bd
000003f0: 5e11 933d 5f6e 0d3d 0c3a d1bd a729 a2be

head.0.bias f4 [512]
-0.09577905 0.21315616 -0.07413745 0.067639135 -0.0038553956 -0.29612848 -0.040523466 -0.30083653
-0.100196175 -0.1881876 -0.094026506 0.10107759 -0.13790017 -0.22538407 -0.064803936 0.27071625
-0.016500078 -0.064303696 0.14569695 -0.20671041 0.12255643 0.15284985 0.16847292 0.027160233
-0.0804012 -0.12365422 -0.107160084 0.10377904 -0.13159543 -0.07685398 0.10917284 0.096133105
0.09537619 -0.16794296 -0.04911897 0.28838196 -0.19304003 -0.057773963 -0.19978914 -0.068615824
-0.2619607 0.09543543 0.18983261 -0.07969422 -0.15367153 -0.20815228 -0.10488287 0.11293048
-0.22557269 -0.20269327 0.16972502 -0.016517557 -0.27288172 0.0011741047 -0.19746391 -0.19983014
-0.1616521 0.20949973 -0.24107674 0.1342573 0.21922557 -0.1409617 -0.14356415 -0.0004960807
0.18200305 0.12236939 0.0011851692 -0.27668735 -0.12827119 -0.11717522 -0.24254356 -0.14047602
-0.10757679 -0.1342159 -0.030968092 -0.25473228 0.21127272 0.31828022 0.049719147 0.116709575
-0.22945888 0.2094024 0.13714847 0.10572027 0.022187442 -0.0642124 -0.24314919 -0.1497697
0.24127154 0.15162872 -0.23032808 0.07645236 0.15763305 0.11505689 -0.22447544 0.20648886
0.118270844 -0.18235782 -0.15603606 0.22590974 -0.3079774 0.0709416 0.16000472 0.071990065
-0.040425204 0.08208508 -0.19197673 -0.118725136 -0.09537908 -0.16748083 -0.2630138 0.027629547
-0.16274835 -0.16396753 -0.038444795 0.06641823 -0.16732138 -0.18006924 0.1394489 -0.22656469
0.07423596 0.27112803 0.27075595 -0.33895808 -0.0040919674 0.013592415 0.23839633 0.13378529
-0.0489964 -0.07591003 -0.34883004 0.17529063 -0.15250544 0.1475843 0.14541636 0.095521025
0.063949734 0.27872652 0.057620384 -0.081836134 -0.19752647 -0.013797936 0.01753488 -0.2816952
0.05693672 -0.07562886 -0.10906242 0.16130751 0.02232267 0.246879 0.13719927 -0.10420328
-0.20138419 -0.27499226 -0.049636815 -0.23660262 0.23602097 -0.032306857 -0.20347169 0.17834866
-0.23199566 -0.34328657 -0.0358792 0.04318919 -0.15093409 -0.1666363 -0.13077483 -0.20018049
-0.16481017 -0.15204352 -0.26689547 0.23813957 0.15786548 -0.18002196 0.01905036 0.04692322
-0.23066494 0.20272014 -0.0042879446 -0.103046365 -0.14958128 -0.05397849 -0.08423161 0.13798952
-0.058191184 -0.15604123 -0.010306282 -0.15294819 -0.15967885 0.028399961 -0.0035233803 -0.019591292
-0.1333922 -0.20100546 -0.10543165 -0.04874759 0.060777724 0.1029252 0.007102639 0.1483411
0.13117796 -0.0059568062 0.14542107 0.01780155 0.022901073 -0.16357529 -0.15795045 -0.053564474
-0.13792998 -0.1359694 -0.2108926 -0.22635312 0.092719674 -0.17174314 0.11132404 -0.22449788
-0.002510428 0.036444806 -0.18452409 0.25849348 -0.0008805656 -0.23992981 -0.1837539 -0.18811716
0.026946284 -0.052144777 -0.28006995 -0.19263615 0.18098806 0.16979599 -0.14350988 0.17167544
0.046384677 -0.020242719 0.17824449 -0.07804335 -0.29097003 0.020098558 -0.2761021 -0.10849765
-0.074691445 0.13967144 0.29914287 0.11779502 -0.19092242 0.04045494 -0.12122034 0.1327042
0.23454215 0.24263759 -0.25450826 -0.18384823 0.11799061 0.25954422 -0.04893054 -0.06642701
00000000: ce27 c4bd 9c45 5a3e 60d5 97bd 6386 8a3d
00000010: ceaa 7cbb 279e 97be effb 25bd 3f07 9abe
00000020: a733 cdbd 40b4 40be f890 c0bd c401 cf3d
00000030: b435 0dbe 15cb 66be edb7 84bd 529b 8a3e
00000040: 2c2b 87bc a8b1 83bd 9531 153e e5ab 53be
00000050: defe fa3d ac84 1c3e 2a84 2c3e 237f de3c
00000060: 62a9 a4bd 6c3e fdbd bf76 dbbd 1b8a d43d
00000070: f4c0 06be 9f65 9dbd 0396 df3d 6fe1 c43d
00000080: 9854 c33d 3df9 2bbe f930 49bd cda6 933e
00000090: 49ac 45be 64a4 6cbd 8695 4cbe 7486 8cbd
000000a0: b61f 86be a773 c33d 7b63 423e b936 a3bd
000000b0: 125c 1dbe df25 55be d5cc d6bd 1848 e73d
000000c0: 87fc 66be d38e 4fbe 65cc 2d3e d44f 87bc
000000d0: 27b7 8bbe 6be4 993a fb33 4abe 46a0 4cbe
000000e0: 2188 25be 1987 563e d2dc 76be bf7a 093e
000000f0: ab7c 603e 4458 10be 7b02 13be 6a0b 02ba
00000100: 025f 3a3e ce9c fa3d ae57 9b3a f7a9 8dbe
00000110: 8659 03be 90f9 efbd 575d 78be f2d8 0fbe
00000120: 3851 dcbd e56f 09be ccb0 fdbc 456c 82be
00000130: e057 583e a0f5 a23e 4ea6 4b3d 6e05 ef3d
00000140: 45f7 6abe 956d 563e a670 0c3e de83 d83d
00000150: 70c2 b53c ca81 83bd 1afc 78be 3a5d 19be
00000160: e30f 773e 8f44 1b3e 20db 6bbe 0e93 9c3d
00000170: 8f6a 213e f2a2 eb3d e4dc 65be d171 533e
00000180: fc37 f23d 02bc 3abe ebc7 1fbe e254 673e
00000190: 37af 9dbe d449 913d 47d8 233e 876f 933d
000001a0: e694 25bd 391c a83d 8c95 44be 2a26 f3bd
000001b0: 1b56 c3bd 1880 2bbe bfa9 86be 5c57 e23c
000001c0: 81a7 26be 1be7 27be 4a78 1dbd 4806 883d
000001d0: 4c56 2bbe 1264 38be b1cb 0e3e 9300 68be
000001e0: 0609 983d 4bd1 8a3e 86a0 8a3e ea8b adbe
000001f0: e915 86bb b8b2 5e3c 2b1e 743e 03ff 083e
00000200: 73b0 48bd b876 9bbd da99 b2be 637f 333e
00000210: 632a 1cbe 5720 173e 07e8 143e 87a0 c33d
00000220: 14f8 823d 3eb5 8e3e 5a03 6c3d b499 a7bd
00000230: 6144 4abe bd10 62bc 4fa5 8f3c 5a3a 90be
00000240: 7a36 693d 4ee3 9abd 1e5c dfbd cc2d 253e
00000250: 08de b63c d9cd 7c3e f77d 0c3e 8768 d5bd
00000260: a837 4ebe c9cb 8cbe f94f 4bbd f547 72be
00000270: 7baf 713e 3254 04bd e25a 50be 08a1 363e
00000280: 4590 6dbe 42c3 afbe 11f6 12bd 26e7 303d
00000290: 778e 1abe b5a2 2abe d6e9 05be 1dfc 4cbe
000002a0: ffc3 28be 4cb1 1bbe 86a6 88be dcda 733e
000002b0: 7da7 213e ad57 38be 800f 9c3c 9032 403d
000002c0: 6e33 6cbe de95 4f3e e381 8cbb f909 d3bd
000002d0: d62b 19be 8d18 5dbd 9f81 acbd 204d 0d3e
000002e0: e159 6ebd 46c9 1fbe aedb 28bc 739e 1cbe
000002f0: da82 23be 09a7 e83c 83e8 66bb eb7d a0bc
00000300: f797 08be 60d4 4dbe 8dec d7bd 8eab 47bd
00000310: 10f2 783d 72ca d23d 41bd e83b bbe6 173e
00000320: 8453 063e 5031 c3bb 43e9 143e 8ed4 913c
00000330: 089b bb3c 4880 27be c3bd 21be 6c66 5bbd
00000340: 843d 0dbe 903b 0bbe 3bf4 57be 1dc9 67be
00000350: d0e3 bd3d 6fdd 2fbe dcfd e33d c6e2 65be
00000360: fe85 24bb 2647 153d e2f3 3cbe 4259 843e
00000370: c2d5 66ba 29b0 75be fb29 3cbe c9a1 40be
00000380: 74be dc3c c395 55bd 5465 8fbe 6942 45be
00000390: ef54 393e 00df 2d3e 41f4 12be b0cb 2f3e
000003a0: dcfd 3d3d 0fd4 a5bc b985 363e 31d5 9fbd
000003b0: 06fa 94be bba5 a43c 415d 8dbe 0434 debd
000003c0: d4f7 98bd 0806 0f3e 4129 993e 843e f13d
000003d0: 2b81 43be 14b4 253d 5f42 f8bd 9ce3 073e
000003e0: d12b 703e fd75 783e e84e 82be b642 3cbe
000003f0: 10a5 f13d fbe2 843e 646b 48bd e20a 88bd

head.3.weight f4 [256, 512]
-0.053800676 0.016985076 0.07574795 0.11937582 -0.03068988 0.0043712594 0.006408524 -0.056490965
-0.11524177 -0.10032013 -0.112188146 -0.13361467 0.035377406 0.17046571 -0.095297925 -0.12199542
0.07966989 0.1104831 0.0035468626 0.016878348 -0.06466066 -0.08718014 0.05590507 0.21410029
0.017028091 -0.057471607 0.04385853 -0.0857879 -0.1344256 -0.037948225 -0.12723674 -0.023570962
-0.12235413 0.0029989476 0.11160752 -0.031707954 0.03571698 -0.05890848 -0.011453763 -0.093536235
0.13983335 -0.09570834 0.02957252 0.06399917 -0.09992106 -0.0028110777 0.009616874 -0.044013243
-0.122688845 -0.017992646 0.003562212 0.008725844 0.119735144 -0.055452656 0.02139427 0.14456691
-0.023919707 0.014682676 -0.034484245 -0.06099345 0.007151948 0.06705359 -0.08571043 -0.084779814
-0.07429469 -0.13441546 -0.09466957 0.048228595 0.067761645 -0.008063851 -0.11316431 -0.17473504
0.04698076 -0.04774597 0.06478143 0.18539794 -0.048180923 0.15562063 0.061742645 0.06090898
-0.0138140125 -0.23102437 0.022452455 -0.047881532 -0.003228897 0.06846114 0.051246457 -0.1127777
-0.016708935 -0.047038894 0.18104193 -0.03601896 -0.0068382067 0.021567328 -0.006530046 -0.0804436
-0.20161092 -0.06426474 0.06987517 -0.04567895 0.014729877 -0.027840942 -0.044098914 -0.04509609
0.006023147 0.020260662 -0.022223393 -0.18471202 0.026498817 0.008888286 0.05380056 -0.021753332
-0.21095897 0.09040574 -0.014216118 0.017686728 -0.046304833 0.019049786 -0.071471214 -0.010702923
-0.016878331 -0.20425561 -0.09969028 0.062420886 -0.0365459 0.028129796 -0.04631897 0.046773847
0.14669843 0.12148381 0.020554548 -0.13706656 -0.058680616 -0.03678164 -0.04813486 -0.040166833
0.20313495 0.12036733 0.05127219 0.08750381 0.023781523 0.047123186 0.044400193 -0.0029528516
0.047586653 -0.15943687 0.09048971 -0.03647904 -0.0074195247 -0.012783667 -0.0698094 0.18499444
-0.068930484 0.13093628 0.13232113 0.13186947 0.054962702 0.039545696 0.21294902 -0.1546934
0.15817663 0.01049945 -0.08683032 -0.05790132 -0.03850214 -0.03301783 -0.13031507 -0.028846476
-0.118469216 0.038784932 -0.046985906 -0.03237705 -0.06924116 -0.09697322 -0.08621496 -0.0030451962
0.1854165 -0.11770882 -0.122912385 0.0032847011 0.15636471 -0.06776609 0.020103158 -0.11214721
0.025392521 0.04546916 0.05953975 0.031180168 0.062273823 0.039753884 -0.019328723 0.026679438
0.020789923 0.0315852 -0.030068474 0.17106226 -0.039549686 0.101504445 0.015813144 -0.13563086
0.00076498225 -0.053437997 -0.036766678 0.07918739 0.120669216 -0.026748484 0.19662592 0.06776116
0.20388116 0.076569766 -0.14540857 0.030663691 -0.020272925 -0.030103939 0.03183971 -0.032035302
-0.10668243 0.02697569 -0.04059725 -0.11695236 -0.10608529 0.10306763 0.027922906 -0.038658604
-0.022114746 -0.09383398 -0.03046501 0.16502431 -0.101540856 -0.23607264 -0.13338281 -0.25998378
-0.07319884 0.12200343 -0.026831895 -0.02256251 -0.010051328 0.0054527237 0.05601046 -0.028511787
0.02366999 0.011293281 -0.016111156 0.23065968 0.19842224 0.0017050527 -0.03185411 -0.074598014
-0.102117956 -0.07647281 0.048491437 -0.11676554 -0.113021836 -0.024276763 -0.05077894 0.018296693
00000000: 195e 5cbd 4924 8b3c be21 9b3d 4f7b f43d
00000010: 5869 fbbc c83c 8f3b 98fe d13b 1263 67bd
00000020: e103 ecbd a474 cdbd e6c2 e5bd 49d2 08be
00000030: e6e7 103d 908e 2e3e 8f2b c3bd bcd8 f9bd
00000040: f829 a33d f744 e23d 7b72 683b 7644 8a3c
00000050: cf6c 84bd 808b b2bd b7fc 643d 1b3d 5b3e
00000060: 7f7e 8b3c 5967 6bbd 01a5 333d 91b1 afbd
00000070: dda6 09be 996f 1bbd 594a 02be e417 c1bc
00000080: cd94 fabd fe89 443b 7c92 e43d 33e0 01bd
00000090: f84b 123d 054a 71bd 90a8 3bbc ed8f bfbd
000000a0: 7930 0f3e bc02 c4bd 1242 f23c ff11 833d
000000b0: 6aa3 ccbd 0f3a 38bb 1890 1d3c 3b47 34bd
000000c0: 4a44 fbbd 5065 93bc 0074 693b d8f6 0e3c
000000d0: b337 f53d 5322 63bd 0943 af3c 5909 143e
000000e0: 43f3 c3bc 9b8f 703c 5a3f 0dbd 45d4 79bd
000000f0: e35a ea3b 6553 893d f388 afbd 0aa1 adbd
00000100: d027 98bd 35a4 09be 1fe2 c1bd 598b 453d
00000110: 9ec6 8a3d 3e1e 04bc b1c2 e7bd beed 32be
00000120: e66e 403d 4791 43bd 20ac 843d f5d8 3d3e
00000130: 5c59 45bd 045b 1f3e dbe5 7c3d b27b 793d
00000140: 2b54 62bc a791 6cbe 36ee b73c 6d1f 44bd
00000150: e79b 53bb 5b35 8c3d cee7 513d fff7 e6bd
00000160: 2de1 88bc dbab 40bd 0e63 393e 9e88 13bd
00000170: 0913 e0bb f7ad b03c fff9 d5bb 9dbf a4bd
00000180: 1873 4ebe 3b9d 83bd b71a 8f3d da19 3bbd
00000190: 9555 713c b012 e4bc 10a1 34bd adb6 38bd
000001a0: d25d c53b b0f9 a53c d50d b6bc 2625 3dbe
000001b0: 0c14 d93c 2ca0 113c fa5d 5c3d 0b34 b2bc
000001c0: a105 58be a526 b93d b8ea 68bc c2e3 903c
000001d0: 23aa 3dbd 4c0e 9c3c 805f 92bd 505b 2fbc
000001e0: 6d44 8abc 6228 51be 6b2a ccbd 0bad 7f3d
000001f0: 27b1 15bd 7570 e63c f6b8 3dbd ef95 3f3d
00000200: 1d38 163e 81cc f83d 0362 a83c 2d5b 0cbe
00000210: 165b 70bd 58a8 16bd 0f29 45bd fa85 24bd
00000220: 9c02 503e 2683 f63d ca02 523d 3335 b33d
00000230: 78d1 c23c 3e04 413d fadc 353d a184 41bb
00000240: 39ea 423d 6b43 23be ab52 b93d 0c6b 15bd
00000250: 7c1f f3bb 9672 51bc 3bf8 8ebd 2f6f 3d3e
00000260: 6d2b 8dbd 2914 063e 317f 073e ca08 073e
00000270: 9220 613d abfa 213d 4f0f 5a3e f267 1ebe
00000280: 0ef9 213e e305 2c3c 18d4 b1bd ef29 6dbd
00000290: 6cb4 1dbd b43d 07bd 5071 05be 724f ecbc
000002a0: fd9f f2bd f3dc 1e3d 4b74 40bd cc9d 04bd
000002b0: 4fce 8dbd e599 c6bd 7891 b0bd ea91 47bb
000002c0: d3dd 3d3e 5211 f1bd 7db9 fbbd 2444 573b
000002d0: 121e 203e f3c8 8abd 61af a43c 70ad e5bd
000002e0: fa03 d03c df3d 3a3d f4df 733d 8d6d ff3c
000002f0: d612 7f3d f8d4 223d 4557 9ebc d68e da3c
00000300: a14f aa3c 7c5f 013d 2952 f6bc f22a 2f3e
00000310: dafe 21bd 90e1 cf3d 918a 813c d1e2 0abe
00000320: 1789 483a cde1 5abd a898 16bd 002d a23d
00000330: 6c21 f73d a31f dbbc 4e58 493e 5dc6 8a3d
00000340: 39c6 503e 9cd0 9c3d fce5 14be 6c32 fb3c
00000350: 6813 a6bc 899c f6bc 5b6a 023d 7337 03bd
00000360: 517c dabd 1ffc dc3c 4d49 26bd b884 efbd
00000370: 3f43 d9bd 1f15 d33d 94be e43c 7c58 1ebd
00000380: fc29 b5bc 082c c0bd c291 f9bc 22fc 283e
00000390: a7f4 cfbd 07bd 71be 8195 08be 981c 85be
000003a0: 46e9 95bd efdc f93d 90ce dbbc 03d5 b8bc
000003b0: 53ae 24bc c3ac b23b 396b 653d 8d91 e9bc
000003c0: 91e7 c13c 7407 393c 8bfb 83bc 0d32 6c3e
000003d0: 332f 4b3e 137c df3a 7579 02bd d8c6 98bd
000003e0: 3823 d1bd c79d 9cbd f59e 463d c522 efbd
000003f0: fe77 e7bd 10e0 c6bc 94fd 4fbd f2e2 953c

head.3.bias f4 [256]
-0.089684084 -0.03463977 -0.29785955 -0.015575394 -0.025714383 0.036654014 -0.011904542 -0.054111283
-0.0009068685 -0.002493255 -0.042582456 -0.016419329 -0.09746837 -0.008291915 -0.045171805 -0.07467323
-0.02130702 -0.008314978 -0.038673617 -0.041239414 -0.13885419 0.0028913997 -0.0715571 -0.041913245
-0.03019239 0.010693884 0.0048256656 -0.005829084 0.020029033 0.055541664 0.018396089 -0.008354535
-0.021879403 -0.050035212 -0.036824346 -0.017542744 -0.045585252 -0.12657714 0.011809137 0.028428616
-0.08527822 -0.015797097 -0.020838557 0.007909894 0.024490748 0.017558211 -0.039144192 -0.05309579
-0.01272002 -0.036434766 -0.022923732 0.0035436922 -0.0068913596 -0.051686432 -0.02317526 -0.0185614
-0.09781027 -0.08453523 -0.019807424 0.014576073 -0.011461257 -0.020642199 0.032578334 -0.11135454
0.017941536 0.022800481 0.00072535215 -0.032153916 -0.0025674747 -0.006739269 0.030715562 -0.19371438
0.0025922807 -0.054272614 -0.082968175 -0.01972332 -0.062242012 -0.025822703 0.007640902 -0.04482956
0.007840129 -0.0030329973 -0.069245525 -0.07831378 -0.025130462 -0.012932025 -0.032360274 -0.12418265
-0.052156884 -0.06662224 -0.09328348 -0.02123932 0.01897628 -0.026577415 -0.033429764 -0.0041881073
0.025083 -0.0051578307 -0.075677276 -0.032839622 -0.0511194 -0.04281328 0.008908054 -0.06593732
-0.008579617 -0.0298653 -0.007428767 -0.01537254 0.009949185 -0.004918739 -0.022621142 -0.0460581
0.0084832935 -0.018397499 0.047505446 -0.027765175 -0.059633836 -0.023188608 -0.08209486 -0.03307141
0.009151225 -0.0068267435 -0.02233209 0.02631214 -0.038584564 -0.11848051 -0.020362318 -0.011988512
-0.034078304 -0.051407505 -0.034031395 0.0022205352 0.0140908845 0.017157136 -0.034025203 -0.116860144
0.00762697 -0.022756873 0.016657189 0.01582385 -0.08023598 -0.0279139 -0.10744043 -0.0079816375
0.0017364158 -0.026312111 -0.049182452 0.020255 -0.026564231 -0.047106672 -0.03161343 0.0051564565
-0.007843737 -0.010679238 0.03970352 -0.045126095 -0.064112976 -0.07009756 0.022359971 -0.067993276
0.023743024 -0.046705488 -0.022996198 -0.032224774 -0.011611615 -0.08625133 -0.04825959 0.025672346
-0.030250773 -0.045959182 -0.10709935 -0.10477894 -0.07131301 0.024157187 -0.027709212 -0.008834721
0.019453749 -0.03509319 -0.0039810636 -0.047403023 -0.18102856 -0.11994764 0.011886775 -0.045253523
-0.033620737 0.015667234 -0.044362966 0.011244009 -0.009591035 0.011618155 -0.024116509 -0.022975063
-0.085709244 0.025175536 0.013888529 -0.03975423 -0.04197111 0.010737735 0.039537583 0.0067894096
-0.008752482 -0.06158933 0.0054107006 -0.05773531 -0.059142575 -0.011964597 -0.008075011 0.0050880327
-0.00033391183 -0.02423459 -0.014995732 0.02291808 -0.008261116 0.010693236 -0.07042686 -0.03909088
0.021111304 -0.06571718 -0.008762527 -0.043120246 -0.008329243 -0.04686983 -0.021639263 -0.0226794
-0.035010308 -0.016889883 0.020805867 -0.056068774 -0.013517467 0.032956082 -0.02240276 -0.029341636
-0.0054907147 -0.12860318 -0.04799083 0.003828563 -0.026510883 0.009099884 -0.026821267 -0.035624158
0.03924535 -0.027694609 0.014958674 -0.023875877 0.008421967 -0.03816709 0.026283368 -0.011581662
-0.06354206 -0.0052814595 -0.009932628 0.009358567 -0.08368088 -0.0040261727 -0.003995672 -0.004917353
00000000: 4aac b7bd 6ee2 0dbd 0c81 98be f02f 7fbc
00000010: f8a6 d2bc 8522 163d 450b 43bc cba3 5dbd
00000020: eaba 6dba e165 23bb f16a 2ebd d481 86bc
00000030: 7f9d c7bd d0da 07bc 1206 39bd 47ee 98bd
00000040: 0f8c aebc 8c3b 08bc 3a68 1ebd a9ea 28bd
00000050: cb2f 0ebe a37d 3d3b 878c 92bd 39ad 2bbd
00000060: 0856 f7bc 6735 2f3c 9e20 9e3b e701 bfbb
00000070: ed13 a43c a87f 633d 65b3 963c 76e1 08bc
00000080: 6f3c b3bc b9f1 4cbd 20d5 16bd cdb5 8fbc
00000090: 9ab7 3abd 709d 01be 1c7b 413c 21e3 e83c
000000a0: 59a6 aebd ea68 81bc 9fb5 aabc 8098 013c
000000b0: d2a0 c83c 3dd6 8f3c a955 20bd f97a 59bd
000000c0: a167 50bc 9f3c 15bd 8dca bbbc 4a3d 683b
000000d0: ead0 e1bb 27b5 53bd 0bda bdbc 140e 98bc
000000e0: c050 c8bd cf20 adbd 2e43 a2bc 7bd0 6e3c
000000f0: ffc7 3bbc d419 a9bc dc70 053d d90d e4bd
00000100: 21fa 923c 13c8 ba3c 8f25 3e3a d3b3 03bd
00000110: 1443 28bb 16d5 dcbb 349f fb3c 105d 46be
00000120: 41e3 293b f64c 5ebd 38eb a9bd cd92 a1bc
00000130: 7bf1 7ebd 228a d3bc 8860 fa3b 339f 37bd
00000140: e273 003c 40c5 46bb 99d0 8dbd fa62 a0bd
00000150: 66de cdbc d8e0 53bc 358c 04bd 7953 febd
00000160: 75a2 55bd 3e71 88bd 690b bfbd 15fe adbc
00000170: 2574 9b3c e1b8 d9bc a6ed 08bd 643c 89bb
00000180: dd7a cd3c 0503 a9bb b0fc 9abd d782 06bd
00000190: 9362 51bd fa5c 2fbd 16f3 113c 250a 87bd
000001a0: 8691 0cbc 13a8 f4bc 046d f3bb 1bdd 7bbc
000001b0: e801 233c 602d a1bb f94f b9bc 6ba7 3cbd
000001c0: 83fd 0a3c 5ab6 96bc 1295 423d cb73 e3bc
000001d0: 9c42 74bd 09f6 bdbc 5a21 a8bd e375 07bd
000001e0: 05ef 153c e0b2 dfbb caf1 b6bc 8f8c d73c
000001f0: d90a 1ebd e9a5 f2bd e0ce a6bc 776b 44bc
00000200: b195 0bbd ad90 52bd 8164 0bbd 6686 113b
00000210: 74dd 663c 1f8d 8c3c 035e 0bbd 5f54 efbd
00000220: a9eb f93b 9f6c babc a874 883c 05a1 813c
00000230: c352 a4bd b1ab e4bc ba09 dcbd 6ac5 02bc
00000240: 7298 e33a 7f8c d7bc 8a73 49bd d0ed a53c
00000250: 3b9d d9bc edf2 40bd 157d 01bd 7ef7 a83b
00000260: 0483 00bc f8f7 2ebc 28a0 223d 24d6 38bd
00000270: aa4d 83bd 4f8f 8fbd 422c b73c 0f40 8bbd
00000280: bb80 c23c 414e 3fbd 8662 bcbc 20fe 03bd
00000290: a53e 3ebc 8aa4 b0bd d9ab 45bd d04e d23c
000002a0: 78d0 f7bc b23f 3cbd e756 dbbd 5796 d6bd
000002b0: 8e0c 92bd 4be5 c53c 6efe e2bc 81bf 10bc
000002c0: 785d 9f3c e0bd 0fbd 9573 82bb ac29 42bd
000002d0: 8d5f 39be 1ca7 f5bd bfc0 423c c25b 39bd
000002e0: e6b5 09bd 9258 803c f1b5 35bd cb38 383c
000002f0: b723 1dbc 135a 3e3c fc8f c5bc 3336 bcbc
00000300: 5488 afbd ed3c ce3c b68c 633c 55d5 22bd
00000310: e6e9 2bbd 53ed 2f3c 29f2 213d b279 de3b
00000320: 9266 0fbc 1845 7cbd 3f4c b13b dc7b 6cbd
00000330: 7c3f 72bd 2807 44bc 0d4d 04bc 83b9 a63b
00000340: e310 afb9 9e87 c6bc a9b0 75bc b3be bb3c
00000350: a259 07bc af32 2f3c f53b 90bd c21d 20bd
00000360: 9df1 ac3c bb96 86bd b490 0fbc db9e 30bd
00000370: 6177 08bc 94fa 3fbd d344 b1bc 26ca b9bc
00000380: f866 0fbd a75c 8abc 1171 aa3c 5fa8 65bd
00000390: 5e78 5dbc f5fc 063d fe85 b7bc df5d f0bc
000003a0: 74eb b3bb 8db0 03be 0892 44bd a1e8 7a3b
000003b0: 5a2d d9bc ae17 153c 46b8 dbbc a3ea 11bd
000003c0: bbbf 203d cedf e2bc 3a15 753c 5897 c3bc
000003d0: 4afc 093c 1855 1cbd 3850 d73c 03c1 3dbc
000003e0: 5722 82bd 1810 adbb 76bc 22bc ad54 193c
000003f0: e260 abbd fced 83bb 20ee 82bb bf21 a1bb

head.6.weight f4 [128, 256]
0.059249733 0.061550774 -0.01255013 -0.015925797 -0.014089296 0.020021811 0.0150548015 -6.8240042e-06
0.06600826 0.062015697 0.015943471 0.06737512 -0.04164989 -0.03015928 -0.030672772 -0.05016049
-0.01704006 0.045016903 0.045837987 -0.029667133 -0.039235942 -0.02284544 0.014491878 -0.027000023
-0.024968034 0.050503604 -0.01737777 0.055933855 -0.08968566 0.0027587193 -0.025982128 0.040938817
0.0071528023 -0.03831505 -0.052209694 0.052992057 0.056679145 0.0403942 -0.03427834 -0.028089419
-0.017433902 -0.04989318 -0.03888091 0.06575315 0.03592386 0.03830081 -0.004276315 0.017563812
0.02972136 -0.047815148 -0.03358193 0.007958848 0.0076850904 -0.018180631 0.010594206 -0.013164528
0.0123736635 0.07192442 -0.02766232 -0.009792506 -0.034954134 -0.024290672 -0.03575691 0.03081623
-0.04774495 -0.039919 -0.037951488 0.049406078 0.06585308 0.034688644 -0.026618568 -0.0121282395
-0.020832606 -0.032518305 -0.023804456 -0.027881825 -0.031604946 -0.044821672 0.028131058 -0.02118277
-0.05138883 0.042532355 0.006926971 -0.032048028 0.024176858 0.07305463 0.041377448 0.011541964
-0.00034081383 -0.0211288 0.08873317 0.0066244137 -0.025791008 -0.007458215 -0.0137914065 -0.048480317
-0.052492425 0.03365692 0.0385378 -0.019079251 0.011792101 0.025159271 0.037293337 0.05192844
0.059491016 0.009181765 -0.005545442 0.051383145 -0.09348878 -0.015718428 -0.008908132 0.0045909937
0.016688759 -0.025161274 -0.07345602 -0.038660392 -0.0395535 -0.053350314 0.018860448 -0.04279084
-0.022707583 0.038972445 -0.006100544 0.017595015 0.043105315 0.0062746485 -0.047406677 -0.017821996
0.020201862 -0.034374762 0.054011118 0.06674934 -0.02156669 -0.020786505 0.03941124 -0.05025787
-0.025449753 0.016953764 -0.06339265 -0.009673954 -0.048396915 0.028411467 0.0039383317 -0.0030056182
-0.03497838 -0.012860883 -0.021667259 0.028284367 -0.0037041474 0.026401429 0.035225905 -0.016689528
0.010921658 0.0001222725 -0.07097723 0.024643406 -0.0025714536 -0.035609305 0.026019944 -0.0216542
0.0031794054 -0.04738825 -0.05402808 0.0032217067 0.023041364 0.06030318 -0.06123274 0.043790054
0.007757711 0.018438188 0.043827035 0.023932498 0.053079814 0.0030352303 -0.005012733 0.058353305
-0.045121815 -0.06466508 0.037827745 0.017588109 -0.059812147 0.053635817 0.021506077 0.0068990258
0.05317445 0.017861325 0.05114699 -0.013432984 -0.022425944 0.0012440013 -0.04281303 0.03236158
-0.024002414 -0.030715963 -0.007843438 0.07145413 -0.024319563 -0.028851714 -0.06955696 0.024064183
0.009351901 -0.07185569 -0.025161091 0.041433465 0.03632343 -0.068811126 0.020826563 0.033332657
-0.03447879 -0.0493875 0.0017020714 -0.067158 -0.014712115 -0.029642751 -0.022250503 0.03182661
0.062350985 0.022506652 0.01989877 0.011874995 0.0023718644 -0.045661554 -0.018500555 0.06593122
0.032698773 -0.014793511 -0.05869437 0.0046732216 0.052619472 0.045701027 -0.007152802 -0.0058140955
-0.022055302 -0.049431603 0.016569577 0.02774127 -0.014321524 -0.0171064 0.02044106 0.038153857
-0.06175796 0.010367312 -0.023145318 -0.032372337 0.0035368435 0.018104415 -0.04243474 -0.02151007
0.059180975 -0.047245473 -0.008054772 -0.044577632 -0.005041321 -0.029891768 -0.03504832 -0.049560722
00000000: d9af 723d aa1c 7c3d 0f9f 4dbc d176 82bc
00000010: cad6 66bc c804 a43c 6aa8 763c c0f9 e4b6
00000020: 572f 873d 2c04 7e3d e29b 823c f8fb 893d
00000030: 1399 2abd 9810 f7bc 7745 fbbc 1675 4dbd
00000040: 9997 8bbc a563 383d 9dc0 3b3d 7d08 f3bc
00000050: deb5 20bd 5c26 bbbc 586f 6d3c 272f ddbc
00000060: c389 ccbc dedc 4e3d d35b 8ebc e61a 653d
00000070: 1ead b7bd a1cb 343b 79d8 d4bc 76af 273d
00000080: 0e62 ea3b 3ef0 1cbd d5d9 55bd 330e 593d
00000090: 6428 683d 6374 253d 7267 0cbd c81b e6bc
000000a0: 8bd1 8ebc cb5c 4cbd 9741 1fbd 96a9 863d
000000b0: e624 133d 4fe1 1c3d 5520 8cbb fce1 8f3c
000000c0: 367a f33c d1d9 43bd 358d 09bd d465 023c
000000d0: 36d3 fb3b 8cef 94bc 5293 2d3c 08b0 57bc
000000e0: e8ba 4a3c 1c4d 933d 179c e2bc bf70 20bc
000000f0: 112c 0fbd 3bfd c6bc d675 12bd 5272 fc3c
00000100: 3590 43bd 1b82 23bd 0573 1bbd 075e 4a3d
00000110: fbdd 863d ae15 0e3d 2f0f dabc 86b5 46bc
00000120: 24a9 aabc ea31 05bd 9001 c3bc 6d68 e4bc
00000130: 3074 01bd ee96 37bd 1b73 e63c 7d87 adbc
00000140: 187d 52bd 6836 2e3d a5fb e23b cb44 03bd
00000150: 8c0e c63c aa9d 953d 667b 293d 811a 3d3c
00000160: 42af b2b9 4e16 adbc bcb9 b53d 9c11 d93b
00000170: aa47 d3bc 0b64 f4bb 5af5 61bc 4c93 46bd
00000180: 4c02 57bd d7db 093d d0d9 1d3d 174c 9cbc
00000190: a833 413c d11a ce3c e6c0 183d eab2 543d
000001a0: daac 733d 1d6f 163c 8ab6 b5bb 2277 523d
000001b0: 0c77 bfbd efc3 80bc 6af3 11bc 0c70 963b
000001c0: ddb6 883c 041f cebc 1c70 96bd 5c5a 1ebd
000001d0: da02 22bd dc85 5abd 3a81 9a3c 7345 2fbd
000001e0: 4105 babc 92a1 1f3d 12e7 c7bb 6c23 903c
000001f0: 338f 303d 919b cd3b 812d 42bd 6fff 91bc
00000200: 607e a53c 8dcc 0cbd c33a 5d3d e1b3 883d
00000210: a1ac b0bc 7648 aabc ae6d 213d 32db 4dbd
00000220: 007c d0bc 9fe2 8a3c 01d4 81bd 817f 1ebc
00000230: d83b 46bd 2abf e83c 1f0d 813b e8f9 44bb
00000240: 7d45 0fbd 74b6 52bc 897f b1bc 9eb4 e73c
00000250: 48c1 72bb cf47 d83c 0a49 103d 7ab8 88bc
00000260: c1f0 323c 4636 0039 835c 91bd f8e0 c93c
00000270: d585 28bb 10db 11bd c727 d53c 2664 b1bc
00000280: 925d 503b 2e1a 42bd 8c4c 5dbd 4523 533b
00000290: 3ec1 bc3c 7800 773d 2ecf 7abd 335d 333d
000002a0: 6634 fe3b af0b 973c fa83 333d 160e c43c
000002b0: 386a 593d b7ea 463b da41 a4bb e003 6f3d
000002c0: a7d1 38bd 206f 84bd 44f1 1a3d f014 903c
000002d0: 95fd 74bd 3bb1 5b3d 832d b03c 3911 e23b
000002e0: 74cd 593d ea51 923c 827f 513d 0516 5cbc
000002f0: 9db6 b7bc c20d a33a b75c 2fbd 938d 043d
00000300: b6a0 c4bc 0ba0 fbbc c381 00bc 8b56 923d
00000310: d239 c7bc 6e5a ecbc e173 8ebd 4022 c53c
00000320: b738 193c 1329 93bd a21e cebc 23b6 293d
00000330: e0c7 143d d9ec 8cbd 789c aa3c d387 083d
00000340: a239 0dbd 8c4a 4abd 0a18 df3a 228a 89bd
00000350: 150b 71bc 5bd5 f2bc b046 b6bc 9f5c 023d
00000360: bf63 7f3d df5f b83c bf02 a33c 578f 423c
00000370: 4871 1b3b 9c07 3bbd 7a8e 97bc f306 873d
00000380: 26ef 053d 7b60 72bc 8269 70bd d321 993b
00000390: 8487 573d 0031 3b3d 0d62 eabb 2b84 bebb
000003a0: 52ad b4bc cb78 4abd ecbc 873c a941 e33c
000003b0: d3a4 6abc b922 8cbc 0374 a73c 3847 1c3d
000003c0: eaf5 7cbd a8db 293c 409b bdbc db98 04bd
000003d0: 63ca 673b b64f 943c 0dd0 2dbd e335 b0bc
000003e0: c067 723d 7884 41bd 2af8 03bc 0997 36bd
000003f0: aa31 a5bb 95df f4bc d48e 0fbd 2f00 4bbd

head.6.bias f4 [128]
-0.0424051 -0.047764692 0.001548569 -0.019459244 -0.0028065988 0.03953954 -0.2902772 0.021947052
-0.09680308 -0.040381793 -0.025023295 0.011170642 -0.032597616 -0.07634701 0.021191023 -0.08429777
0.019905258 -0.050349794 -0.025685325 0.041580576 -0.07272312 0.07166176 -0.008760473 0.040695414
-0.11997096 -0.08898321 -0.010394094 -0.028076591 -0.023170298 -0.09393137 -0.07804235 -0.269041
-0.036904927 -0.09213502 -0.0008723116 -0.01270416 -0.0922178 -0.052552275 -0.1985573 0.054771278
-0.05046549 -0.08506251 -0.027425367 0.01997499 0.047489107 0.01636902 -0.17186356 0.044189367
0.0376142 0.049504966 0.015847776 -0.089176424 -0.078635015 -0.07337046 0.051700704 -0.052948587
0.002999345 -0.025883503 -0.0960903 0.0037311183 -0.058430452 -0.1133575 -0.020937854 0.059877675
0.049127147 -0.03269588 0.0743767 0.059325464 -0.09284919 -0.032600664 0.052082606 -0.07929812
-0.08257821 0.043416847 -0.05919077 -0.1314004 0.11359748 -0.114690825 -0.0071144565 -0.07082389
0.046601824 -0.03188637 -0.06287353 -0.064471 -0.044262495 -0.060132146 -0.024672233 -0.10927932
0.06681462 -0.10495144 -0.032924373 0.03782644 -0.2728169 -0.0108936 -0.075118214 -0.0884904
-0.024147844 -0.017822804 -0.019021692 -0.0033462693 0.057586826 0.005378031 -0.090060286 -0.124741904
0.053879425 -0.1181247 0.079619735 -0.039641123 -0.054324597 -0.048238087 0.047269072 -0.022545258
-0.11669611 -0.081877075 -0.037009668 0.011636351 -0.10254708 -0.008888896 0.01131081 -0.08166527
-0.1082203 0.057078212 -0.00972773 -0.10468283 0.055423614 0.029700724 -0.08851945 0.06690802
00000000: f8b0 2dbd e9a4 43bd 5af9 ca3a fe68 9fbc
00000010: eaee 37bb 36f4 213d 379f 94be 4eca b33c
00000020: b140 c6bd 6167 25bd a7fd ccbc 1205 373c
00000030: 1485 05bd d25b 9cbd cc98 ad3c 4fa4 acbd
00000040: 5a10 a33c 963b 4ebd 086a d2bc 6550 2a3d
00000050: dcef 94bd 67c3 923d 1688 0fbc 3cb0 263d
00000060: 56b3 f5bd d43c b6bd fd4b 2abc e100 e6bc
00000070: a3cf bdbc 175f c0bd abd4 9fbd bebf 89be
00000080: 9f29 17bd 49b1 bcbd d7ab 64ba 1c25 50bc
00000090: b0dc bcbd 0e41 57bd 9b52 4bbe d957 603d
000000a0: e7b4 4ebd 4135 aebd 2aab e0bc 97a2 a33c
000000b0: f083 423d 5318 863c 00fd 2fbe e9ff 343d
000000c0: 5911 1a3d b8c5 4a3d 32d3 813c 21a2 b6bd
000000d0: 650b a1bd 4043 96bd 1ec4 533d 9ee0 58bd
000000e0: a990 443b a409 d4bc feca c4bd c785 743b
000000f0: c554 6fbd fa27 e8bd dd85 abbc 4b42 753d
00000100: 8c39 493d 1dec 05bd d052 983d 42ff 723d
00000110: b727 bebd 4688 05bd 9254 553d 0e67 a2bd
00000120: c41e a9bd ddd5 313d 0572 72bd d48d 06be
00000130: cca5 e83d 06e3 eabd 6320 e9bb 1e0c 91bd
00000140: 8ee1 3e3d 489b 02bd d6c3 80bd 5f09 84bd
00000150: 974c 35bd 204d 76bd 6c1d cabc d6cd dfbd
00000160: 1ad6 883d c8f0 d6bd b5db 06bd e6ef 1a3d
00000170: a8ae 8bbe 127b 32bc 94d7 99bd 743a b5bd
00000180: b3d1 c5bc 2101 92bc 61d3 9bbc 154d 5bbb
00000190: 2ae0 6b3d 323a b03b 8771 b8bd af78 ffbd
000001a0: acb0 5c3d 5deb f1bd ac0f a33d bb5e 22bd
000001b0: 7883 5ebd 4d95 45bd 379d 413d d5b0 b8bc
000001c0: 5ffe eebd 2baf a7bd 7397 17bd 65a6 3e3c
000001d0: 3404 d2bd bba2 11bc fa50 393c 1f40 a7bd
000001e0: 9ba2 ddbd d8ca 693d 0f61 1fbc f463 d6bd
000001f0: df03 633d ef4e f33c af49 b5bd 1207 893d

head.9.weight f4 [7, 128]
0.01001448 0.009819519 0.011824833 0.008132999 0.011271108 0.008952592 -0.004834656 0.00096497533
-0.01132961 -0.0023565216 0.010865333 0.0010851481 -0.00063603336 -0.01266202 0.011120083 -0.011753137
-0.0030519203 -0.011876383 0.0011810462 0.0043433663 -0.0093702655 0.0032567512 0.008716825 0.006079145
-0.006821693 -0.009964587 0.006206501 -0.00032708957 -0.0063069714 -0.010104138 -0.0011604433 -0.006376778
0.009272581 -0.008144951 -0.011782911 -0.010924976 -0.012469315 -0.011180779 0.0013339312 0.009581452
-0.011146272 -0.0029303988 -0.010498421 0.008901103 0.010813317 -0.00039966006 -0.0055380072 0.004718243
-0.008029825 0.008756927 0.0015818332 -0.008091589 -0.010778649 -0.013471327 0.01065072 3.618232e-05
0.011183956 -0.010242006 -0.00061333244 -0.0065165963 0.0014480618 -0.0013156408 0.00034739234 0.0029142606
0.0010260617 -0.012218396 0.010203137 0.011004963 0.0032435872 -0.0050483956 0.010484661 -0.0029837808
-0.0125696175 0.0015477921 -0.009710489 0.0031637442 -0.0019773655 0.0021415944 -0.0012707405 -0.01001816
0.009990038 0.01077375 -0.010297653 -0.009651705 -0.009462812 0.0069225463 -0.01022624 -0.011892885
0.010363426 -0.012415087 0.00798186 0.010541399 -0.0054069543 0.01238221 -0.009264491 -0.01019629
0.0020486857 -0.013484694 0.007471988 0.0011958226 -0.00068030437 -0.0011433079 -0.008674225 -0.008164428
0.010785115 -0.00646338 0.010964373 0.0066005886 -0.0042994055 0.0002416287 0.0021986351 0.010311121
-0.00070267834 -0.010467036 -0.011797688 0.010177726 -0.011340095 0.0033669407 0.0011369863 -0.010504451
-0.011652592 -0.00014975488 0.008762721 -0.014253323 -0.0056335083 0.012098121 -0.012313783 0.0016712917
-0.004993803 0.0006759831 0.007127245 0.02543242 -0.003128457 0.018587476 -0.0086571155 -0.03684267
-0.0082454765 0.0050776047 0.0064530973 0.0239216 0.101606034 -0.0018914322 0.011131359 -0.006913985
-0.005288959 0.011588129 0.0023542591 -0.061166894 -0.0015830572 -0.031049779 0.018724697 -0.10173465
-0.022581192 0.012216035 0.03142096 0.0060876994 0.006095604 -0.00016785726 0.11033655 0.0015479611
0.013211711 -0.014307316 -0.007272119 0.011290638 -0.0013916239 0.0021491796 -0.004760587 -0.00033321188
0.002157932 -0.020764804 0.010922543 0.064962536 0.020162556 -0.03006063 -0.010182309 -0.01657563
0.024384119 0.028799571 0.031833597 -0.0073949825 0.0044467268 -0.0031048548 0.015286435 0.12170149
0.010523505 0.00420652 0.013990578 0.00732325 -0.058347136 0.022915887 0.12855685 0.104756705
-0.081000976 -0.010255093 -0.0024158726 0.014915084 -0.010272629 -0.033102624 0.013650126 -0.062404927
-0.009587833 -0.14575261 0.011870035 -0.0046861246 0.044176746 -0.00012338476 -0.07692351 -0.010059853
0.006821151 0.017339638 -0.005532327 -0.025892463 -0.012729025 0.008385546 0.0022702066 -0.0034156032
0.03693362 0.0055322293 0.021348922 0.028997803 -0.012958082 0.021486957 -0.012655799 0.0033562786
0.0077153766 -0.0024899193 0.035750367 0.07181053 -0.046416555 -0.04165697 0.006045222 0.01999678
0.0048669847 -0.005934637 0.012982317 0.078687064 0.0012621962 -0.025365321 0.060863364 0.033426326
0.06949909 -0.0017827803 -0.00074343215 0.023549322 0.0071398467 -0.13263658 -0.04077357 0.006480318
0.00027226697 -0.08895883 -0.016744547 0.009090842 -0.04503516 0.025028532 0.007619169 -0.012434773
00000000: c613 243c 0ce2 203c f2bc 413c 4540 053c
00000010: 74aa 383c e4ad 123c 096c 9ebb 66f6 7c3a
00000020: d49f 39bc df6f 1abb 8204 323c 873b 8e3a
00000030: 7abb 26ba 5c74 4fbc 0231 363c 3b90 40bc
00000040: ba02 48bb 2995 42bc 56cd 9a3a cc52 8e3b
00000050: be85 19bc 386f 553b 04d1 0e3c 9033 c73b
00000060: 8288 dfbb 8242 23bc e75f cb3b 387d abb9
00000070: b6aa cebb d48b 25bc 041a 98ba 4af4 d0bb
00000080: 06ec 173c 6772 05bc 1c0d 41bc acfe 32bc
00000090: 194c 4cbc 962f 37bc 4ed7 ae3a 86fb 1c3c
000000a0: da9e 36bc ef0b 40bb 9201 2cbc efd5 113c
000000b0: 572a 313c 7789 d1b9 2c78 b5bb 7e9b 9a3b
000000c0: 878f 03bc 3779 0f3c 8455 cf3a 9692 04bc
000000d0: ee98 30bc d7b6 5cbc 5c80 2e3c 78c2 1738
000000e0: e93c 373c 16ce 27bc 0bc8 20ba 2c89 d5bb
000000f0: e4cc bd3a 9471 acba 3622 b639 2efd 3e3b
00000100: eb7c 863a ab2f 48bc 0f2b 273c 294e 343c
00000110: 5d92 543b 036d a5bb dbc7 2b3c 898b 43bb
00000120: ccf0 4dbc 49df ca3a be18 1fbc d256 4f3b
00000130: b096 01bb fe59 0c3b fa8e a6ba 3523 24bc
00000140: 42ad 233c 6284 303c 7db7 28bc 2f22 1ebc
00000150: e909 1bbc 87d6 e23b f68b 27bc 60da 42bc
00000160: 5ccb 293c a668 4bbc 59c6 023c d5b5 2c3c
00000170: d22c b1bb c1de 4a3c 17ca 17bc 570e 27bc
00000180: 3e43 063b e8ee 5cbc 94d7 f43b 26bd 9c3a
00000190: 7456 32ba 0cdb 95ba 561e 0ebc 18c4 05bc
000001a0: 0db4 303c c3ca d3bb eaa3 333c c049 d83b
000001b0: 07e2 8cbb b65d 7d39 fa16 103b faef 283c
000001c0: f233 38ba ee7d 2bbc 174b 41bc 7ac0 263c
000001d0: cecb 39bc e4a7 5c3b ee06 953a dc1a 2cbc
000001e0: 83ea 3ebc 8507 1db9 8491 0f3c c586 69bc
000001f0: 4b99 b8bb 3337 463c c0bf 49bc 3e0f db3a
00000200: 0ea3 a3bb 7534 313a aa8b e93b a757 d03c
00000210: cd06 4dbb c344 983c 93d6 0dbc 57e8 16bd
00000220: 0918 07bc 0962 a63b 8174 d33b 3bf7 c33c
00000230: d316 d03d efe9 f7ba 4e60 363c b68e e2bb
00000240: 014f adbb 23dc 3d3c ea49 1a3b 238a 7abd
00000250: 967e cfba 1b5c febc 8964 993c 425a d0bd
00000260: 31fc b8bc c425 483c 44b3 003d 537b c73b
00000270: a2bd c73b d702 30b9 21f8 e13d f5e4 ca3a
00000280: ef75 583c 3c69 6abc f54a eebb 5efc 383c
00000290: 2667 b6ba 40d9 0c3b b3fe 9bbb f1b2 aeb9
000002a0: 176c 0d3b f31a aabc 77f4 323c 140b 853d
000002b0: f22b a53c b641 f6bc b3d3 26bc 9ec9 87bc
000002c0: 34c1 c73c 14ed eb3c f263 023d 9c51 f2bb
000002d0: d9b5 913b d27a 4bbb f573 7a3c a13e f93d
000002e0: c76a 2c3c d9d6 893b bd38 653c e0f7 ef3b
000002f0: 68fd 6ebd 19ba bb3c 68a4 033e af8a d63d
00000300: d7e3 a5bd fa04 28bc 9e53 1ebb 655e 743c
00000310: 874e 28bc 9e96 07bd c7a4 5f3c 4f9c 7fbd
00000320: 4916 1dbc 2c40 15be 897a 423c 108e 99bb
00000330: adf2 343d d860 01b9 138a 9dbd 15d2 24bc
00000340: f683 df3b db0b 8e3c 8648 b5bb 6e1c d4bc
00000350: 678d 50bc 8763 093c bfc7 143b 50d8 5fbb
00000360: b547 173d b447 b53b efe3 ae3c cd8c ed3c
00000370: 234e 54bc 6a05 b03c 455a 4fbc 03f5 5b3b
00000380: 45d1 fc3b ea2d 23bb fa6e 123d 6611 933d
00000390: 491f 3ebd 80a0 2abd ff16 c63b 4ad0 a33c
000003a0: 3a7b 9f3b 5877 c2bb c9b3 543c af26 a13d
000003b0: 4770 a53a efca cfbc dd4b 793d 0bea 083d
000003c0: 8a55 8e3d 2eac e9ba e3e2 42ba 82ea c03c
000003d0: 60f5 e93b e2d1 07be 3002 27bd d958 d43b
000003e0: 0ebf 8e39 0c30 b6bd dc2b 89bc c1f1 143c
000003f0: ca76 38bd a308 cd3c 39aa f93b 38bb 4bbc

head.9.bias f4 [7]
0.27648917 -0.12623055 -0.05631281 -0.60678566 -0.085899845 0.711769 -0.68379176
00000000: fd8f 8d3e 9542 01be 43a8 66bd 4e56 1bbf
00000010: 42ec afbd 7e36 363f fa0c 2fbf
