script/tabpfn_step9_causal_final.pth (torch, 685001 bytes, 8 tensors)

net.0.weight f4 [512, 9]
0	0xbd75f1d3	-0.060045075
1	0x3e7d52f4	0.24738675
2	0xba88359c	-0.0010391953
3	0xbd84950b	-0.0647374
4	0x3c1ede66	0.009696579
5	0xbe9ae83f	-0.30255315
6	0xbdd43e45	-0.103634395
7	0x3e790bb7	0.24320875
8	0xbe7c374c	-0.24630469
9	0x3e8c32ca	0.273825
10	0xbdd66cc9	-0.10469968
11	0xbe05b17c	-0.13055986
12	0x3e92bf13	0.28661403
13	0x3ea10430	0.31448507
14	0x3d91f1ef	0.07126223
15	0x3e857358	0.26064563
16	0x3e77aa1a	0.24185982
17	0xbe0ed3c7	-0.13947974
18	0x3e9c85cd	0.30570832
19	0x3e81d438	0.25357223
20	0xbddf9749	-0.10917527
21	0x3ebab752	0.36467987
22	0xbd332170	-0.04373306
23	0xbccbdba8	-0.024885014
24	0x3d14503e	0.036209337
25	0x3e7f807b	0.24951355
26	0xbe16ea6a	-0.1473786
27	0xbdb20569	-0.08692438
28	0x3e88debf	0.26732442
29	0x3d967a2a	0.0734752
30	0x3d937880	0.07200718
31	0x3d8769ac	0.06611952
32	0xbeaca8ab	-0.33722433
33	0xbea1d3c1	-0.31606868
34	0x3e2d47ad	0.16921873
35	0xbd540a26	-0.05176749
36	0x3d7ec1fd	0.06219672
37	0x3e0e23e3	0.13880877
38	0xbdd944f9	-0.106088586
39	0x3e9a0459	0.30081442
40	0xbe440954	-0.19144183
41	0xbdcd4822	-0.10023524
42	0xbe463ffe	-0.19360349
43	0x3da393b5	0.07987157
44	0x3e57897e	0.21048543
45	0x3dcd8031	0.10034216
46	0xbda9120e	-0.08255397
47	0x3d850d15	0.06496636
48	0x3dd95529	0.10611946
49	0xbcc90ec8	-0.024543181
50	0x3e02cfb7	0.1277455
51	0x3e26427a	0.16236296
52	0xbe59ca29	-0.21268524
53	0xbe900f20	-0.2813654
54	0xbc5f1c3b	-0.0136175705
55	0xbe297397	-0.16548
56	0x3d80204a	0.06256159
57	0x3e799b54	0.24375659
58	0x3e9743d9	0.2954395
59	0x3e8743cd	0.26418915
60	0xbea324e8	-0.31864095
61	0xbe207be7	-0.15672265
62	0x3e971a74	0.2951237
63	0x3d340af7	0.04395577
64	0xbd26a56a	-0.040685095
65	0x3d26697a	0.040627934
66	0xbe62ba36	-0.22141346
67	0x3dcb731b	0.09934064
68	0xbb48682a	-0.0030579665
69	0xbe7e5da2	-0.24840406
70	0xbe3f57e1	-0.18685867
71	0xbe0c3e65	-0.13695677
72	0xbcb22e4a	-0.021750588
73	0x3d900817	0.07032793
74	0x3e716c69	0.23576511
75	0x3c82f4b5	0.015985826
76	0xbe14b40b	-0.14521806
77	0x3e23b972	0.1598871
78	0xbae37e83	-0.0017356429
79	0xbe8d3d21	-0.275857
80	0xbe51d054	-0.20489627
81	0xbd9c81ba	-0.07641931
82	0xbe8e403f	-0.2778339
83	0x3baa2e16	0.005193482
84	0xbdfdf1e6	-0.12399654
85	0x3e33527f	0.17511939
86	0x3e148103	0.14502339
87	0xbeb9d825	-0.36297718
88	0x3ddf800a	0.109130934
89	0xbec8d68a	-0.3922618
90	0x3da11ff6	0.07867424
91	0xbe27ce1d	-0.1638722
92	0x3e4b677b	0.19863693
93	0x3e09b294	0.13447028
94	0x3d303385	0.043017883
95	0x3dffc34f	0.12488424
96	0x3db64fad	0.08901916
97	0x3e707001	0.23480226
98	0xbe6aec44	-0.2294169
99	0xbe724809	-0.23660292
100	0xbe990efc	-0.29894245
101	0x3de67754	0.11253229
102	0x3de46c48	0.111534655
103	0x3e938cd2	0.28818375
104	0x3e3271c9	0.17426218
105	0x3e85df2e	0.26146835
106	0x3d04f08f	0.032455977
107	0xbe07fcf9	-0.13280095
108	0xbdeea20e	-0.11652003
109	0xbe8a1e15	-0.26976076
110	0x3e82893d	0.2549533
111	0xbcaa8b99	-0.020818518
112	0x3d9d10f8	0.07669252
113	0x3ea5568f	0.322926
114	0xbc456bdd	-0.012049642
115	0xbe9481c3	-0.2900525
116	0x3da3ad3b	0.079920255
117	0xbd3b75cd	-0.04576664
118	0xbea7cf44	-0.3277532
119	0x3e920582	0.28519827
120	0x3e3c852b	0.18410175
121	0x3e205682	0.15658
122	0x3eb85791	0.36004308
123	0x3df17eb3	0.11791744
124	0xbed667d5	-0.41876093
125	0x3d0052a4	0.031328812
126	0x3e0c10ea	0.13678327
127	0x3e8e8694	0.2783705
128	0x3e5bcfa6	0.2146593
129	0xbdf5fb85	-0.12010864
130	0x3d296773	0.041358422
131	0x3deae314	0.11469093
132	0x3ec19539	0.3780916
133	0x3d97801e	0.07397483
134	0x3d19f0d5	0.03758319
135	0xbe509184	-0.2036801
136	0xbd9b9d08	-0.07598311
137	0x3d08fb3d	0.033442724
138	0xbdc5a006	-0.09649663
139	0x3bdfb3b5	0.0068268427
140	0x3e1c3272	0.15253618
141	0xbd7af33b	-0.06126712
142	0xbd35715e	-0.04429757
143	0xbe1690b0	-0.14703631
144	0xbda16c11	-0.0788194
145	0x3da922a1	0.08258558
146	0xbe355004	-0.17706305
147	0x3e805522	0.2506495
148	0xbdb9bed8	-0.09069604
149	0xbeab6d11	-0.3348165
150	0xbc4e3314	-0.01258542
151	0xbea2829d	-0.31740275
152	0x3e89c179	0.2690542
153	0x3e81385c	0.2523831
154	0x3e427f5f	0.189939
155	0x3dced7f9	0.10099787
156	0x3e96fe72	0.29491
157	0x3ce6f2fc	0.028192036
158	0xbd78ed7b	-0.060773354
159	0x3e494b63	0.19657664
160	0x3e7f0d50	0.24907422
161	0xbe637553	-0.22212724
162	0x3dce7ce3	0.10082414
163	0xbd80e6d1	-0.06294025
164	0x3e6464d1	0.22304083
165	0x3d1a9186	0.03773644
166	0xbe405d0c	-0.18785495
167	0x3cc191dc	0.023629121
168	0x3c919933	0.017773246
169	0x3cb70526	0.022341322
170	0x3e55361d	0.20821424
171	0x3e0b15f5	0.13582595
172	0x3d545eb7	0.05184814
173	0xbceb430c	-0.028718494
174	0x3da3dd61	0.08001209
175	0x3cc9d5d8	0.024638101
176	0x3d5c9a58	0.05385813
177	0x3d8442ab	0.064580284
178	0x3e966e41	0.29380992
179	0x3ea9a92b	0.33136877
180	0xbd86f19a	-0.065890506
181	0x3c9dfe6f	0.019286362
182	0xbbd9c312	-0.0066455686
183	0x3e7ae898	0.2450279
184	0xbe8a4608	-0.27006555
185	0x3e4c5ede	0.19958064
186	0x3e306aef	0.17228292
187	0xbe3e9b4e	-0.18613932
188	0xbec2c96e	-0.38044304
189	0x39c34dcc	0.00037251262
190	0x3e480f25	0.19537027
191	0x3d86afb3	0.06576481
192	0x3e452012	0.19250515
193	0x3c0c44e4	0.008561347
194	0x3e88a7d5	0.26690546
195	0xbc8c0464	-0.017091937
196	0x3d6cb741	0.057791952
197	0xbeb7a406	-0.35867327
198	0x3d941ce4	0.07232073
199	0x3da4432d	0.08020625
200	0x3e562fb0	0.20916629
201	0x3da0297f	0.07820415
202	0xbd00c271	-0.031435434
203	0x3e945cba	0.28976995
204	0xbe95b24b	-0.2923759
205	0x3db62971	0.08894623
206	0xbe990f1a	-0.29894334
207	0x3dbf9ca5	0.093560494
208	0xbe4daecc	-0.20086211
209	0x3da0b384	0.0784674
210	0xbe74d161	-0.23907997
211	0xbdbdea1c	-0.092731684
212	0xbda1ed94	-0.079066426
213	0xbdab5333	-0.08365478
214	0xbe6a295c	-0.2286734
215	0x3e6801ab	0.22656886
216	0xbba768f4	-0.005108947
217	0x3c541dbf	0.012946545
218	0xbd57f5e8	-0.05272475
219	0x3e1dea20	0.15421343
220	0x3e844bb3	0.25839004
221	0x3e1fc59d	0.15602727
222	0xbdf9fbe1	-0.12206245
223	0xbdc21f39	-0.094786115
224	0x3eae6565	0.34061733
225	0x3e3fc3b6	0.18727002
226	0x3e9e6ff8	0.309448
227	0x3ea7af16	0.32750767
228	0xbd7d7e8f	-0.061888274
229	0xbdf33892	-0.11876024
230	0x3e84c2d7	0.259299
231	0xbe124269	-0.14283146
232	0xbeacbbe8	-0.3373711
233	0xbe8d28ff	-0.2757034
234	0x3d9f4de1	0.07778526
235	0x3dd8822a	0.10571702
236	0x3d6d5468	0.057941824
237	0x3e778fc0	0.2417593
238	0xbdb4a862	-0.08821179
239	0xbdce6f17	-0.100797825
240	0xbdde4f43	-0.10854962
241	0xbe8340e1	-0.25635436
242	0x3e14c72b	0.14529102
243	0x3da01087	0.07815652
244	0xbe823c9a	-0.2543686
245	0xbda0e1a0	-0.078555346
246	0xbe3a269d	-0.18178792
247	0xbd79f8fb	-0.061028462
248	0x3d80da2b	0.06291612
249	0xbe25080f	-0.16116355
250	0xbea8ee5a	-0.32994348
251	0xbe0d99a3	-0.13828139
252	0x3e9f9739	0.3117006
253	0x3e012889	0.12613119
254	0x3d800324	0.06250599
255	0xbdbaec07	-0.0912705

net.0.bias f4 [512]
0	0xbe0dd2b9	-0.13849916
1	0x3e9fb299	0.31190947
2	0xbe542c57	-0.2072004
3	0x3e6cde07	0.23131572
4	0xbe5f66c5	-0.21816547
5	0x3d343ad5	0.04400142
6	0x3de636f9	0.11240954
7	0x3e8a8e8f	0.2706189
8	0xbdc134af	-0.09433877
9	0xbc8bb5aa	-0.017054398
10	0x3def8643	0.1169553
11	0xbde78f11	-0.113065846
12	0xbdf7f97e	-0.12108134
13	0xbe3fb680	-0.18721962
14	0x3e63049b	0.22169726
15	0xbe02b92d	-0.12765951
16	0xbe31f896	-0.17379984
17	0xbe4e145b	-0.20124952
18	0x3b8aa83e	0.004231482
19	0x3d4e7289	0.050402198
20	0x3e6bc8a2	0.23025754
21	0xbd8de0c1	-0.06927634
22	0x3ae5e003	0.0017538074
23	0x3cdaa012	0.026687656
24	0x3e060867	0.13089143
25	0xbe855d44	-0.2604772
26	0x3ceb2417	0.028703732
27	0x3e066d58	0.13127649
28	0xbe501052	-0.20318726
29	0x3e0ed9a4	0.13950211
30	0x3c4d51c4	0.0125317015
31	0x3cc09c3c	0.023511998
32	0xbd3239f9	-0.04351232
33	0x3e0c983b	0.13729946
34	0x3e8e7092	0.2782026
35	0x3e258a66	0.16166076
36	0x3e0d4199	0.13794555
37	0x3cff4166	0.031159114
38	0x3e05e7e8	0.13076746
39	0x3e2c6d99	0.16838683
40	0xbd3ffffe	-0.046874993
41	0x3dcb9638	0.09940761
42	0x3e63d275	0.22248252
43	0xbd4123b8	-0.047153205
44	0x3e8df54e	0.27726215
45	0x3e067293	0.13129644
46	0xbe2acbc1	-0.16679288
47	0xbd84bab9	-0.06480927
48	0x3e082553	0.13295488
49	0x3e1fd34a	0.15607944
50	0x3e097bfc	0.13426203
51	0x3d2189a4	0.039437905
52	0xbe6be8b7	-0.23037992
53	0x3e318f76	0.17339882
54	0x3dfd7cc8	0.12377316
55	0xbd2139a7	-0.039361622
56	0x3e1fe20c	0.15613574
57	0x3e075806	0.13217172
58	0x3de964c4	0.11396173
59	0x3e09167f	0.13387488
60	0x3e16b94a	0.1471912
61	0xbe57c439	-0.21070947
62	0x3e84521a	0.2584389
63	0x3dd7d2e3	0.1053827
64	0xbe17aa10	-0.14810967
65	0xbe91cb3a	-0.28475362
66	0x3cf10485	0.0294211
67	0xbb4a8c94	-0.0030906545
68	0x3e3d870d	0.18508549
69	0x3df78e24	0.12087658
70	0xbea6300e	-0.32458538
71	0xbe94b0b4	-0.29041064
72	0x3e0a7a28	0.13523161
73	0xbe6603f9	-0.22462453
74	0x3e6367b3	0.22207527
75	0xbe0898b8	-0.13339508
76	0xbe73f702	-0.23824695
77	0x3e832e9e	0.25621504
78	0xbe881d5b	-0.26584896
79	0x3e8298bc	0.25507152
80	0x3e8458f1	0.25849107
81	0xbe8eb91f	-0.2787561
82	0x3dcc1800	0.09965515
83	0x3e0601a8	0.1308657
84	0x3e27b63b	0.16378109
85	0xbe6ef6c6	-0.23336324
86	0xbda2a984	-0.07942489
87	0xbe8c96ef	-0.27458903
88	0xbe2a4624	-0.16628319
89	0xbea0af14	-0.31383574
90	0xbdda42ee	-0.10657297
91	0xbe4ae7cd	-0.19814987
92	0xbbb26f85	-0.005445423
93	0x3cee17e8	0.029064134
94	0xbe35aa97	-0.17740856
95	0x3c4d54c4	0.012532417
96	0x3dab7252	0.08371414
97	0xbdfbc76b	-0.12293895
98	0xbe924142	-0.28565413
99	0xbd8dfda0	-0.06933141
100	0x3e4d4cdb	0.2004885
101	0xbdaf9a35	-0.085743345
102	0xbeaafd80	-0.3339653
103	0xbd35cc0a	-0.04438404
104	0x3e5796e8	0.2105366
105	0xbd71ebc5	-0.059062738
106	0xbdc063d5	-0.093940414
107	0xbea13103	-0.31482705
108	0x3e7870d8	0.24261796
109	0x3e19acec	0.1500737
110	0xbdb673d1	-0.08908809
111	0x3e682676	0.22670922
112	0x3dc0315b	0.09384414
113	0x3e8fdefd	0.28099814
114	0x3df1eee7	0.11813145
115	0x3e35f4bf	0.17769144
116	0x3dc52328	0.09625846
117	0x3e748246	0.2387782
118	0xbe34371d	-0.17599149
119	0x3e7d2a9b	0.24723284
120	0x3d317739	0.04332659
121	0x3e66870e	0.22512457
122	0x3df7bf99	0.12097091
123	0xbe1cb919	-0.15304984
124	0x3d1640a3	0.036682736
125	0x3e0a244f	0.13490413
126	0x3e54966c	0.20760506
127	0x3df8d06d	0.12149129
128	0x3e7123ce	0.23548815
129	0xbe41df5b	-0.1893286
130	0x3e1d4161	0.15356971
131	0xbe6b83a4	-0.22999436
132	0x3e18df5d	0.14928956
133	0xbd1472be	-0.03624224
134	0xbe84df84	-0.2595178
135	0xbd47a034	-0.048736766
136	0x3e5c328b	0.21503656
137	0x3e007ab7	0.12546812
138	0xbe9675f6	-0.29386872
139	0xbe912212	-0.28346306
140	0x3e4f3b58	0.20237482
141	0xbddfc183	-0.10925581
142	0x3e833f66	0.25634307
143	0x3e36930f	0.17829536
144	0xbe02317d	-0.12714191
145	0x3e1dd4d6	0.15413222
146	0x3e824abc	0.25447643
147	0xbdfc5913	-0.12321677
148	0xbe8ea3d1	-0.27859357
149	0x3d217c4b	0.039425176
150	0x3e46ff18	0.19433248
151	0x3e85837b	0.26076874
152	0x3e21a3d5	0.15785153
153	0xbe841805	-0.25799575
154	0x3e3044f0	0.17213798
155	0x3e432b78	0.19059551
156	0x3d1d9207	0.03846934
157	0x3e8cb440	0.2748127
158	0x3d94957f	0.072550766
159	0x3e0e1124	0.13873726
160	0x3d572c50	0.052532494
161	0xbd96040b	-0.0732499
162	0xbea5f24c	-0.3241142
163	0x3e437aed	0.19089861
164	0x3e467216	0.19379458
165	0xbd111c89	-0.035427604
166	0x3e8ea6d7	0.27861664
167	0xbe1a00de	-0.15039393
168	0xbcca51f8	-0.024697289
169	0x3ddb1cb3	0.10698833
170	0x3d882bce	0.0664898
171	0x3e9f047c	0.3105811
172	0x3e8244df	0.2544317
173	0xbe3e7716	-0.18600115
174	0xbdf3c7fb	-0.119033776
175	0x3e096799	0.13418426
176	0x3dae5c83	0.08513739
177	0x3d53833f	0.051638838
178	0xbe67606c	-0.22595376
179	0xbe1456df	-0.14486264
180	0x3e29b239	0.16571893
181	0xbe4ff075	-0.20306571
182	0x3d0555c1	0.032552484
183	0xbe98043f	-0.2969074
184	0x3e702b07	0.23453914
185	0xbc773780	-0.015088916
186	0x3c90ca05	0.017674455
187	0xbe39e4d2	-0.18153694
188	0x3df5e44d	0.120064355
189	0x3e4257ad	0.18978758
190	0xbda25d60	-0.07927966
191	0xbe015513	-0.1263011
192	0x3e430ee1	0.19048645
193	0x3d5b28c8	0.05350569
194	0x3e7154dc	0.23567528
195	0x3c95c3aa	0.018281776
196	0x3cb31dc2	0.021864776
197	0xbac1b620	-0.0014779009
198	0xbe4f193b	-0.20224468
199	0xbdc96598	-0.098338306
200	0xbe08921e	-0.1333699
201	0xbdbc1273	-0.091832064
202	0xbdfb2190	-0.12262261
203	0xbd8f5801	-0.06999207
204	0x3cd780d6	0.026306551
205	0xbdc2e103	-0.09515574
206	0x3e8a24b9	0.26981142
207	0xbe986477	-0.2976415
208	0xbe6d263d	-0.23159118
209	0xbe1f9059	-0.15582408
210	0x3e51781e	0.20455977
211	0x3de4b9e2	0.11168267
212	0x3c3b1bf8	0.0114202425
213	0xbe8f85cc	-0.28031766
214	0x3d027ea2	0.031859048
215	0xbe4d630b	-0.20057313
216	0xbe1fa26b	-0.15589301
217	0xbe8b1d73	-0.27170905
218	0xbd9aa6ff	-0.07551383
219	0xbe62f63e	-0.22164246
220	0xbe69f616	-0.2284778
221	0x3e05d428	0.13069212
222	0x3d94cd26	0.072656915
223	0xbe241576	-0.16023812
224	0xbe6d2571	-0.23158814
225	0x3cd2c1a3	0.025727099
226	0x3e84a2dd	0.25905505
227	0xbda27f87	-0.0793448
228	0xbe1c9427	-0.1529089
229	0xbdee2762	-0.116286054
230	0xbe807792	-0.25091225
231	0xbe899106	-0.26868457
232	0x3e0ae4fa	0.1356391
233	0xbdbe9d63	-0.09307363
234	0xbe39c4f4	-0.18141538
235	0xbe12a3db	-0.14320318
236	0x3e9f587e	0.31122202
237	0x3e3db27d	0.18525119
238	0x3ea3a79e	0.3196382
239	0x3dcc3083	0.099701904
240	0x3dae8aec	0.08522591
241	0xbd5f2232	-0.05447597
242	0x3c14a6eb	0.0090729995
243	0x3df344b5	0.11878339
244	0x3e058979	0.13040723
245	0xba00c2f8	-0.0004911865
246	0x3d251bf4	0.04030986
247	0xbda8682b	-0.082229935
248	0xbd3a5de7	-0.04549971
249	0x3d633bcc	0.05547695
250	0x3e8eed09	0.27915218
251	0x3dcf9152	0.101351395
252	0x3ea71edb	0.32640728
253	0xbb89c351	-0.0042041917
254	0x3e7f0ffa	0.24908438
255	0xbdce6bff	-0.10079192

net.3.weight f4 [256, 512]
0	0x3c368271	0.011139498
1	0x3ca794a9	0.020456629
2	0xbcfe0c6b	-0.03101178
3	0xbb9fae50	-0.0048730746
4	0xbd49ccd7	-0.049267616
5	0x3c48ece7	0.012263513
6	0xbd9b9a42	-0.07597782
7	0x3c80071f	0.015628396
8	0xbcca3183	-0.024681812
9	0x3c94f06f	0.018181054
10	0xbcbdd37a	-0.023172129
11	0xbd7250f0	-0.05915922
12	0xbd56e561	-0.052464847
13	0x3be9265e	0.0071151694
14	0xbd19f014	-0.037582472
15	0xbb9b3267	-0.004736233
16	0x3c517c83	0.012786034
17	0x3b2047c1	0.002445683
18	0x3c95edaf	0.018301813
19	0xbb5d95fe	-0.0033811326
20	0xbc9d2b96	-0.019185822
21	0xbd0fffde	-0.035156123
22	0xbd939306	-0.07205777
23	0x3d42c7dd	0.047553886
24	0xbd9fefbe	-0.07809399
25	0x3d10ec15	0.035381395
26	0x3ccc9ae3	0.0249762
27	0x3d81d242	0.063389316
28	0x3c35d397	0.01109781
29	0x3c06b7e7	0.008222557
30	0xba910bf1	-0.0011066181
31	0x3d67204d	0.05642729
32	0x3d0f4516	0.034977995
33	0xbd339292	-0.043840952
34	0x3be89e7a	0.00709897
35	0x3d8f9612	0.070110455
36	0x3cfeaa22	0.031086985
37	0x3d06d632	0.032919116
38	0xbcbd07a4	-0.023074932
39	0x3d134876	0.035957776
40	0x3bbbe95c	0.0057346057
41	0xbc1dd9e4	-0.009634469
42	0x3ce0393a	0.027371038
43	0xbc810b9f	-0.015752612
44	0xbc123c81	-0.008925558
45	0xbaeb9072	-0.0017972125
46	0x3b9753fa	0.004618165
47	0x3d4a0cfe	0.049328797
48	0xbc69b42d	-0.014264149
49	0xbcdc64e7	-0.026903583
50	0xbcc7ba03	-0.02438069
51	0x3d5d4a18	0.05402574
52	0xbd2cb878	-0.04216811
53	0x3c937749	0.018001216
54	0x3d069893	0.03286035
55	0x3d108626	0.035284184
56	0xbd1660f4	-0.036713555
57	0xbcf0b2f3	-0.029382205
58	0x3d72afb5	0.0592496
59	0x3c80dbe8	0.01572986
60	0xbbfab61c	-0.0076511037
61	0xbc03e902	-0.008051159
62	0x3cfa7e73	0.030577874
63	0x3cb951a6	0.02262194
64	0x3d01bf4d	0.03167658
65	0x3d3c789d	0.046013463
66	0xbcd8cd41	-0.02646506
67	0x3d301337	0.042987075
68	0xbc904ea0	-0.017615616
69	0x3cc5306d	0.024070943
70	0x3b81afce	0.003957725
71	0xbd505512	-0.05086238
72	0x3d33bf21	0.043883447
73	0x3d01239b	0.031528097
74	0x3d02d51c	0.03194152
75	0x3d059e77	0.032621827
76	0x3d10f994	0.035394266
77	0xbc275b2f	-0.010214611
78	0xbbf59324	-0.007494347
79	0xbd3549ea	-0.044259943
80	0xbc7a90e9	-0.015293338
81	0x3d0b7ab0	0.03405255
82	0x3cb53b58	0.022123024
83	0x3d11ffc4	0.035644308
84	0x3c283168	0.010265686
85	0x3c1e89a7	0.009676374
86	0xbc8294a4	-0.015940018
87	0xbc2267d0	-0.009912446
88	0x3c4a65da	0.012353385
89	0x3dd4c69b	0.103894435
90	0xbc16c549	-0.00920231
91	0xbc3526ee	-0.011056645
92	0x3d0ee326	0.034884594
93	0xbcfc6cfd	-0.030813688
94	0xb8f2c75d	-0.000115765935
95	0x3c9655a3	0.018351382
96	0x3c470fdc	0.012149777
97	0xbcdc81e2	-0.026917402
98	0xbc992318	-0.018693492
99	0xbc07fee0	-0.008300513
100	0xbad44942	-0.0016196149
101	0x3ded3145	0.11581663
102	0x3c877056	0.016533058
103	0x3c5c88f5	0.0134603875
104	0x3cddb067	0.027061654
105	0x3cd9a10d	0.026566053
106	0x3d1a733b	0.03770755
107	0xbd3d298b	-0.046182197
108	0xbd2bf7d7	-0.041984405
109	0xbc988044	-0.01861585
110	0xbb0855bf	-0.0020803062
111	0xbbeb3580	-0.0071780086
112	0x3a13d455	0.0005639245
113	0xbc8cde16	-0.017195743
114	0x3c67b301	0.014141799
115	0x3c285b69	0.0102757
116	0x3bcab72f	0.006186388
117	0xbd318ca1	-0.043347005
118	0xbd4b0b66	-0.049571417
119	0xbd95023e	-0.07275818
120	0xbd33091c	-0.04370986
121	0x3c14da10	0.009085193
122	0x3b19abe2	0.0023448397
123	0x3c986bb0	0.018606037
124	0xbc340712	-0.010988014
125	0x3d193dc1	0.03741241
126	0xbd14f35a	-0.03636489
127	0x3ca49f82	0.02009559
128	0xbcbad2d1	-0.022805603
129	0xbd768267	-0.060182955
130	0x3cca600a	0.024703998
131	0x3d965708	0.07340819
132	0xbc263e9d	-0.010146764
133	0x3c5aeebe	0.013362585
134	0xbd2fe3e3	-0.04294194
135	0xbd5b98c5	-0.05361249
136	0xbc8b37c3	-0.016994363
137	0x3d94d4e1	0.07267166
138	0x3d611360	0.054950118
139	0xbd01ebea	-0.031719126
140	0xbca1f68e	-0.019770887
141	0x3ccc8044	0.024963506
142	0xbd8315c1	-0.064006336
143	0x3cc4eb74	0.024038054
144	0x3d03b41c	0.032154188
145	0xbbcfb58c	-0.0063387807
146	0x3c4606ac	0.012086552
147	0x3be84aab	0.0070889792
148	0x3ce9a4ee	0.028521027
149	0xbd8d5193	-0.06900325
150	0xbb7585f3	-0.0037463873
151	0xbcd78c6f	-0.026312081
152	0xbb747c69	-0.00373056
153	0x3d00254a	0.03128556
154	0xbd1b78fc	-0.037957177
155	0xbcf422b0	-0.029801697
156	0xbd7ba910	-0.061440527
157	0x3cb85512	0.022501502
158	0xbb1609a6	-0.0022893935
159	0x3bd0c357	0.0063709426
160	0x3d9258b9	0.07145829
161	0xbb96f7d4	-0.00460718
162	0x3b89b197	0.0042020786
163	0xbd198171	-0.03747696
164	0x3d6cd5cc	0.05782108
165	0xbcb1f42d	-0.021722877
166	0x3cef6f4c	0.029227875
167	0xbb1c0d6d	-0.0023811713
168	0xbc9cffe1	-0.019164981
169	0xbd781fc9	-0.060577188
170	0xbba5560e	-0.005045659
171	0xbc13a995	-0.0090125995
172	0x3c793889	0.015211233
173	0xbca4ce0c	-0.020117782
174	0x3d97c7f8	0.07411188
175	0xbd718595	-0.058965284
176	0x3cc5d009	0.02414705
177	0xbc988419	-0.018617677
178	0xbc774051	-0.015091018
179	0x3d11f4d2	0.03563387
180	0x3cacb927	0.021084381
181	0xbda7443c	-0.081673115
182	0x3cd11b30	0.02552566
183	0x3d86b3e7	0.065772824
184	0x3ab08fc0	0.0013470575
185	0xbd872726	-0.06599264
186	0xbc818f58	-0.015815422
187	0x3d4d37e0	0.050102115
188	0x3d4f9be8	0.050685793
189	0x3ce4bca3	0.02792198
190	0x3cb0a97f	0.021565197
191	0x3c952649	0.018206732
192	0x3d00b3be	0.031421416
193	0x3c675f15	0.01412179
194	0xbc388cb6	-0.011264017
195	0x3d0aef16	0.033919416
196	0x3cba255d	0.022722894
197	0x3d278d29	0.040906105
198	0x3bb89b6e	0.005633763
199	0x3c8eddd3	0.017439758
200	0x3caf66d8	0.021411344
201	0xbd8d6bb1	-0.06905306
202	0x3c5071c4	0.012722436
203	0x3bce2d54	0.0062920246
204	0x3c530e06	0.012881761
205	0x3cb34472	0.021883223
206	0xbcf89572	-0.030344699
207	0xbcf2aeef	-0.02962443
208	0x3d1acdb9	0.03779385
209	0x3d811247	0.06302314
210	0xbd580ba2	-0.05274547
211	0x3d473bcd	0.048641015
212	0x3cfd166f	0.030894486
213	0xbbf2670a	-0.007397537
214	0xbd42b15c	-0.047532424
215	0x3d3744b7	0.044743266
216	0x3d338827	0.043831017
217	0x3d5e64d2	0.05429537
218	0xbcbed736	-0.02329598
219	0x3d100c25	0.035167832
220	0x3d58e71c	0.052954778
221	0xbba4a51e	-0.0050245663
222	0x3cc921a8	0.024552181
223	0x3c1e772a	0.009671966
224	0xbbc15e4d	-0.005901134
225	0x3d97c00c	0.07409677
226	0xbcdcdbe9	-0.02696033
227	0x3b9ff3a8	0.004881341
228	0xbd13ed0a	-0.03611473
229	0xbaff2f5e	-0.0019469073
230	0xbcdba950	-0.026814133
231	0x3c26d412	0.010182397
232	0x3bbfc88b	0.005852764
233	0xbd36c3bf	-0.04462027
234	0xbd27eb43	-0.040995847
235	0x3d1079d6	0.03527244
236	0xbc9ccb89	-0.019140022
237	0xbe12f9b1	-0.14353062
238	0x3c8c20af	0.017105429
239	0xbc2bad7e	-0.0104783755
240	0xbb9975e9	-0.0046832454
241	0x3c07457b	0.0082563115
242	0x3d13211b	0.035920244
243	0xbc1f51f2	-0.009724127
244	0x3bfd1873	0.007723862
245	0xbd051e0c	-0.032499358
246	0xbc6a3f5f	-0.014297335
247	0xbc35b7a3	-0.011091146
248	0x3c43ca7f	0.011950134
249	0xbd3738b6	-0.04473182
250	0xbd824992	-0.06361689
251	0x3da94f19	0.0826704
252	0xbd330977	-0.0437102
253	0x3d9ae599	0.075633235
254	0xbc56bb96	-0.013106247
255	0xbc118c1e	-0.008883504

net.3.bias f4 [256]
0	0xbd43f20d	-0.04783826
1	0xbce2d167	-0.027687741
2	0x3c877612	0.016535792
3	0x3d16a474	0.03677793
4	0xbd128624	-0.035772458
5	0xbadb3444	-0.001672395
6	0xbc22d01c	-0.009937312
7	0x3cb6be3c	0.022307508
8	0x3cc95a61	0.024579229
9	0xbc765dc0	-0.015037
10	0xbcf7cf7a	-0.0302503
11	0xbb37c8cd	-0.002804327
12	0xbda3ac06	-0.07991795
13	0x3d2db8e7	0.042412665
14	0xbd6f1b59	-0.05837569
15	0xb8ff7928	-0.00012181915
16	0x3c2461f5	0.01003312
17	0x3ba482f8	0.0050204955
18	0x3c14cc18	0.009081863
19	0xbc10a47e	-0.0088282805
20	0xbb898421	-0.004196659
21	0x3c1b069e	0.009462027
22	0x3d11b246	0.035570405
23	0xbd19c4d5	-0.03754123
24	0xba21388a	-0.00061500876
25	0x3bd40eb1	0.006471478
26	0xbd43a80b	-0.04776768
27	0xbc6085c4	-0.013703767
28	0x3b782255	0.003786226
29	0x3b3e5ef9	0.0029048307
30	0xbd4a7516	-0.049428068
31	0xbbc7c7ab	-0.0060968003
32	0x3c24a25e	0.010048477
33	0xbc4d64f5	-0.012536277
34	0xba23b095	-0.00062442693
35	0xbcdf6b0b	-0.027272722
36	0xbd12e952	-0.035867043
37	0xbd758a33	-0.05994625
38	0x3d0a8281	0.033815864
39	0x3d0aaac0	0.033854246
40	0xbc88ad65	-0.016684243
41	0xbd0ba18b	-0.034089606
42	0xbc5f90d5	-0.0136453705
43	0x3cbedee9	0.023299651
44	0x3ce08866	0.02740879
45	0xbd237d51	-0.039914433
46	0xbe04fd8d	-0.12987347
47	0xbd631732	-0.055442043
48	0xbc298c57	-0.010348401
49	0xbcccd520	-0.02500397
50	0x3d5b4d55	0.053540546
51	0x3a1d7d56	0.0006007751
52	0x3cf5ebfc	0.030019753
53	0x3cf06146	0.029343259
54	0xbd82c642	-0.06385471
55	0x3bdc832a	0.006729503
56	0x3cc19a93	0.023633277
57	0x3cf3e5a7	0.029772593
58	0xbd5c6f31	-0.053816978
59	0x3cbf7557	0.023371382
60	0xbd1e9f5f	-0.038726207
61	0xbafea35e	-0.0019427349
62	0xbd0ef888	-0.034904987
63	0xbd2f29bd	-0.042764414
64	0xbd30c37f	-0.04315519
65	0x3b8888ad	0.0041666836
66	0xbd9f7506	-0.07785992
67	0xbb9a2396	-0.004703949
68	0x3a8db97a	0.0010812723
69	0xbd81199a	-0.06303711
70	0x3d20161d	0.03908359
71	0xbc26d774	-0.010183204
72	0xbb729bbc	-0.0037019094
73	0x3c5171e4	0.012783501
74	0xbda82a1f	-0.08211159
75	0xbd46bda6	-0.048520707
76	0xbd68175c	-0.056662902
77	0xbcc61519	-0.024179982
78	0xbd38f790	-0.04515797
79	0x3b832603	0.004002334
80	0x3d21e069	0.039520655
81	0x3c695c96	0.014243266
82	0xbcc8e268	-0.024522021
83	0xbc8f65f4	-0.01750467
84	0xbd0f7b0a	-0.03502945
85	0xbc7ba8ba	-0.015360052
86	0x3c168d52	0.009188967
87	0xbc92531b	-0.017861893
88	0x3bac8a3b	0.005265502
89	0xbd3c5b2e	-0.045985393
90	0xbb17042c	-0.0023043258
91	0xbcad024b	-0.021119257
92	0x3d178495	0.036991674
93	0xbc61b16c	-0.013775211
94	0x3c4c2f21	0.012462408
95	0xbb1ee3d6	-0.0024244688
96	0x3c3d684f	0.011560514
97	0xbc8d85a1	-0.017275633
98	0x3c3df59d	0.011594203
99	0xbc957d12	-0.018248115
100	0x3cc11cb5	0.023573259
101	0x3af65886	0.0018794693
102	0xbd64943c	-0.05580543
103	0x3d1bf20d	0.038072634
104	0xbacce9e4	-0.001563367
105	0xbd6ac985	-0.05732109
106	0xbc53b89d	-0.012922433
107	0xbc1fa1a1	-0.009743125
108	0x3c92e831	0.017932983
109	0xbc2954c7	-0.010335154
110	0x3ca5e49e	0.020250615
111	0xbc926fd2	-0.017875586
112	0x3cb83e42	0.022490624
113	0x3bba74ca	0.005690192
114	0x3cc33eaa	0.023833591
115	0xbc24b7d5	-0.010053595
116	0x3b5ea5f6	0.0033973432
117	0xbcf5ece8	-0.030020192
118	0xbaae6566	-0.0013305366
119	0xbd531aec	-0.051539347
120	0xbcf03b9e	-0.029325303
121	0x3c955333	0.018228149
122	0xbd19bd93	-0.037534308
123	0x3d23433c	0.03985904
124	0xbbed52c6	-0.0072425334
125	0x3cd2f802	0.025753025
126	0xbc9b74d5	-0.018976608
127	0xbbcf34b0	-0.0063234195
128	0xbc5d6381	-0.013512493
129	0xbcdb5c46	-0.026777398
130	0x3c183027	0.009288824
131	0x3c30d78a	0.010793576
132	0xbb168dd6	-0.0022972724
133	0x3b588a65	0.0033041474
134	0x3cb64bdd	0.022252971
135	0xbd72017b	-0.059083443
136	0xbce9c098	-0.028534219
137	0x3c940d8d	0.018072868
138	0xbd5aa573	-0.05338044
139	0xbcc4beed	-0.024016822
140	0xbd033b9e	-0.032039277
141	0xbc0f08f5	-0.008730163
142	0xbd0f8dfd	-0.03504752
143	0x3c7ad28d	0.015308988
144	0x3b96938a	0.0045952247
145	0x3bdc10cb	0.006715869
146	0x3d0336da	0.032034732
147	0x3b366380	0.0027830303
148	0xbd09e5dc	-0.033666477
149	0xbb0c50fe	-0.002141058
150	0xbcccba2d	-0.02499112
151	0xbd3cfa36	-0.046137057
152	0x3c94509c	0.018104844
153	0xbda70f14	-0.08157173
154	0xbc33f1a6	-0.010982906
155	0xbccac2c2	-0.02475107
156	0x3cca1b23	0.024671143
157	0xbd901a42	-0.07036258
158	0xbce69640	-0.028147817
159	0xbd431159	-0.047623966
160	0x3cdf1cf2	0.027235482
161	0xbc05ebe2	-0.008173915
162	0xbd069294	-0.03285463
163	0xbcc246b8	-0.023715362
164	0x3cbea2ec	0.023271047
165	0xbbecdb90	-0.0072283223
166	0xbc185b7f	-0.009299158
167	0xbaa457db	-0.001253839
168	0x3c235f30	0.009971425
169	0xbd02a126	-0.031891964
170	0x3d42524d	0.04744177
171	0xbcfeac4a	-0.031088013
172	0xbce629ee	-0.028096166
173	0xbd1621a1	-0.036653165
174	0xbb40c0d4	-0.002941181
175	0xbcb40ca0	-0.021978676
176	0xbc484d49	-0.0122254575
177	0x3c4c4a62	0.012468906
178	0x3c24266a	0.010018924
179	0xbccf82e0	-0.02533096
180	0x3c0552b1	0.008137391
181	0xbd32ae7a	-0.043623425
182	0x3c6fcea6	0.014636671
183	0xbcec4a0a	-0.028843898
184	0xbbd43594	-0.0064761136
185	0xbd2e9fe5	-0.042632956
186	0xbc6e1253	-0.014530736
187	0x3cac9af3	0.02106998
188	0x3c9550db	0.018227031
189	0xbcc4540f	-0.023965864
190	0x3cd46a96	0.02592973
191	0xbcfafd73	-0.030638432
192	0xbd441e3d	-0.0478804
193	0x3bc4e8a7	0.0060091796
194	0x3c8c2037	0.017105205
195	0xbd3b1311	-0.04567248
196	0x3d3d74e4	0.046254054
197	0x3c8760ab	0.016525587
198	0xbd64f510	-0.055897772
199	0xbce24440	-0.027620435
200	0x3bfffa21	0.0078118
201	0xbd086276	-0.033297025
202	0x3cc81ef9	0.024428831
203	0xbd2e559f	-0.042562123
204	0xbcb6e29f	-0.022324858
205	0xbd26d8ce	-0.040734105
206	0x3ce40325	0.02783353
207	0xbd34b21b	-0.044115167
208	0xbd361bd2	-0.044460125
209	0xbcaba14b	-0.020950934
210	0xbc2427b4	-0.010019232
211	0x3c87307d	0.016502613
212	0xbce473a2	-0.02788717
213	0xba6614fd	-0.0008776931
214	0x3c5608a6	0.013063585
215	0xbdf35697	-0.1188175
216	0xbd8fb192	-0.07016291
217	0xbd170fc3	-0.036880266
218	0xbccfadd0	-0.025351435
219	0xbcc92056	-0.024551552
220	0x3c21790b	0.009855519
221	0xbcfeb356	-0.031091373
222	0xbbc8f649	-0.006132875
223	0x3c360e8d	0.011111868
224	0xbc82b252	-0.01595417
225	0xbd133212	-0.035936423
226	0x3d2ad4f9	0.041707013
227	0x3b88a0b4	0.004169548
228	0xbadc7672	-0.0016819967
229	0xba366b4d	-0.0006958738
230	0xbd125787	-0.035728004
231	0xbbdb09b9	-0.0066845086
232	0x3cbd7078	0.023124918
233	0x3c4ddcc8	0.012564845
234	0x3c0ff9a3	0.008787545
235	0x3ad50eaf	0.0016254986
236	0xbd0cc10d	-0.034363795
237	0xbd236fc1	-0.0399015
238	0xbb762aee	-0.003756221
239	0xbd2ead78	-0.0426459
240	0x3c60f94f	0.013731315
241	0xbd20a53f	-0.03922009
242	0xbd77081b	-0.060310464
243	0x3c05459b	0.008134271
244	0x3ca23a27	0.01980312
245	0xbc584126	-0.013199126
246	0xbbbdade0	-0.00578855
247	0xbc469982	-0.01212156
248	0xbd42072c	-0.04737012
249	0x3b91b367	0.0044464353
250	0x3c90b43d	0.01766407
251	0x3d0a5c76	0.033779584
252	0x3c85a48c	0.016313814
253	0xbd4f89bc	-0.050668463
254	0xbcd45ca7	-0.025923086
255	0xbc384ce7	-0.011248804

net.6.weight f4 [128, 256]
0	0xbd33422b	-0.043764275
1	0x3d6ce172	0.05783219
2	0xbd1fb352	-0.038989373
3	0x3c58484c	0.013200831
4	0x3d3d1488	0.04616216
5	0xbc6265e2	-0.013818236
6	0x3d2f547c	0.04280518
7	0x3d7c8975	0.061654527
8	0xbca3c289	-0.019990223
9	0x3ca59c86	0.020216238
10	0xbcb15d04	-0.021650799
11	0xbd1396e2	-0.036032565
12	0xbb22dd68	-0.0024851207
13	0x3d20e9a0	0.039285302
14	0xbd535d20	-0.051602483
15	0xbccd8236	-0.025086503
16	0xbb1c9582	-0.0023892825
17	0x3d59389a	0.053032495
18	0x3d4157b4	0.04720278
19	0xbc279aa9	-0.010229745
20	0x3c311fd0	0.010810807
21	0x3d0c2900	0.03421879
22	0x3d1e48ca	0.038643636
23	0xbd6b1dbc	-0.057401404
24	0x3c24de07	0.010062701
25	0xbac6de6f	-0.0015172492
26	0x3d397d27	0.04528537
27	0xbd12c7bc	-0.035835013
28	0x3c795977	0.015219084
29	0x3d0ecda5	0.034864087
30	0xbd6a5c7e	-0.057217114
31	0x3cd48f02	0.025947098
32	0x3cf41d2c	0.029799066
33	0x3b6cbbfa	0.0036122785
34	0x3d3f1932	0.046654887
35	0x3d104f17	0.035231676
36	0x3c590516	0.0132458415
37	0xbd7d46c3	-0.06183506
38	0xbd273d60	-0.040830016
39	0x3d21639b	0.03940163
40	0x3d49ce46	0.049268983
41	0xbd26b86a	-0.040703215
42	0x3ce5c349	0.02804722
43	0xbd11daa9	-0.03560892
44	0x3adc1e95	0.0016793782
45	0x3d59424a	0.053041734
46	0x3da9298b	0.08259877
47	0x3d24d87c	0.040245518
48	0x3b17c1c5	0.0023156267
49	0xbc32eb74	-0.010920394
50	0xbbfd66bb	-0.0077331937
51	0xbc10553c	-0.008809384
52	0x3d314159	0.04327521
53	0x3d1ae193	0.03781278
54	0x3ce6054f	0.028078703
55	0xbbfbac21	-0.0076804315
56	0x3cf42421	0.029802384
57	0xbccb5b62	-0.024823848
58	0x3d14971d	0.036276925
59	0xbcf2bd64	-0.029631324
60	0xbd0db1bc	-0.03459333
61	0xbd3edd11	-0.046597544
62	0xbcb52bab	-0.02211555
63	0xbd96961c	-0.0735285
64	0x3c603d52	0.013686495
65	0xbc955818	-0.018230483
66	0x3cac0506	0.02099849
67	0xbcd390f8	-0.025825962
68	0xbd823371	-0.06357468
69	0xbd142e6f	-0.036177095
70	0x3d268aa0	0.040659547
71	0x3c4b8c30	0.01242356
72	0xbd8a65fc	-0.06757733
73	0xbc5c2171	-0.013435707
74	0xbc1c8afd	-0.009554622
75	0x3d5f1c01	0.054470066
76	0x3b293c5d	0.0025823333
77	0x3b00f781	0.0019678774
78	0x3c0489ac	0.008089464
79	0xbd7413d1	-0.05958921
80	0xbcba023b	-0.022706142
81	0x3cb2e08b	0.021835586
82	0x3d559c86	0.052151226
83	0xbcbb43c7	-0.022859467
84	0x3c0f11b5	0.008732249
85	0x3d5bae7b	0.053633194
86	0xbcfaf4c0	-0.030634284
87	0xbc127b95	-0.008940597
88	0x3d66e04d	0.056366254
89	0x3d3b65b9	0.045751307
90	0xbcc88e24	-0.02448184
91	0x3c8808ca	0.016605753
92	0xbd4e7b47	-0.050410535
93	0x3d272034	0.040802196
94	0x3d11bd0d	0.035580683
95	0x3d15bba8	0.036555916
96	0x3cac3a71	0.02102396
97	0xbd0ceefe	-0.03440761
98	0x3d5be1db	0.05368219
99	0xbda8bb49	-0.08238847
100	0xbc83c0b6	-0.016083103
101	0xbd07963b	-0.033102255
102	0x3d281808	0.041038543
103	0x3c27b309	0.010235556
104	0x3d97d251	0.074131615
105	0x3c56b4e1	0.013104648
106	0xbc7065b7	-0.014672688
107	0x3c9bb7c9	0.019008534
108	0xbc910091	-0.017700465
109	0xbc62d7d0	-0.013845399
110	0xbcebe276	-0.028794508
111	0x3d4dcdf6	0.050245248
112	0x3d058d15	0.03260525
113	0xbd5a237b	-0.053256493
114	0xbd76a800	-0.06021881
115	0x3cdccf12	0.026954208
116	0x3af86fa8	0.0018954175
117	0x3c97141c	0.018442206
118	0x3d253c4d	0.04034071
119	0xbd8f9ee8	-0.07012731
120	0x3b0bc316	0.0021325997
121	0x3c7da8d6	0.015482148
122	0xbd079415	-0.033100206
123	0x3d4e8590	0.050420344
124	0xbd7337ae	-0.059379272
125	0xbd0fd454	-0.0351146
126	0x3dd09d8a	0.10186298
127	0xbd26ea7a	-0.040750958
128	0x3cf1bd1c	0.02950912
129	0x3d3fc57c	0.046819195
130	0xbd7a83c4	-0.061160818
131	0xbd1fea20	-0.03904164
132	0x3c81ec40	0.015859723
133	0x3cc0e9d8	0.023549005
134	0x3a30e31c	0.0006747709
135	0xbce14c1a	-0.027502108
136	0xbc902674	-0.01759646
137	0x3bee0fa0	0.0072650462
138	0x3bcbadc3	0.0062157824
139	0xbd6f017b	-0.05835102
140	0xbc8a7de4	-0.016905732
141	0x3d2b16ef	0.041769918
142	0x3d787d04	0.0606661
143	0x3d912fd4	0.070892006
144	0xbce43c9b	-0.02786093
145	0x3c7a2712	0.015268104
146	0xbc24a151	-0.010048226
147	0x3d338e37	0.0438368
148	0xbd8b6b72	-0.06807603
149	0xbd281f56	-0.04104551
150	0x3d28997b	0.041161995
151	0xbd63baa5	-0.05559792
152	0xbcc50cbe	-0.024053928
153	0xbcc55057	-0.02408616
154	0xbd51fb71	-0.051265184
155	0xbd29748e	-0.04137092
156	0x3ab9123c	0.0014119814
157	0xbcd70c04	-0.026250847
158	0x3c6a1d7d	0.014289257
159	0xbd038c7a	-0.03211639
160	0x3ca39435	0.019968132
161	0xbd4d7c6e	-0.050167494
162	0x3d53c313	0.05169971
163	0xbcc14862	-0.023594085
164	0xbd11dff7	-0.03561398
165	0xbd3d1c55	-0.046169598
166	0xbd505327	-0.05086055
167	0x3d7e84c5	0.062138338
168	0x3cd4a774	0.025958754
169	0x3d92522a	0.07144578
170	0xbc1f6c53	-0.009730416
171	0xbb6b9ffd	-0.0035953515
172	0x3d05277f	0.03250837
173	0xbc010919	-0.007875704
174	0x3beebffc	0.00728607
175	0xbd2a2e87	-0.04154828
176	0x3d0f037b	0.03491543
177	0x3d7bc148	0.061463624
178	0xbd4abee1	-0.049498443
179	0x3cf0f460	0.029413402
180	0xbc63fbcc	-0.0139150135
181	0x3cc46b77	0.023977024
182	0xbcb8b47d	-0.022547001
183	0x3c6ebe4d	0.014571738
184	0x3b85c78b	0.0040826253
185	0xbd1826fb	-0.03714655
186	0x3c854bdb	0.016271522
187	0x3bc92f68	0.0061396845
188	0x3d2d826f	0.04236072
189	0x3d24f8b2	0.040276237
190	0xbbad2595	-0.005284021
191	0x3c1f61dc	0.009727921
192	0xbd39e054	-0.04537995
193	0x3c202355	0.009774049
194	0x3cba861d	0.022769028
195	0x3ae3b6de	0.0017373224
196	0x3cafbe51	0.021453055
197	0x3cf8ea46	0.030385148
198	0xbcb8d68c	-0.022563241
199	0xbcddee2c	-0.027091108
200	0x3c52bee9	0.012862899
201	0xbd686f0f	-0.05674654
202	0xbd469eeb	-0.0484914
203	0x3b67258c	0.0035270182
204	0xbd0684f9	-0.032841656
205	0x3d3f6fad	0.04673736
206	0xbc5aae22	-0.013347181
207	0x3d0f1ffd	0.034942616
208	0x3ce04cfb	0.027380457
209	0x3d2d4e33	0.042310905
210	0x3d8cd14d	0.068758585
211	0x3c9de31e	0.019273337
212	0x3d9c6a29	0.07637436
213	0x3ba573fe	0.0050492277
214	0x3d3a11bf	0.04542708
215	0x3b899a82	0.004199327
216	0x3d12c49e	0.03583204
217	0x3caca034	0.021072485
218	0x3d840d15	0.06447808
219	0x3cf2c2ea	0.029633958
220	0xbc49e0b6	-0.012321642
221	0x3d4e4dba	0.050367095
222	0x3ca4eebc	0.020133369
223	0x3bc59fa9	0.006030996
224	0xbd5f6b01	-0.054545406
225	0x3d103bb9	0.035213206
226	0x3c6a187e	0.014288066
227	0xbd262ff0	-0.04057306
228	0xbc482545	-0.012215917
229	0xbd270c73	-0.040783357
230	0x3cf3ad5a	0.029745746
231	0x3d8d6b94	0.069052845
232	0x3ca2d440	0.0198766
233	0xbd390bf6	-0.045177422
234	0x3c1021d4	0.008797128
235	0xbd4e195c	-0.050317153
236	0xbbe983b0	-0.007126294
237	0xbd18b6dd	-0.037283767
238	0xbd11ceed	-0.03559773
239	0xbd1cf0b0	-0.038315475
240	0xbc11f55f	-0.008908599
241	0x3d2681b3	0.040651035
242	0x3c421b28	0.011847295
243	0xbd334506	-0.043766998
244	0xbcebc18a	-0.02877881
245	0x3c902d30	0.017599672
246	0x3c87c4b2	0.016573284
247	0x3d04b272	0.03239674
248	0x3d0aad36	0.033856593
249	0xbbb30b45	-0.00546399
250	0x3d2e9702	0.04262448
251	0xbd249645	-0.04018237
252	0x3cb1fdd4	0.02172748
253	0xbd8b757b	-0.06809517
254	0x3d7a1a00	0.06105995
255	0xbcd7b21d	-0.026330048

net.6.bias f4 [128]
0	0xbcb2b523	-0.021814888
1	0x3c5b7906	0.013395553
2	0xbdd5904a	-0.104279116
3	0xbd562537	-0.052281585
4	0x3e074712	0.13210705
5	0x3db50e16	0.08840577
6	0x3dc5a00f	0.096496694
7	0xbd8a53a9	-0.06754238
8	0x3c49215e	0.012276022
9	0xbe5ef50a	-0.21773162
10	0x3d9467f6	0.072463915
11	0xbceb03d3	-0.028688347
12	0x3d460a24	0.048349515
13	0xb89f7c7f	-7.6049e-05
14	0x3dc05ac2	0.09392311
15	0xbd4c7b36	-0.04992219
16	0xbe5275b8	-0.20552719
17	0x3dedcf5f	0.116118185
18	0x3dee8c14	0.116478115
19	0xbdaf3d25	-0.08556584
20	0x3d892c24	0.06697872
21	0x3b4135e2	0.002948158
22	0xbbee13e5	-0.007265555
23	0x3d8cdf2f	0.068785064
24	0x3cae4a5d	0.021275694
25	0xbcd425a5	-0.025896857
26	0x3d3a68cc	0.0455101
27	0xbc869e89	-0.016433017
28	0xbd036270	-0.0320763
29	0x3d9e2096	0.07721059
30	0xbde32b8f	-0.110922925
31	0x3d275ecf	0.0408619
32	0x3d9880e1	0.07446457
33	0xbc226d62	-0.009913774
34	0xbdce4cfa	-0.10073276
35	0x3c0ee89e	0.008722452
36	0xbd934e45	-0.07192663
37	0xbcc8a829	-0.024494248
38	0x3d933f0b	0.07189759
39	0xbe080887	-0.13284503
40	0x3dacf9a8	0.08446056
41	0x3d8e47f6	0.06947319
42	0x3d1b67be	0.037940733
43	0xbe1f83e5	-0.15577658
44	0x3c8d025f	0.017213045
45	0xbd20f052	-0.039291687
46	0xbd8972e8	-0.0671137
47	0xbc945871	-0.018108578
48	0x3d72433e	0.05914616
49	0x3c3c1cf6	0.011481514
50	0x3dd68551	0.10474647
51	0xbbb741f7	-0.0055925804
52	0x3dcb0592	0.09913172
53	0xbd69173e	-0.05690693
54	0xbd7bed94	-0.06150587
55	0x3d7f3c6e	0.06231349
56	0xbdb91e6a	-0.09039004
57	0xbd8bd5df	-0.06827902
58	0xbdc65468	-0.09684068
59	0x3cb5a5a4	0.02217371
60	0xbd0d3cf2	-0.03448195
61	0x3d96ff93	0.07372966
62	0x3db335dc	0.08750507
63	0x3c50e36a	0.012749532
64	0x3dbfcb41	0.093649395
65	0x3d31c38b	0.043399375
66	0x3d4d7480	0.05015993
67	0xbdf44447	-0.11927085
68	0x3db6e8d6	0.08931129
69	0x3cd279a5	0.02569277
70	0xbdeba98b	-0.11506947
71	0xbe10c203	-0.1413651
72	0xbcafb92f	-0.021450607
73	0xbdd30668	-0.10303956
74	0x3d902ac2	0.070394054
75	0xbe072342	-0.13197044
76	0xbcea7ab9	-0.028622972
77	0xbd32b351	-0.04362804
78	0x3aef08d8	0.0018236889
79	0x3d2879df	0.04113185
80	0x3d355594	0.044271067
81	0x3d7fa1db	0.062410217
82	0x3d12acd7	0.035809364
83	0xbdad0f02	-0.08450128
84	0x3d37659c	0.044774637
85	0xbd6e4906	-0.05817511
86	0xbd99bb28	-0.075064
87	0xbd3b85cc	-0.045781896
88	0xbe11d9eb	-0.14243285
89	0xbd16da6c	-0.036829397
90	0xbc533936	-0.012892058
91	0xbc1712b5	-0.009220769
92	0xbdb33a2b	-0.08751329
93	0x3ded83e1	0.115974195
94	0xbd19f4bc	-0.037586913
95	0xbd6535ac	-0.05595939
96	0x3cc22286	0.023698103
97	0x3cb55247	0.02213396
98	0xbdec72b1	-0.11545313
99	0x3a7f0f80	0.00097297877
100	0x3e04b96e	0.12961361
101	0x3dd16c7e	0.10225771
102	0x3d03c720	0.032172322
103	0xbd6c2355	-0.057650883
104	0xbcab3eb1	-0.020903917
105	0xbd31f612	-0.04344756
106	0x3dce8e03	0.1008568
107	0xbdd27a64	-0.102772504
108	0xbda69c33	-0.081352614
109	0xbe690d98	-0.22759092
110	0xbdafd867	-0.08586197
111	0xbdc0e568	-0.09418756
112	0x3d330364	0.043704405
113	0x3bc5dade	0.006038054
114	0x3d350fc1	0.044204477
115	0x3e09ed53	0.13469438
116	0x3d73861e	0.059454076
117	0xbcda7bcc	-0.02667036
118	0x3ba07798	0.004897069
119	0xbce3432d	-0.027741993
120	0x3d7d6efd	0.061873425
121	0xbd78a6eb	-0.06070606
122	0xbdb4d89d	-0.08830378
123	0x3da48772	0.08033647
124	0xbd7c5ab6	-0.061609946
125	0x3d8cbc3f	0.068718426
126	0xbdabbad3	-0.08385243
127	0x3d337ea4	0.043821946

net.9.weight f4 [7, 128]
0	0x3c585f1e	0.013206271
1	0x38562ab8	5.106136e-05
2	0xbbe42ca0	-0.0069633275
3	0xbcb3a99b	-0.02193146
4	0xbb3665c8	-0.0027831662
5	0x3c8936e2	0.016749803
6	0x3c9c7d41	0.019102694
7	0xbcb3e382	-0.02195907
8	0xbc4aaf24	-0.012370858
9	0xbc61f1af	-0.013790532
10	0xbbd726fd	-0.006565927
11	0xbcac09dd	-0.021000797
12	0x3c76e411	0.015069024
13	0x3abf7058	0.0014605625
14	0x3b8d0f80	0.0043048263
15	0xbc9f518a	-0.01944806
16	0xbc1612ee	-0.009159787
17	0xbb0398c7	-0.0020080076
18	0x3c4a1614	0.012334365
19	0xbca58455	-0.020204702
20	0x3c5c92d0	0.013462737
21	0x3c5464b2	0.012963461
22	0xbc556950	-0.013025597
23	0x3c8551fc	0.016274445
24	0x3b67773b	0.003531887
25	0xbc814d95	-0.015784064
26	0x3c3e0c91	0.011599676
27	0xbc9289f2	-0.017888043
28	0xbca0495a	-0.019566227
29	0x3c89e5b9	0.016833173
30	0x3a3ecfad	0.0007278871
31	0x3c57ab1b	0.013163353
32	0x3bbbe05b	0.0057335324
33	0x3c2c9243	0.010532918
34	0xbc48b08c	-0.012249123
35	0xbc897133	-0.01677761
36	0xbcb6e481	-0.022325756
37	0x3a68ed88	0.00088854926
38	0xbadb8dcf	-0.0016750636
39	0xbbd89aaa	-0.0066102343
40	0xbbc08b8f	-0.0058760117
41	0xba54067a	-0.0008088123
42	0x3c63588c	0.013876092
43	0xbca10e90	-0.019660264
44	0x3c54f37a	0.012997502
45	0xbbfab28f	-0.0076506804
46	0x3bc0972c	0.005877396
47	0x3bf8ee6e	0.0075967824
48	0x3c013039	0.007885032
49	0x3c329744	0.010900322
50	0x3c8c5341	0.017129542
51	0xbc2266f1	-0.009912238
52	0x3c93c59f	0.018038569
53	0xbc627416	-0.013821622
54	0xbc8eb1cc	-0.017418765
55	0x3c6e7746	0.014554804
56	0xbc6e7460	-0.014554113
57	0xbafc646c	-0.0019256002
58	0x3b543278	0.0032378715
59	0x3c690bdc	0.014224019
60	0xbc9f48b5	-0.01944385
61	0xbb1902f8	-0.0023347717
62	0xba967496	-0.0011478837
63	0xbc5ebc61	-0.013594718
64	0xbaa177c6	-0.001231902
65	0x3c6a0f07	0.014285809
66	0x3c147b7b	0.009062643
67	0x3b8856b5	0.004160727
68	0x3c8ec443	0.01742757
69	0x3c410557	0.011781058
70	0xbc830bcc	-0.015996836
71	0xbb4262fc	-0.002966105
72	0x3bf7a5d0	0.007557608
73	0xb80506de	-3.1716067e-05
74	0xbae6cbbe	-0.0017608327
75	0xbc06e949	-0.00823433
76	0xbc2c5163	-0.010517451
77	0xbc1f0e9c	-0.009708073
78	0xbc804d32	-0.01566181
79	0x3c0b201d	0.008491543
80	0x3c51700a	0.01278306
81	0x3bb1b5bc	0.0054232758
82	0x3c731843	0.014837327
83	0xba779cb5	-0.00094456534
84	0x3c7d7807	0.015470511
85	0x3bfb2b63	0.007665084
86	0xbc9e141b	-0.019296696
87	0x3bc3f82d	0.0059805126
88	0xbc141b17	-0.009039662
89	0x3b43c4bd	0.0029871904
90	0x3c532ad2	0.012888627
91	0x3c6a8775	0.014314522
92	0xbc897ebb	-0.016784063
93	0x3b223700	0.002475202
94	0xbc90b7c4	-0.017665751
95	0x3a7f3aa0	0.0009736214
96	0x3c4f5f15	0.012656947
97	0x3c5b675f	0.013391345
98	0xbcbab9d9	-0.022793697
99	0xbca4a6db	-0.020099094
100	0x3a0f6008	0.0005469327
101	0x3ab29917	0.0013625947
102	0x3c6df7b7	0.014524392
103	0xbc75b3e3	-0.014996502
104	0x3bf0ff6e	0.0073546683
105	0xbca2669e	-0.019824322
106	0x3bb073e9	0.0053849113
107	0xbcda524a	-0.026650567
108	0xbcb0d2e9	-0.021584945
109	0xbba2b2be	-0.0049651554
110	0xbcb1e24e	-0.021714356
111	0xbc7f52d9	-0.015583717
112	0x3c320db9	0.01086753
113	0x3bf8bf57	0.007591169
114	0x3c876ae1	0.016530456
115	0xbb903f44	-0.004402073
116	0x3c573f96	0.013137719
117	0xb80ca920	-3.353611e-05
118	0xb821d650	-3.8584985e-05
119	0xbc76bbd5	-0.015059431
120	0x3c61073b	0.013734634
121	0xbcb4440e	-0.022005107
122	0xbca6a40f	-0.020341901
123	0x3c8a4e39	0.016883003
124	0xbb235f2e	-0.0024928558
125	0x3c94822d	0.018128479
126	0x3b9075cd	0.004408574
127	0x3c39f0f9	0.011348956
128	0x3c93f21b	0.01805978
129	0xbdb5d95f	-0.08879351
130	0x3c64b610	0.013959423
131	0x3d15878b	0.036506217
132	0xbba6cdc2	-0.005090446
133	0x3d1e6282	0.038668163
134	0x3cd8d421	0.026468338
135	0xbc238824	-0.009981189
136	0xbb05313d	-0.0020323538
137	0xbaca3707	-0.0015427776
138	0x3d4a8546	0.049443506
139	0xbca97792	-0.020686898
140	0x3d1222c5	0.03567769
141	0xbd901530	-0.07035291
142	0xbd54e890	-0.0519796
143	0xbbc4c01f	-0.006004348
144	0x3b99f1c5	0.0046980106
145	0xbd2c90a0	-0.042130113
146	0x3be75247	0.007059369
147	0x3c3578cf	0.011076166
148	0x3d0bdced	0.034146238
149	0x3d9d8896	0.07692067
150	0x3b15c21c	0.0022851294
151	0x3c7cbcec	0.015425902
152	0xbe12d136	-0.1433762
153	0x3c675ade	0.0141207855
154	0xbb865fae	-0.0041007614
155	0x3ae75c60	0.0017651431
156	0x3c8deda2	0.017325226
157	0x3d849463	0.06473615
158	0x3d20156d	0.039082933
159	0x3cec7e56	0.028868835
160	0xbc89744e	-0.016779091
161	0x3c104486	0.0088054
162	0x3c6cbd1b	0.014449383
163	0x3956b3d7	0.00020475626
164	0x3cde7d59	0.02715938
165	0xbd71408f	-0.05889946
166	0x39f95bdc	0.00047561422
167	0x3b84bcc6	0.004050824
168	0xbcccd7a4	-0.02500517
169	0xbc9fb3c5	-0.0194949
170	0xbaeb9654	-0.0017973878
171	0xbb103856	-0.0022006235
172	0x3db58df6	0.088649675
173	0xbbb04d3d	-0.0053803013
174	0x3b73521c	0.0037127798
175	0xbb56922d	-0.0032740936
176	0xbd9162d9	-0.07098932
177	0x3dfd7f1a	0.12377758
178	0x3b60240b	0.003420117
179	0x3e0ad515	0.13557847
180	0xbd888aac	-0.066670746
181	0x3986a7dc	0.00025683537
182	0x3c8072a8	0.015679672
183	0xbbe058f4	-0.0068465415
184	0xbb83dc0e	-0.0040240353
185	0x3d826b4f	0.06368124
186	0x3beb1e9f	0.007175281
187	0x3c2ab4b0	0.010419056
188	0x3bac87b1	0.005265199
189	0x3c00bda0	0.00785771
190	0xbd003362	-0.031299002
191	0xbc6d7036	-0.014492085
192	0xbcd0b925	-0.025478909
193	0xbc8a1ee8	-0.01686044
194	0x3d5dd3dd	0.054157127
195	0xbd031ed9	-0.03201184
196	0xbb9906ae	-0.0046699857
197	0xbce61156	-0.028084438
198	0x3c461f4d	0.012092424
199	0x399ac8be	0.00029522734
200	0x3dec294c	0.11531314
201	0x3d2e6b23	0.042582642
202	0xbc6f67c7	-0.014612145
203	0x3c655e05	0.013999467
204	0x3c87374a	0.016505856
205	0x3d80c9a4	0.0628846
206	0x3c26fe1d	0.010192421
207	0xbdf499a4	-0.11943367
208	0xbd5c1572	-0.05373139
209	0x3d91b592	0.0711471
210	0x3cb9953b	0.022654166
211	0x3d9b4799	0.075820155
212	0xbccf90b2	-0.02533755
213	0xbc336724	-0.010949884
214	0x3d257733	0.04039688
215	0x3cf823a4	0.030290432
216	0x3c9be44b	0.019029757
217	0x3e0883a3	0.13331465
218	0x3d0bba1a	0.034113027
219	0x3d91041c	0.07080862
220	0x3c202dfd	0.009776589
221	0x3d1ae54a	0.037816323
222	0x3c4c2f47	0.012462444
223	0x3ca8d964	0.020611472
224	0xbc7aa4a9	-0.015298047
225	0x3d2b2790	0.041785777
226	0xbc53d121	-0.012928278
227	0x3c985f15	0.018600026
228	0xbd44e11c	-0.048066244
229	0xbd4b3b60	-0.04961717
230	0x3ca612ce	0.020272639
231	0xbd3b1641	-0.04567552
232	0x3da922e9	0.08258612
233	0x3c2f7a0b	0.01071025
234	0xbd02b97d	-0.031915177
235	0x3c94542d	0.018106544
236	0xbc30263f	-0.010751306
237	0xbcc9e093	-0.024643218
238	0x3c731445	0.014836376
239	0x3cb4881e	0.022037562
240	0x3cb64432	0.022249315
241	0x3df8d1d6	0.12149398
242	0x3c980d28	0.01856096
243	0xbb7002d7	-0.0036622786
244	0x3c26a852	0.010171967
245	0x3d2c402b	0.042053383
246	0xbc529c92	-0.012854712
247	0xbcc15c2c	-0.023603521
248	0x3b09be4c	0.0021017967
249	0x3c5bfb71	0.0134266475
250	0x3cbe8f9a	0.023261834
251	0x3cf03064	0.02931995
252	0x3e02864c	0.12746543
253	0xbab1adba	-0.0013555803
254	0x3cc08c83	0.023504501
255	0xbd61659e	-0.05502855

net.9.bias f4 [7]
0	0x3e4a23fa	0.19740286
1	0xbd5f9f2a	-0.05459515
2	0xbc3c27e1	-0.011484117
3	0xbe8e57f5	-0.2780148
4	0xbd66f2a7	-0.056383755
5	0x3ec4adaf	0.3841376
6	0xbed6b6a7	-0.41936228
