script/tabpfn_sabr_step9_causal_final.pth (torch, 685071 bytes, 8 tensors)

head.0.weight f4 [512, 9]
000000 a5 e9 3d 3d 3a 94 9d 3e 2f b7 e3 3d 16 6e bd 3c
       0.0463654 0.3077715 0.11118924 0.023123782
000010 d2 08 8a be 4c f9 a4 3e 99 d2 25 be b9 42 a2 be
       -0.26959854 0.32221448 -0.16193618 -0.3169153
000020 c2 1d 27 3c 96 4a 64 be 75 31 cd 3d 47 f8 21 be
       0.010199966 -0.22294077 0.10019199 -0.15817367
000030 4f 79 82 be 01 ff dc 3d ac f1 09 3e 7d d1 86 3e
       -0.25483176 0.10790826 0.13471097 0.26331702
000040 fa 35 60 be 14 4a b2 be 70 54 8e be d2 97 84 3e
       -0.2189559 -0.34822142 -0.27798796 0.2589708
000050 c3 9e 17 3e 57 1c fa 3d 51 0e 7f 3e 08 0a d3 3d
       0.14806657 0.12212437 0.24907805 0.10304648
000060 97 a5 6a 3e 58 6f 18 3e 5f 1a 09 bd a8 4e 65 bd
       0.2291473 0.14886224 -0.033472415 -0.055983216
000070 27 33 2d 3e 6c 9a 07 be d8 3d 4e be 6b 69 98 3d
       0.16914044 -0.13242501 -0.20140779 0.07441982
000080 5c 45 25 bb 26 1d ae 3d 42 a6 a3 3d 41 9d 12 bd
       -0.0025218343 0.085016534 0.079906955 -0.0357945
000090 cb 9b 93 be 9b 59 93 3d d4 f5 68 be 4f 17 a2 be
       -0.28829798 0.07194825 -0.22750026 -0.31658408
0000a0 1b 0a ef bb c9 3d ee bd c9 db 78 3e 72 d8 95 be
       -0.007294906 -0.11632878 0.24302591 -0.29266697
0000b0 ce 69 36 be 41 6b af 3d a8 8d 56 be a0 8d ed 3d
       -0.17813799 0.08565379 -0.20952475 0.115992785
0000c0 c7 e0 79 bd ac aa 8e 3e 5c 74 a4 bd d1 bf 8a 3e
       -0.06100538 0.27864587 -0.08030006 0.2709947
0000d0 0b 6f 25 3c 85 46 20 3d 73 a0 8e be ca cd 0e 3e
       0.0100972755 0.039129753 -0.27856788 0.1394569
0000e0 69 3c 8e 3e 06 df 38 3e 5d 69 06 be bf 99 b5 bc
       0.27780464 0.18053827 -0.1312613 -0.022168038
0000f0 f3 33 61 3e d4 0e 92 be 55 1d 24 be 53 fe 8a be
       0.21992473 -0.28526938 -0.16026814 -0.2714716
000100 ff 28 61 be f2 5f 01 be 5c 4e 2c be 16 82 31 3e
       -0.21988295 -0.12634256 -0.16826767 0.1733478
000110 4c b3 94 3e 35 89 92 3d 8c 3e 9c be 31 a4 3b 3e
       0.29043043 0.071550764 -0.3051647 0.18324353
000120 b6 e9 11 be 76 ca 24 be fe f5 8e be 62 05 53 bd
       -0.1424931 -0.16092858 -0.27922052 -0.051518805
000130 43 e8 cf bd 31 bd f9 3d 39 64 29 bd d5 7d 01 bd
       -0.10151722 0.121942885 -0.041355345 -0.031614143
000140 c2 d6 a7 3e 52 be 93 3e 66 ee 0a 3e 7d 9c 56 3c
       0.32781035 0.2885614 0.13567504 0.013098833
000150 75 de 26 be 27 b6 9b be b1 e2 97 3d 26 34 ab 3e
       -0.16295798 -0.3041241 0.07416285 0.33438224
000160 49 bf 5b 3e 83 c2 aa 3e 9a 8e 9e be f9 d0 82 be
       0.21459688 0.33351526 -0.3096817 -0.25550058
000170 53 34 c0 bc 6d 7a 9f 3c 0d 3f ec bd 70 0e 41 3e
       -0.02346245 0.019467557 -0.115354635 0.18853164
000180 2f b8 a9 3e e7 20 96 be 32 c0 86 3e 2c 9d 43 3e
       0.33148333 -0.29321977 0.26318508 0.19102925
000190 d2 6b ca 3d 99 3a de 3d 82 97 9d be f2 d9 11 3d
       0.09883846 0.1085102 -0.30779654 0.03560824
0001a0 d4 c6 16 be ea 50 89 3e 19 50 65 3e 1d da 9a 3e
       -0.14724284 0.26819545 0.22393836 0.30244532
0001b0 d9 98 5c be db d5 35 be 35 19 bb bd ce c9 6f bd
       -0.21542682 -0.1775736 -0.09135667 -0.058542065
0001c0 1b 18 30 3c 39 f3 a3 3e 13 72 6c be 80 47 58 be
       0.010747935 0.32021502 -0.23090391 -0.21121025
0001d0 e0 a9 67 3e c1 48 50 3e 25 11 4b 3e 27 b5 36 be
       0.22623396 0.20340253 0.19830759 -0.17842542
0001e0 97 00 34 bd 80 d0 d4 bd 11 0c ab bd 42 39 96 3d
       -0.043945875 -0.10391331 -0.08351911 0.0733514
0001f0 39 0d 71 3e d1 c0 18 be df 0d ad 3e 9a 0b 4c 3e
       0.235402 -0.14917304 0.33799645 0.199263
000200 7a e4 25 3e e5 3b 2a be 8b 3e 83 3e 54 63 d4 bd
       0.16200438 -0.1662441 0.25633654 -0.10370508
000210 8c 08 7c be 77 cb 19 be fe 18 65 be 3e 30 85 3e
       -0.24612635 -0.15019022 -0.22372815 0.26013368
000220 77 be 3c 3e a7 27 9c 3e d9 ce 66 be 28 f1 80 be
       0.18432032 0.30499002 -0.22539844 -0.25183988
000230 d4 f8 32 3e 21 32 80 3e 66 62 23 be c2 1f 3d 3c
       0.17477733 0.25038245 -0.15955505 0.011543216
000240 0d df a5 3e 36 5d 2c 3e 01 f4 30 bd d7 9f 25 be
       0.32396737 0.16832432 -0.04320145 -0.16174255
000250 d2 2b 4a 3e b7 13 e2 3d ee 13 7c be 63 4f ce 3d
       0.19743279 0.110389166 -0.24616978 0.100737356
000260 bd 3f 50 3e d1 db 8c 3e 65 c5 9a 3e 3c c1 f4 3d
       0.20336814 0.27511457 0.30228725 0.11950919
000270 89 a8 c7 bd 09 18 63 bd 9c 31 e8 bd da dd 60 be
       -0.097489424 -0.055442844 -0.11337587 -0.2195963
000280 b2 15 c0 b9 d5 a2 5a 3e 15 8a 14 3d 7e 0b 7f be
       -0.00036637258 0.21351178 0.036264498 -0.24906728
000290 b1 94 32 be a1 12 71 be 20 db 48 3e 26 4f 45 bd
       -0.17439534 -0.23542263 0.1961484 -0.048171185
0002a0 76 ec ae 3d e4 c0 3a bc e9 6b 53 be 03 2d c8 3d
       0.08541195 -0.011398528 -0.20646633 0.0977421
0002b0 ad fd 49 3e b7 95 0e 3e 48 fc 8f 3e e5 a2 ba 3b
       0.19725676 0.13924299 0.28122163 0.005695688
0002c0 d6 87 38 bc 27 a1 8d bd ef 55 91 be a1 d8 b1 3c
       -0.011262855 -0.06915503 -0.28385875 0.021709742
0002d0 a3 fd 3b 3e b9 6d ec 3d 86 9f 7f bd ce 19 55 3e
       0.18358473 0.115443654 -0.062407993 0.20810625
0002e0 14 5e 33 3d 27 01 8f be ce a9 58 3e da c0 ea bd
       0.04379089 -0.27930567 0.21158525 -0.11462565
0002f0 99 10 ba bd d4 b3 14 3d 16 8b 54 3d 62 99 03 3e
       -0.09085197 0.03630431 0.051890455 0.1285148
000300 8b 72 6c be 41 0d b8 bd c9 c9 40 3e cd 51 8e bd
       -0.2309057 -0.08986903 0.18826975 -0.06949196
000310 ba 84 24 be f5 d0 a1 3d 95 b6 73 3e a2 1b 3c 3e
       -0.16066256 0.079011835 0.23800118 0.18369916
000320 e4 ea e9 3c 8a 72 33 be e0 9f ca 3d 6c 82 93 3e
       0.028554387 -0.17524162 0.09893775 0.28810441
000330 e0 77 72 be 47 9b eb bd 4b bd fd bd 3c 6a 9b 3e
       -0.23678541 -0.11504226 -0.123896204 0.30354488
000340 e0 98 f7 3d cc 27 43 3e ff 99 8c 3e 2b f0 26 3e
       0.120897055 0.1905815 0.2746124 0.16302554
000350 6c c1 de bb 70 99 a1 3e 19 62 32 3e ba 1e 6e 3e
       -0.00679796 0.31562376 0.17420234 0.23253909
000360 98 eb 90 bd 94 c9 93 3e 1e 77 45 3e 98 b0 2f 3e
       -0.07076186 0.2886473 0.19283721 0.17157209
000370 6a 4d 90 3e b8 38 8d be fe 42 40 be d3 df 28 3e
       0.28184062 -0.27582335 -0.18775555 0.16491632
000380 0b 82 87 be 19 d1 5c 3e 71 98 a7 3e 26 e7 01 3d
       -0.26466402 0.2156414 0.3273349 0.03171458
000390 23 00 97 3e b0 33 4d 3e 06 c2 69 3e 68 81 02 be
       0.29492292 0.20039248 0.2282792 -0.12744677
0003a0 f0 c6 61 3e 3f 8d 96 be 3f 20 07 3d a6 28 25 3e
       0.22048545 -0.29404637 0.032989737 0.16128787
0003b0 4f 63 4a 3e c1 4f 92 bd bc 7f 9d be b4 25 bd 3d
       0.19764446 -0.07144118 -0.30761516 0.09235707
0003c0 4f c9 69 3e f5 91 c8 3d 3e bd a3 be 97 6e 84 be
       0.228307 0.09793464 -0.31980318 -0.25865623
0003d0 76 e2 9b be 43 b8 2d 3e eb 03 a6 3e 34 0e fc bd
       -0.30446213 0.16964822 0.32424864 -0.123073965
0003e0 f2 9a 0d be 3a aa 84 be 41 30 07 3d 10 c7 9d 3e
       -0.13828638 -0.25911123 0.033005003 0.30815935
0003f0 f0 06 6e 3e fc a7 1f be bd cf bf 3c 8c 28 6f be
       0.23244834 -0.15591425 0.023414487 -0.23355311

head.0.bias f4 [512]
000000 a4 4f 43 be 94 e1 a4 3d 7d 50 42 3e 1b 8f 79 3e
       -0.19073349 0.08050838 0.18976016 0.24370997
000010 96 c5 4b 3e e5 0f e5 bd 81 ed a8 bd 4a 46 c6 bd
       0.19899592 -0.11184672 -0.08248425 -0.09681375
000020 27 2a 82 3e 76 be e5 bd 7b cf 4b 3e 91 1d e9 3d
       0.25422785 -0.11217968 0.19903366 0.113825925
000030 27 b2 fa 3c 76 ed a8 3e 8e 36 9e be b2 f5 98 3e
       0.030602528 0.32993668 -0.30900997 0.2987495
000040 b9 6c 85 be 0e ef 84 3e e9 af 33 3e 44 ac 6e be
       -0.2605951 0.25963634 0.17547573 -0.23307902
000050 75 73 02 be 15 ce 42 be ff 9a 87 bd 6c 46 38 3e
       -0.12739356 -0.19023927 -0.0662136 0.17995614
000060 a4 e1 1c 3e 27 71 3d be cc 05 93 3d 43 b6 3d 3e
       0.1532045 -0.18500195 0.0717884 0.18526559
000070 fd a2 16 3e 91 6a ad bd ed 41 0a be c4 74 25 3e
       0.14710613 -0.084675916 -0.13501711 0.16157824
000080 60 ee f0 3d 40 86 9c 3c cf 12 5a 3e 9f 27 e6 3c
       0.117642164 0.019106984 0.21296237 0.028095065
000090 a9 3d 97 be 1d 3f 04 3d 27 5a 5f be d3 9f 98 be
       -0.2953923 0.032286752 -0.21811734 -0.29809436
0000a0 c0 53 bf 3d b0 f3 78 3e 78 65 10 3d c5 68 81 be
       0.09342146 0.2431171 0.03525302 -0.25275245
0000b0 f8 10 81 3e 2c 49 3e 3c ad 00 9a 3e a8 77 9d 3e
       0.2520826 0.011614125 0.3007864 0.30755353
0000c0 84 00 a4 bc 67 07 d9 3b 50 db af bc df 27 3d be
       -0.020019777 0.006623197 -0.021466881 -0.18472241
0000d0 db f7 58 3d 5b 0a 15 3d 6a 75 e4 bc 8c ae 18 3e
       0.05297075 0.03638683 -0.027888019 0.14910334
0000e0 cc 42 4f 3c ab e2 14 be 33 84 23 3e 58 31 e6 3d
       0.012650203 -0.14539592 0.15968399 0.1123988
0000f0 65 37 5f 3e e2 da 75 be 6c ad 77 3e 6e 16 76 3e
       0.21798475 -0.24009278 0.24187249 0.24031994
000100 a2 2f 68 3e f8 3b ca bd 25 9e c6 3c aa d3 45 3e
       0.2267442 -0.098747194 0.024245331 0.19319025
000110 da dc fc bd cb 81 86 be ca 74 90 3e 68 c3 54 3e
       -0.123468116 -0.262709 0.28214103 0.20777667
000120 db 73 a5 3d 64 81 8c 3e a8 2c 73 3e 5f 1e 79 3d
       0.08078738 0.27442467 0.23747504 0.06081998
000130 64 a6 8b be 92 e3 88 bd d1 5f 4e be 09 1e 7c 3e
       -0.27275383 -0.066840306 -0.20153739 0.24620833
000140 84 35 93 be 69 f8 c6 bb 51 12 a1 3e 64 e0 bb bd
       -0.28751767 -0.0060720933 0.31459287 -0.091736585
000150 72 fb 06 3e 2c dc 13 3e fb 55 db bd 47 69 15 be
       0.13181856 0.14439458 -0.10709759 -0.14590941
000160 12 9f 99 3d 7a a5 67 be df 8b 79 be 0c dc 5d 3d
       0.075010434 -0.22621718 -0.24369763 0.05416493
000170 3e 2f 94 be 39 06 3c be 98 7f 4e be 42 65 ef bc
       -0.28942293 -0.18361749 -0.2016586 -0.029223088
000180 3e 64 21 3e 32 22 12 be 91 ea 39 be 78 6d e1 3c
       0.15760896 -0.14270857 -0.18155886 0.02751802
000190 09 6e b4 3d c7 44 89 bd f1 a3 5d bd 8e bd 9e be
       0.0881005 -0.06702571 -0.054111425 -0.31003994
0001a0 db a0 25 be 3d 9f 16 3d 13 af 9e be fc 24 1d 3b
       -0.16174643 0.036772955 -0.30992946 0.0023978343
0001b0 6c 17 31 be 05 c8 7e 3e c2 23 43 3e 87 04 c3 bd
       -0.17294091 0.24880989 0.1905661 -0.09522348
0001c0 77 3f ae bd 59 c5 de 3d b1 b3 07 3e ea a4 54 3e
       -0.08508199 0.10877485 0.1325214 0.20766035
0001d0 1d 76 84 3e 61 2c 58 be 6e f8 08 3e 84 52 8f bd
       0.25871363 -0.21110679 0.13376018 -0.069981605
0001e0 5c 99 a5 3e 09 e0 84 be 73 fa de 3d a4 31 44 3e
       0.32343566 -0.25952175 0.10887613 0.19159561
0001f0 a5 15 83 be ee 92 9c 3e 2e d1 2a be 0d 0b d3 3d
       -0.2560245 0.30580848 -0.16681358 0.10304842
000200 80 f8 a1 3d 06 e8 3b 3d cc ab b1 3b 02 4c 58 be
       0.07908726 0.04587557 0.005422091 -0.21122745
000210 fa 7b 0b be f3 e3 82 3d 47 af 2d bd d3 ed 48 be
       -0.13621512 0.06391134 -0.042403486 -0.19621973
000220 76 43 02 3e 9f 72 1e 3e 49 64 34 3e 6e 93 23 3e
       0.12721047 0.15473412 0.17616381 0.15974209
000230 cd 3e 28 bd 35 04 96 3e 19 10 3d 3e d9 c1 df bd
       -0.041075516 0.29300085 0.18463172 -0.109256454
000240 b3 ef 00 3e 1d b3 84 be 45 d4 da 3d 86 31 c5 bd
       0.12591438 -0.25917903 0.106850185 -0.096285865
000250 65 03 4f 3e a1 24 26 be cc 89 f9 bd 8c fa 9d 3e
       0.20216139 -0.1622491 -0.12184486 0.30855215
000260 92 f3 76 be 62 38 9a 3e ac 9c 0a 3e 7c 24 e7 3c
       -0.24116352 0.30121142 0.13536328 0.02821564
000270 35 10 09 3e 72 c3 85 3e 67 fd 80 bc a7 a8 04 3e
       0.13385089 0.26125675 -0.015745832 0.12954961
000280 2b dc 1c 3e 7f 24 83 be 30 3d 0e 3e aa d1 8c 3e
       0.15318362 -0.25613782 0.13890529 0.2750371
000290 fb 98 93 3e 89 4b 81 3e b7 4f 9e 3e a2 09 92 3e
       0.28827652 0.2525294 0.30920193 0.28522974
0002a0 2c 9a 1b 3d 91 d0 47 3e 9c a6 a3 3e db 07 81 3e
       0.037988827 0.19513156 0.3196305 0.25201306
0002b0 68 97 8a be 70 5c 5a 3e 40 7f a2 bd 88 ee 8c be
       -0.2706864 0.21324325 -0.07934427 -0.27525735
0002c0 f3 89 1d bc 4c 8d 05 be 70 ef 3e 3d 6c 84 67 be
       -0.009615409 -0.13042182 0.046615064 -0.22609109
0002d0 50 64 09 3d 7d d0 5a 3e e7 8f 27 be af 39 18 3d
       0.03354293 0.21368594 -0.16363488 0.037164386
0002e0 72 12 44 be 59 09 49 bd 18 7c 40 be 0a 33 38 be
       -0.19147661 -0.04908118 -0.18797338 -0.1798822
0002f0 16 70 1c 3d e4 98 92 3e be b5 85 3e f5 c0 67 3d
       0.03819283 0.2863227 0.2611522 0.056580503
000300 d6 d4 06 be 57 2a 7f 3e 7c 09 d0 bd 4b d2 9b bd
       -0.13167128 0.24918495 -0.10158059 -0.076084696
000310 0f fc e4 3d de bd 06 be c0 80 f1 3d 32 e8 17 3e
       0.11180889 -0.13158366 0.11792135 0.14834669
000320 ee 8f 27 bd d6 2c 01 3e ab 26 ae bc 8d 5d 9c 3e
       -0.040908746 0.1261476 -0.021258673 0.30540124
000330 6a 85 ed 3d a0 d3 29 be 2d cf 5d 3e 37 4e e3 3d
       0.11597712 -0.16584635 0.21661063 0.11098903
000340 b1 52 59 3e 5a 86 94 be 5c f9 74 3e ba b4 93 3e
       0.2122295 -0.29008752 0.23923248 0.2884882
000350 78 59 05 3e f5 95 67 be eb 0b 88 3e 2f 25 79 be
       0.13022411 -0.22615798 0.26571593 -0.2433059
000360 06 4c c6 bd 72 ac f5 bb 20 34 31 3e 28 d5 be bd
       -0.09682469 -0.0074973637 0.1730504 -0.09318
000370 6f 2d a1 be b8 6a 2b be 82 78 fe 3c 96 c7 65 3e
       -0.31479976 -0.16739929 0.031063322 0.22439417
000380 82 44 6c 3e 37 ac 9c be ab 01 2d 3c b6 e0 e7 3d
       0.23073009 -0.3060014 0.01055948 0.11322157
000390 bb ff e4 bb 09 ac 87 3e bd 77 8a bd c3 28 f1 bd
       -0.0069884933 0.2649844 -0.067611195 -0.11775353
0003a0 d3 3e 8a 3e b4 4b 88 3b f5 73 51 be 2c 48 55 3e
       0.27001056 0.004159415 -0.2045439 0.20828313
0003b0 26 a5 e3 3d 61 a8 5a be 7a f7 20 3e b6 5a dc bd
       0.11115484 -0.21353294 0.15719405 -0.10759489
0003c0 1f d3 b8 3d 22 2d 49 3b 25 73 7e be 0a 39 b9 3d
       0.09024643 0.0030697067 -0.24848612 0.090440825
0003d0 21 7d 01 3e a7 ce 57 3e 03 e0 15 bd 05 36 a2 bd
       0.12645389 0.21074925 -0.036590587 -0.0792046
0003e0 99 25 c7 bd d2 33 ac bd ee a6 00 3e 92 20 b5 bd
       -0.09723968 -0.084083214 0.12563679 -0.08844103
0003f0 73 cf a2 3d 0c 20 97 3e 71 d1 fe bb 13 72 86 3c
       0.07949724 0.29516637 -0.007776432 0.016411817

head.3.weight f4 [256, 512]
000000 e6 bd fb bc 25 e8 8c 3a e4 79 78 bc bc d8 4b bc
       -0.0307302 0.0010750337 -0.01516578 -0.01244181
000010 5d 47 be bb d6 64 04 bd eb 42 ed bc 93 42 d0 bc
       -0.005806847 -0.032322727 -0.028962573 -0.02542237
000020 67 49 b0 bc f7 72 f7 3c e1 76 64 bd 7c 08 3a bd
       -0.021519376 0.030206187 -0.055777434 -0.045418248
000030 bb 7b 3c bd 27 43 10 bd 9f 88 29 bc 1e e8 da bb
       -0.046016436 -0.03522029 -0.010347514 -0.0066805026
000040 c2 29 13 bd b0 71 eb 3c a0 3c 7f 3d fb c5 0d bc
       -0.035928495 0.028740734 0.062313676 -0.008653159
000050 bc a0 80 bc a7 8d 83 3c c9 92 1f 3d 6d 89 b2 bb
       -0.015701644 0.016058756 0.038958345 -0.0054485113
000060 8b 4f c4 3a 32 63 ca bc b5 df dc 3c 65 b6 60 bd
       0.0014977319 -0.024705503 0.02696214 -0.054861445
000070 dc 3e 91 bc 89 67 62 3d 85 3a 1b bd b6 d5 57 3d
       -0.017730169 0.05527452 -0.037897605 0.052694045
000080 8f ed 8c 3d cf 11 18 bd 02 96 2d bd e3 a9 ae ba
       0.06881248 -0.03712636 -0.042379387 -0.0013325777
000090 ef f1 11 bd 68 1f dc bc 5c ab 41 3d 20 67 40 3d
       -0.035631116 -0.026870444 0.04728256 0.046973348
0000a0 01 27 6c bd 93 84 23 bd 4f ae cd bc 26 f1 76 3a
       -0.057654385 -0.039921355 -0.02510753 0.0009420089
0000b0 f8 2a 06 bb d9 51 25 3d b8 16 d9 bc 88 07 ae 3c
       -0.0020472389 0.04036126 -0.026500091 0.021243826
0000c0 ca 06 b3 bc f2 5d 2a bd 7e 8d 6d 3d cc 1c 4e bc
       -0.021853823 -0.0415935 0.057996266 -0.012580108
0000d0 ec d2 68 bb ee 7d 1c bd 57 39 16 bd 13 20 65 bc
       -0.003552611 -0.038206033 -0.036675777 -0.013984698
0000e0 b9 a6 34 bd b8 50 f7 bc 30 af 12 bc e3 13 de bc
       -0.04410431 -0.030189857 -0.008952901 -0.027109092
0000f0 ba 58 03 bc 86 49 95 bc 8e af 34 bd 58 10 28 3d
       -0.0080167595 -0.018223535 -0.044112734 0.04103121
000100 ea 1d 81 3b 25 4c b0 3c 8a a9 4c 3c d0 04 6a bc
       0.0039403336 0.021520684 0.012491593 -0.014283374
000110 76 f0 3e bc b0 cc 94 3d 69 cc d0 bb 91 e7 dc bc
       -0.01165401 0.072656035 -0.006372024 -0.026965888
000120 a3 cb 06 3c 2e 39 75 3b 80 9d e7 3b 96 d6 a1 3c
       0.008227262 0.0037418115 0.007068336 0.019755643
000130 d1 78 f6 3c 49 06 17 3d 78 2d b7 bc e8 c0 0c 3c
       0.030086907 0.03687123 -0.022360548 0.008590914
000140 31 c4 96 3c 6a 2e 1a bd c9 89 c2 bc 86 74 c4 bc
       0.018404098 -0.03764192 -0.023747342 -0.023981344
000150 c7 2c 87 3c a0 b9 1f bc aa 07 57 bb 8c a3 6e bd
       0.016500844 -0.009748846 -0.0032810965 -0.05826144
000160 fc c2 03 bc 31 50 44 3d c5 7d 3b bc 6f 81 e5 bc
       -0.008042093 0.04792804 -0.01144356 -0.02801582
000170 86 d4 42 3d 68 af fe bc 45 bf b9 3c c1 62 d8 3c
       0.04756596 -0.0310895 0.022674212 0.026414277
000180 55 93 06 bc 05 5c 96 3c 05 72 20 bc 04 59 ec 3c
       -0.008213838 0.018354425 -0.009792809 0.02885104
000190 60 68 e9 bc 06 ee 64 bd 66 03 c1 bc d5 82 c0 3b
       -0.028492153 -0.05589106 -0.02356119 0.0058749714
0001a0 ca 53 19 3d fc ea 05 bd b4 ba 93 3c 7b 60 82 39
       0.037433423 -0.0326948 0.018033363 0.00024867416
0001b0 45 bb 02 3d 4e 6f a2 bb 5a e8 c8 3c 8f 42 9a bc
       0.031916875 -0.004957116 0.024524856 -0.018830566
0001c0 ff 4a af 3c 6d 92 cc bc 6d 6b fa bc ea 7d 16 bd
       0.021398066 -0.024972165 -0.030568803 -0.036741175
0001d0 68 a1 a4 3c ec a5 87 bc 0d 0b 99 bc d6 f0 11 3d
       0.020096496 -0.01655861 -0.018682027 0.03563007
0001e0 2e 08 91 3c 54 4b a6 3c ad d7 96 3b 30 7d b1 3c
       0.017704096 0.020299591 0.0046033473 0.02166614
0001f0 7e 84 86 3a 0d e2 29 bd c9 ba 01 3b 8a c5 6e bd
       0.0010262874 -0.041475344 0.001979517 -0.058293857
000200 b6 de 8d 3a 33 75 dd bc ea 7f 24 bd c6 af 35 3c
       0.0010823819 -0.027033424 -0.04016105 0.011089271
000210 05 ec e3 bc f1 f2 94 bc eb 97 2d 3c 3b 50 af bb
       -0.027822504 -0.01818225 0.010595302 -0.0053501404
000220 fa ec 09 bc f0 ba 01 bd 6e 0c 1b 3c bc 39 15 bc
       -0.008418316 -0.031672418 0.009463413 -0.009108003
000230 db 8d 9e 3a 92 97 6c bb 58 72 6e bc a0 0c d9 ba
       0.001209672 -0.0036101085 -0.014553629 -0.0016559549
000240 22 9e e5 bc 05 6d 84 bb d6 a6 ab 3c 39 ae 80 bc
       -0.028029505 -0.0040413165 0.020953577 -0.015708076
000250 97 0a c4 3b 2e fd 34 ba 21 77 a3 3c 6f 62 81 3c
       0.0059827077 -0.0006904182 0.019954266 0.015794007
000260 7d 80 fd bc ea 82 c7 3b 6f 6c ae 3c 90 33 0a 3d
       -0.030945057 0.006088604 0.02129194 0.03374058
000270 47 4d b1 3c 61 03 46 3c 2d 62 f0 3c c4 ed cb 3c
       0.021643294 0.0120857665 0.029343689 0.024893649
000280 fe 85 24 bd dd a7 39 3d 99 e3 88 bc 16 54 8b 3b
       -0.040166847 0.045326103 -0.01671009 0.004251967
000290 da bd a2 3c 49 01 5e bd 0c 5d c2 bb 38 57 00 3d
       0.019865919 -0.054200444 -0.005931502 0.03133318
0002a0 fe 8e 8d bc ad 5b f8 bc 1f d0 83 bc 42 85 97 3b
       -0.017280098 -0.030317152 -0.01609045 0.00462404
0002b0 b3 1c 40 bd 11 b8 5b bd 41 15 c3 3c ee 98 84 bc
       -0.04690237 -0.053642336 0.023813846 -0.016186204
0002c0 06 e6 8e bc 10 f0 ac bc b8 f2 5b bd 49 ba 2b bc
       -0.017443668 -0.021110564 -0.05369827 -0.010481426
0002d0 2b db 16 bd 31 4a a7 bc ef 8a 1a 3c 88 60 34 3d
       -0.03683011 -0.02042112 0.009432538 0.044037372
0002e0 f3 42 63 bd 3a d5 03 bd 4c 97 2e 3c 17 ff 02 bd
       -0.05548377 -0.03218577 0.010656189 -0.031981554
0002f0 f3 55 f9 3c e2 a4 78 3c 34 da de bc 9e a2 dc 3c
       0.030436492 0.01517603 -0.027203657 0.02693301
000300 e0 5a 5a bc b2 60 19 3d 78 56 29 3d dc 2c e2 3b
       -0.01332733 0.03744573 0.04134223 0.0069023203
000310 98 da 3b bc e8 e5 9f 3c f2 88 b9 bc 3d dc 68 bc
       -0.011465691 0.019518808 -0.022648308 -0.014212665
000320 4d a7 8b bb 07 29 03 bc e9 39 40 bd 70 e2 1c 3c
       -0.004261887 -0.008005387 -0.046930227 0.009575471
000330 4b 79 00 3d e3 59 23 bd c5 75 95 3a a5 3a 9f 3c
       0.031365674 -0.039880645 0.0011402896 0.019437144
000340 87 5d 94 3c 86 54 10 3c 84 bc 57 3c 60 05 c5 3b
       0.018111004 0.008809214 0.013167504 0.0060126036
000350 8d f3 53 bd 31 6e a9 3c 54 27 4e b8 56 9f 10 bd
       -0.05174594 0.020682426 -4.9150854e-05 -0.035308205
000360 23 34 f7 3c 5f a7 12 3c 68 72 3e bc 7e ae 11 bd
       0.030176228 0.008951037 -0.011623956 -0.0355668
000370 07 bb db 3b 9c a9 1b 3d a7 c8 10 3d ac d8 13 bd
       0.006705645 0.03800355 0.035347607 -0.036095306
000380 df fa 27 3c 76 1d bd bc 4a 77 bb bc bb 4d a0 3c
       0.010252683 -0.023085337 -0.02288403 0.019568315
000390 76 62 1f 3a 7f 21 eb 3c c4 dd ad b9 17 7f 35 3d
       0.00060800405 0.028702496 -0.0003316236 0.044310655
0003a0 5e d3 1a 3d f7 de 84 3b 9e f5 54 3d 39 9a d9 bc
       0.03779923 0.0040549 0.05199205 -0.026562797
0003b0 4c 8a b4 3b ed 80 14 3d 09 91 0a 3d 71 f1 2a bb
       0.0055096503 0.036255766 0.033829723 -0.0026083852
0003c0 07 22 7e bc ea b6 91 bc 0e d4 50 3c 5d b9 06 bd
       -0.015511042 -0.017787416 0.01274587 -0.03289162
0003d0 01 a4 11 3c 4d b8 fb 3c 10 fb 4b bc 55 51 64 bc
       0.008889199 0.03072753 -0.012449995 -0.013935407
0003e0 f2 8b c1 3b 39 b6 34 3b ea b2 cf bc 97 c5 2e 3d
       0.0059065754 0.0027574433 -0.025353868 0.042668905
0003f0 c8 9a 14 3d 0c 14 ff bc d9 13 4d 3d 0d 82 71 bd
       0.036280423 -0.031137489 0.050067756 -0.058961917

head.3.bias f4 [256]
000000 a7 0a 2d bd f9 c2 69 3c b9 8e 9b bc 13 ee d6 bc
       -0.042246487 0.0142676765 -0.018988954 -0.02623657
000010 57 b6 dd bc 5e 20 44 bc ce f0 0c bd 57 8e 0f 3c
       -0.027064485 -0.011970608 -0.034409337 0.008761964
000020 07 3b 2a bb c6 65 32 bd 0f 36 1c bd 8b d6 0f 3c
       -0.0025975124 -0.04355409 -0.03813749 0.008779178
000030 c9 16 df 3c fa a0 12 bd 88 ad e2 bc 20 bb 2e 3d
       0.027232544 -0.03579805 -0.027670637 0.042658925
000040 a0 dc 4e 3c d9 73 dd bc 7a a1 24 3d 5c 58 47 39
       0.012625843 -0.02703278 0.04019306 0.00019011035
000050 f3 33 9f 3c c0 5d 1e 3d 72 13 90 bc 58 18 93 bc
       0.019433951 0.038663626 -0.017587397 -0.017955944
000060 d6 cd 20 bd 01 f2 05 3d 7b 2e 88 3c c0 f8 f8 3c
       -0.0392588 0.032701496 0.016623726 0.03039205
000070 d3 ff d6 bc a4 96 f6 3c a2 27 d3 3c 4c a5 e9 bc
       -0.026245033 0.030101128 0.025775734 -0.028521203
000080 d6 15 1f 3d fb ea 1e bd 9f 2a be 3c f5 46 81 bb
       0.038839184 -0.038798314 0.023213683 -0.0039452263
000090 84 b7 6b bc 07 3a 07 3c 9a 39 1b 3d b1 01 94 bc
       -0.014387015 0.008253581 0.03789673 -0.018067213
0000a0 a3 ac 1b bd 31 8a 1c bd 22 2d 1a 3d 19 10 b7 bc
       -0.038006436 -0.038217727 0.0376407 -0.022346543
0000b0 85 d9 fd bc e0 9e af 3c 24 c8 55 3c 09 dc 00 3d
       -0.03098751 0.021438062 0.0130482055 0.031459842
0000c0 c7 45 ed bb dc e3 99 bc 54 b1 ec bb 72 60 3a bb
       -0.007240984 -0.01878541 -0.0072232876 -0.0028438834
0000d0 fe 2a 23 3d 01 9b 0a bd 99 7a 26 3d 0e 26 b7 3a
       0.039835922 -0.03383923 0.040644262 0.0013973133
0000e0 6e 4a 39 3c 86 0b e5 39 07 e4 cf 3b b5 3c a7 b8
       0.011309249 0.0004368687 0.0063443216 -7.974488e-05
0000f0 2d 3d f6 bc d5 7c 37 3d 83 5e 61 3b 3b 8c 29 bc
       -0.030058468 0.044796783 0.0034388609 -0.010348375
000100 be f2 d2 bb 4c 7e 6b bc fd 38 4b bd e8 f5 37 3d
       -0.0064376285 -0.014373373 -0.049614895 0.04491225
000110 7b 42 9a bc c0 00 de bc d4 53 5b 3b 13 f3 93 bc
       -0.018830528 -0.027099967 0.0033466714 -0.018060243
000120 17 7b 8d 3c d4 88 00 bd ac 1a e1 bb c4 d4 42 3c
       0.017270608 -0.03138049 -0.0068696346 0.011891548
000130 db 09 dc bc ab 40 12 3d eb 95 5c bc 08 ba 05 3d
       -0.026860168 0.035706203 -0.013463478 0.032648116
000140 1e 5c 77 3c e7 ca d0 bc bb a1 bd bc 71 ad 32 3b
       0.015097646 -0.025487376 -0.023148408 0.0027264024
000150 bf 29 d6 bb 31 2f 6b 3c ba ee 11 bd b0 7a f1 bb
       -0.0065357382 0.014354513 -0.035628058 -0.007369362
000160 cb d5 34 3d 17 eb 36 3d d4 45 56 3c de eb 35 bd
       0.0441492 0.044657793 0.013078172 -0.044414394
000170 a2 aa 43 3b cb 1c 1a 3d 5e 0a c8 3c 98 56 1b 3d
       0.0029856344 0.037625115 0.024419006 0.03792438
000180 cd cd f5 bc 0b 80 08 3d f6 66 f6 3b b7 d6 16 bd
       -0.03000536 0.033325236 0.007519598 -0.03682586
000190 ce f2 98 3c cf ac 79 bc 7a 10 09 bd ae 78 ed 3c
       0.018670466 -0.015238955 -0.03346298 0.028988209
0001a0 00 a3 18 bd cc bc ba 38 79 fd 2e bd 35 d2 43 bd
       -0.037264824 8.904337e-05 -0.0427222 -0.04780789
0001b0 a6 69 da 3c 21 7a 2c bd 97 72 13 3d f2 91 35 bd
       0.026661705 -0.04210866 0.035997953 -0.044328637
0001c0 23 5a d0 bc 05 8c ad 3a 4b a1 45 39 d1 2e 02 bd
       -0.025433606 0.0013240582 0.0001884747 -0.03178293
0001d0 09 e3 0d 3d f7 f5 c6 bc 8e cf 56 bb 28 02 83 bc
       0.034640346 -0.024287207 -0.003277752 -0.01599224
0001e0 da fe b6 3b c3 e1 fc bc b0 46 be 3c 22 5c c2 bc
       0.00558458 -0.03086937 0.023227066 -0.023725573
0001f0 32 52 4e bc 96 0b 05 3d 10 fd 11 3c 2d 5f 00 3d
       -0.012592839 0.032481752 0.008910432 0.031340767
000200 93 4c da bc 5a 3b 6c 3c a3 91 26 3d 2e d7 9e bb
       -0.026647842 0.014418447 0.040666234 -0.0048474288
000210 fb c2 23 3d 83 5f 0b 3c b3 c3 0f bd 2a 06 aa bc
       0.03998087 0.0085066585 -0.035098743 -0.020754892
000220 1a 8f a1 bb 7c 3b 04 bd 31 ef 13 3d dc 3b 0b 3d
       -0.004930389 -0.03228329 0.036116783 0.033992633
000230 76 1a b5 bb 80 3d 04 3b d2 8f 0a 3d bc 49 9e bb
       -0.005526836 0.0020178258 0.033828564 -0.004830567
000240 5b 80 d3 3c 9b b3 30 bd e4 59 1a bc 95 ef 90 bb
       0.02581804 -0.043140035 -0.009420846 -0.0044230917
000250 c1 b9 23 bd 76 b9 22 3c b2 cf 6b bc 0d 85 38 bd
       -0.03997207 0.009931913 -0.01439278 -0.045048762
000260 5b d5 9f bb 61 f7 91 3c 21 74 59 bc 83 aa d4 bb
       -0.004877729 0.017818155 -0.013272316 -0.006490053
000270 36 ec 21 3d 90 11 d0 3a b3 66 1b bd c3 b5 15 3d
       0.03953191 0.0015874375 -0.03793974 0.036550295
000280 ca bd fe 3c 56 ff b1 3c 3f ff 93 3b f5 ee 2d 3d
       0.031096358 0.021728199 0.0045165117 0.042464215
000290 e2 af 89 bc 39 61 9a bb 1d 08 97 3b d0 44 55 3c
       -0.0168075 -0.004711297 0.0046091215 0.013016894
0002a0 73 38 8f 3c a2 79 0f 3d 74 3f 43 3c 8a 3b a7 bb
       0.017482972 0.035028107 0.011916984 -0.005103533
0002b0 a6 bf 30 3d c8 ca dc 3c 57 aa 97 bb c1 af fa bb
       0.04315152 0.026952162 -0.0046284604 -0.007650346
0002c0 48 ab 0f bd d4 02 0c bd 9a 8d 0c 3c f1 31 01 3d
       -0.035075456 -0.034182385 0.008578682 0.03154177
0002d0 a0 c9 03 bd 29 eb e5 3c 23 e9 ed bc 2c 0d 1d 3d
       -0.032174706 0.028066235 -0.029041832 0.03834264
0002e0 66 bf 7a 3a 9f 0b 55 3c 3f e2 41 bd 1f ef 12 bc
       0.0009565264 0.013003259 -0.047334906 -0.008968144
0002f0 17 ca a9 bb fb 48 eb bc 7d e0 36 bd 27 be 8d 3c
       -0.0051815617 -0.028721323 -0.044647682 0.017302586
000300 6a cf 1b bd 24 53 9c 3b 50 89 e5 bc e4 5a 87 bc
       -0.038039602 0.0047706533 -0.028019577 -0.016522832
000310 95 f0 9c 3c 4d 02 01 bd 39 85 0d bd 53 d3 e9 3c
       0.019157687 -0.031496335 -0.03455088 0.02854315
000320 0f b9 3e bd 9b b4 e0 bc 4a 0a c5 bb 97 0b 42 bc
       -0.046563204 -0.02742987 -0.0060131894 -0.011843584
000330 87 0a 4e bd 3b e8 61 bc a7 61 d1 bb e7 91 1e 3d
       -0.05030301 -0.013788278 -0.006389815 0.038713362
000340 13 c0 d4 bc 03 75 1b bd 0c 5d ce 3c 17 06 15 3d
       -0.025970494 -0.037953388 0.025190853 0.03638276
000350 fd 39 b1 3c 51 5f ff 3c a0 b7 86 3c 2c 1c 25 bc
       0.021634096 0.03117338 0.016444981 -0.0100775175
000360 ab 1e ab bc db 3c 1b bc 24 01 01 bd 12 ad 0c bd
       -0.020888647 -0.009474958 -0.03149523 -0.03434474
000370 5c e1 b3 bc 38 3e 0c 3d 18 c8 2b 3c 2e 19 2b 3d
       -0.021958046 0.034239024 0.010484718 0.04177206
000380 50 cd e3 bc 0e 27 42 bd 95 03 3e bc 33 85 22 3c
       -0.027807862 -0.047400527 -0.011597534 0.0099194525
000390 e3 2d d4 bc 21 b8 71 bc 36 71 0d bc e6 4b 0a 3d
       -0.025900787 -0.014753372 -0.008632949 0.03376379
0003a0 79 93 cc bc ed 19 2c bd 33 60 d3 bc 6e b4 38 3d
       -0.024972664 -0.042016912 -0.025802707 0.045093946
0003b0 52 f6 a3 3c 32 1a 69 3b 7f 6b 12 3b ed b8 1c bc
       0.020014916 0.0035568592 0.0022341905 -0.009565574
0003c0 2b 35 1a bc 36 9c a5 3b 0b fa 82 bc c1 ae 54 3c
       -0.00941209 0.005054022 -0.01598837 0.012981118
0003d0 5c 64 99 3c da a6 14 3d b8 02 17 3d d5 8c 20 3c
       0.018724613 0.036291935 0.036867827 0.009799202
0003e0 e6 8e b9 3c 71 c9 78 3c 55 a2 e3 3c 42 72 36 bd
       0.022651147 0.015184746 0.027787367 -0.04454256
0003f0 7f f8 e7 bb 84 45 fb bb ec 62 18 3c c5 e7 86 3c
       -0.0070791836 -0.007668199 0.009300929 0.016467938

head.6.weight f4 [128, 256]
000000 c7 4b 9c 3c 74 ff 74 3c 2b 24 4f 3d 96 86 30 bc
       0.019079102 0.014953483 0.0505716 -0.010774275
000010 18 df 59 3d 29 39 32 bd 44 a8 b5 bb 79 63 85 3d
       0.053191274 -0.043511543 -0.0055437405 0.065131135
000020 6d fc 27 bd 4e a0 9a 3a 23 d4 87 3c 7a 4d 39 3c
       -0.041012216 0.0011797042 0.016580647 0.011309976
000030 ff 57 10 3d 8b 5b af 3c bd 17 7e bd f3 37 28 3c
       0.03524017 0.021405956 -0.062034357 0.010267246
000040 8c c3 9e 3c 49 fc 55 bd 19 80 ea bc 05 30 f0 bc
       0.019380353 -0.05224255 -0.028625535 -0.029319772
000050 87 bc 15 3c 87 b8 bd bc 86 99 96 3c 74 c4 0c 3d
       0.009139187 -0.023159279 0.018383753 0.03436704
000060 b8 e9 6d 3d 22 08 0d bd 03 97 5d bd fe 48 01 bd
       0.05808422 -0.034431584 -0.054099094 -0.03156375
000070 a7 86 58 bd 48 c5 8a bc f4 37 ba 3c be ad df bc
       -0.05286279 -0.016939774 0.022731759 -0.027304526
000080 26 a6 b3 3b 3c 35 69 3d ca cb a5 3c 19 6d 62 bd
       0.005482453 0.056935534 0.020238776 -0.055279825
000090 77 af d1 3c ad ec 45 bd 10 e7 85 3b 25 23 3a 3d
       0.025596363 -0.048321415 0.0040863827 0.045443673
0000a0 0e d7 c9 3c 62 82 5e bd 84 64 3b bd cc 72 0c 3d
       0.024638679 -0.05432356 -0.045750156 0.034289166
0000b0 df 63 33 bb 57 28 5f 3c e3 31 0e 3d 88 1c 95 3c
       -0.002737276 0.013620458 0.034715544 0.018202081
0000c0 2d 3a 26 bd 85 28 b3 bc 5c c2 21 bd 4c f6 ca 3a
       -0.040582824 -0.021869907 -0.039491996 0.0015484779
0000d0 ec 1f 1e bd e4 45 2f bc 14 58 40 3d 95 1a ae ba
       -0.03860466 -0.010697816 0.046958998 -0.0013283069
0000e0 41 b8 f5 bc 56 86 ad bc e3 f1 b7 3c 7b 41 d3 bc
       -0.029995086 -0.02118222 0.022454208 -0.02578806
0000f0 be 2c 06 bd 72 93 8c bc 2a f3 31 bc 8b 9c 8a 3c
       -0.032757513 -0.017160151 -0.0108611975 0.016920349
000100 a8 13 68 3d 29 4f 05 3d d7 28 7b 3d 0c ed ce bc
       0.05665937 0.032546196 0.061318245 -0.025259517
000110 c4 30 ac 3b 67 7a 5a 3d 8b 6c 66 3d 34 b1 b3 3c
       0.0052548368 0.05333939 0.05625586 0.021935083
000120 ce 20 38 bd 9e 2d 28 3d 99 23 52 3d e8 2f e3 bc
       -0.04495316 0.04105913 0.05130348 -0.027732804
000130 44 b1 4b 3d 41 0c 9d bc 04 0e e3 bc 09 9f 45 bd
       0.0497296 -0.019170882 -0.027716644 -0.04824737
000140 52 6c 07 3d b5 c9 31 3d 5a 44 16 3d 21 ca a3 3c
       0.033062287 0.043405253 0.03668628 0.019993844
000150 52 28 a4 3b ee 2b 39 3d a3 0a 18 bd 25 27 98 bc
       0.0050096894 0.04520791 -0.03711952 -0.018573353
000160 36 d4 1b 3d 16 5d 84 3d 2e 7f d4 bc 0a 8a 2e bd
       0.038044177 0.06463067 -0.02593955 -0.042612113
000170 25 8f 36 3d 87 a2 e4 3c bd ab 16 bd b8 cd 31 bd
       0.044570107 0.02790953 -0.036784876 -0.04340908
000180 a1 86 80 3c 67 9f a6 b9 02 83 b9 3c ca 3e c0 3c
       0.015689196 -0.0003178075 0.022645477 0.02346744
000190 c5 a7 de 3c aa 6d c7 3c f6 11 13 3d e7 44 c7 3c
       0.027179608 0.024344284 0.0359058 0.024324847
0001a0 35 b5 5f 3d d8 58 be bb d3 a9 6e 3d 3d 74 59 3c
       0.054616172 -0.005808931 0.058267426 0.013272342
0001b0 6d ca 23 bd 52 63 95 bc 79 58 33 bc bd 7b 37 3d
       -0.03998797 -0.018235836 -0.0109463865 0.04479574
0001c0 0a 16 ab 3c 93 90 ab 3a 61 7a 1b bd c1 a3 01 3c
       0.020884532 0.0013089351 -0.037958506 0.007912577
0001d0 c4 d8 fe bc 9f e7 4f 3c 86 97 48 bd 0e a1 b7 3c
       -0.031109221 0.0126895 -0.04897263 0.022415664
0001e0 f2 9c 72 3d d3 1a 73 3d e5 e7 30 3d 4c 43 0d bd
       0.059231706 0.059351753 0.0431899 -0.034488007
0001f0 2a 91 2f 3d 45 e3 19 bd e5 a5 10 3d 2a d6 82 bb
       0.04286305 -0.037570257 0.03531446 -0.0039928155
000200 e0 86 84 bc 94 47 01 bd ba 35 88 bd 70 2c ac 3b
       -0.016177595 -0.031562403 -0.066508725 0.005254321
000210 5d d9 6c bc df 9f 23 bd 54 78 07 3d c6 d1 2e bd
       -0.01445612 -0.039947387 0.03307374 -0.042680524
000220 24 f9 7d 3d 75 61 6c bd 06 82 19 3c 5b 81 2d 3d
       0.062005177 -0.05771013 0.009369379 0.04235969
000230 09 de 31 bd 38 8c fd bc c0 73 16 3d 34 3a 40 bd
       -0.04342464 -0.03095065 0.03673148 -0.046930507
000240 ba cd 58 bd d1 21 53 3d 2c 5e 7d bd 40 31 fe bc
       -0.05293057 0.05154592 -0.061857387 -0.031029344
000250 92 86 a1 bc 84 00 88 3a 98 3b 2b 3d df 09 78 3d
       -0.019717488 0.001037613 0.04180488 0.06055629
000260 22 50 7a bc eb a5 1b 3d 63 fa 0b 3c 52 a1 5f bb
       -0.015277894 0.03800003 0.008543584 -0.0034123254
000270 52 af 6f 3c 82 01 70 3c 60 fd cf 3b 37 86 22 bd
       0.014629202 0.014648797 0.0063473433 -0.03967878
000280 41 ed 66 3d 76 8f 3c 3d 59 2f 37 bd d7 49 82 bb
       0.056378607 0.046035253 -0.04472289 -0.0039760876
000290 e3 d9 2f 3d 4f ff 2a 3d 7a f7 41 bd cc 09 e4 3c
       0.042932402 0.041747387 -0.047355153 0.027836703
0002a0 f8 6a ae 3c 0d 70 18 3d 3f 71 9a bc 7a 5b 55 3d
       0.021291241 0.037216235 -0.018852828 0.052089192
0002b0 20 46 32 bd 65 8d 98 3c 45 f5 a8 bc 27 ef 00 bd
       -0.043523908 0.01862211 -0.020624766 -0.031478073
0002c0 9d 43 f8 3b 7b 01 87 3d de d8 a1 3b a6 ac 45 3d
       0.0075764195 0.06592079 0.0049391827 0.048260354
0002d0 9e 10 7e bd 9f ea 4b 3d 84 37 12 bd e9 15 0a bc
       -0.062027566 0.0497843 -0.035697475 -0.008428075
0002e0 f8 04 26 bc 5e d1 0d 3d c5 9c 0c bd 38 ea 42 3c
       -0.010133021 0.034623496 -0.034329195 0.011896662
0002f0 ee 36 b8 bb ba 70 03 bd 51 c4 0a bc 07 b2 f2 3c
       -0.0056217825 -0.032089926 -0.008469657 0.029625906
000300 f2 c9 92 b8 62 0c 26 bc da 31 52 bd 07 01 fc bc
       -6.999438e-05 -0.010134788 -0.051317073 -0.030762209
000310 79 94 53 3d e9 a4 6e bc b1 45 ed bc 7a e4 5f bd
       0.051655266 -0.014565685 -0.028963896 -0.05466125
000320 89 ca 66 bd 79 1c 9e bc 2f d2 80 3b 2d 9d 09 3d
       -0.056345496 -0.019300686 0.003931306 0.03359716
000330 0b 42 4d 3d 7e 92 5d 3d ca df 23 3b c8 20 d9 ba
       0.05011181 0.054094784 0.0025005215 -0.0016565556
000340 8d cc f4 bc 96 b3 c4 bc ff 62 47 3d 21 2d 32 3d
       -0.029882694 -0.024011414 0.048678394 0.04350007
000350 35 01 e1 3c 28 bb e4 3c 7c 60 16 3d ad 39 6d 3d
       0.027466396 0.027921274 0.03671311 0.057916332
000360 5f d9 e0 bc 2f dc 9d bb 80 a1 56 bd cc 4c 77 3d
       -0.0274474 -0.0048175077 -0.052400112 0.060375974
000370 ca de 80 bd ae 0b 75 bd dd 39 2a bd fd 25 85 bc
       -0.06292494 -0.05982559 -0.04155909 -0.016253466
000380 99 11 2f bd 39 41 81 3c 72 73 0f 3d f7 d3 ef 3c
       -0.04274139 0.01577817 0.035022207 0.029275877
000390 6b 57 34 3d bb 01 2b 3d 33 0d 0c 3d 48 81 4b bd
       0.04402868 0.041749697 0.034192275 -0.04968384
0003a0 88 a7 35 bc bc 77 63 bb 6c 4a 31 bc a2 ca 75 bd
       -0.011087306 -0.0034708818 -0.010820966 -0.0600077
0003b0 fe 5b a7 3c b8 12 c5 bc 21 e4 71 3c 4b 4c 75 3d
       0.020429607 -0.024056777 0.014763863 0.05988721
0003c0 75 5a 01 bd 47 d9 7c 3d 6d 49 46 3d 9a 09 25 3d
       -0.031580407 0.06173065 0.048409868 0.04029236
0003d0 ed 17 8d 3c 96 d8 9b bb 20 12 75 bd 99 0c 3a bd
       0.017223323 -0.0047560437 -0.05983174 -0.04542217
0003e0 33 f6 85 bd 80 0d 64 bd b0 d8 83 3c ad 08 36 bc
       -0.065410994 -0.055676937 0.016094536 -0.011110467
0003f0 77 c3 ab 3c d6 c4 07 3d 4a 2c 40 3c 8e 68 20 3d
       0.020967228 0.0331467 0.011729309 0.03916221

head.6.bias f4 [128]
000000 d6 6b a3 bb c5 21 6f bc 72 80 44 bd 8f b6 91 3c
       -0.0049872203 -0.014595454 -0.047974057 0.017787246
000010 a6 69 ce 3c 66 7a a9 3c 40 bd 75 3c 95 20 12 bd
       0.025196861 0.020688247 0.014998734 -0.035675604
000020 f8 11 de bc e6 b5 38 3d 3e e1 2d bd dd c3 2a bd
       -0.027108178 0.045095347 -0.042451136 -0.041690696
000030 16 7f 67 3d 36 45 1b 3d c8 2c 2f 3c d8 2c 18 bd
       0.056517683 0.0379078 0.010691829 -0.03715214
000040 6f 54 f9 3c 12 e5 1a bd a4 dc 19 bd 6d a6 da bc
       0.030435769 -0.037816115 -0.037563935 -0.026690686
000050 dd a6 48 3d 1c 83 88 3d fc aa bb bc 47 97 a6 3c
       0.04898726 0.06665632 -0.02290868 0.020335807
000060 97 1b 69 3c 63 4e 6e 3d 32 d0 c9 b8 6f 5e 8b bc
       0.014227769 0.058180224 -9.623206e-05 -0.017012803
000070 de 0a 6e 3d 41 cf 2d 3d 7d 06 8a 3d d5 25 ac 3c
       0.058115833 0.04243398 0.06739519 0.021014133
000080 7b 52 5b 3d 0f 60 23 3d 7d e7 06 bc 37 2d 9e ba
       0.053545456 0.03988653 -0.008233902 -0.0012067918
000090 ef 1d 3a bd 9d ef 7f 3c 98 30 73 bd c8 d1 44 ba
       -0.045438703 0.015621093 -0.059372514 -0.00075080665
0000a0 00 f6 9f 3c fa 6a 9c bc 12 41 81 3d 3e 81 2c bc
       0.019526482 -0.01909398 0.06311239 -0.010528861
0000b0 e2 2a c0 3c 1b ff b7 3c 59 fd 81 3c 71 55 aa 3c
       0.023457948 0.022460511 0.015867876 0.020792695
0000c0 e2 73 9e bc e1 99 2e bd c5 fe a4 3c d2 f2 90 3d
       -0.019342367 -0.04262722 0.020141015 0.07077564
0000d0 ef e0 e5 3c 6e 49 0b bd 3a b5 85 b9 ff 97 74 3c
       0.028061358 -0.034005575 -0.0002550276 0.014928817
0000e0 83 33 10 bd 04 b1 ac bc f9 57 87 3d 6b 4f 20 bd
       -0.035205375 -0.021080501 0.06608576 -0.03913824
0000f0 bb 2a 8f 3d 1c 6a 8d 3c a2 19 5c bb 0d 8a 6c bd
       0.06990572 0.017262511 -0.0033584614 -0.057748843
000100 fc 1d 9d bc 38 e1 ae bc 2d 6f 5e bd 66 67 06 3c
       -0.019179337 -0.021347627 -0.054305244 0.008203363
000110 c2 67 3f 3d a4 21 21 bd a4 4d 8c bd 81 20 0c 3d
       0.04672981 -0.039338723 -0.06850746 0.034210686
000120 f1 44 68 3d e5 c7 23 3d 8c cb a0 bd 30 d3 3c 3d
       0.056706373 0.039985556 -0.078513235 0.04609984
000130 d3 83 f1 ba 00 aa 5e bd f1 e6 1d bd 1a a9 88 bd
       -0.0018426127 -0.054361343 -0.03855032 -0.066728786
000140 eb 02 f6 bc d1 2a 1e 3d 4a 83 36 3d b3 6d 54 3d
       -0.030030688 0.03861505 0.0445588 0.05186243
000150 df 06 a1 3c 86 75 23 3d ae b1 16 bd c1 68 e9 bc
       0.019656597 0.039907 -0.036790542 -0.028492333
000160 a7 69 f1 bc f3 57 7b 3b 29 01 f1 3b 74 53 d2 bc
       -0.029469324 0.0038351982 0.0073548746 -0.02567456
000170 3d 6a 83 bc f3 01 c2 bd 45 78 b3 bc cc 5a 8c 3d
       -0.01604187 -0.09473028 -0.021907935 0.06853256
000180 e5 22 3a bd d1 47 bf bd e1 f1 d0 bc 36 3a 97 bd
       -0.045443434 -0.0933987 -0.025505962 -0.0738415
000190 28 dd 8d 3d a5 3e 46 bd 49 d3 3f 3d 75 66 39 bd
       0.06926948 -0.048399586 0.046832357 -0.045263726
0001a0 29 ad 0f b9 8c 87 b7 bb a1 23 06 bd 62 24 ae 3c
       -0.0001370205 -0.0056008752 -0.032748822 0.021257583
0001b0 fe f4 f6 bc 53 02 7f 3d 32 56 a8 bd 9b 1b 23 3d
       -0.030146118 0.062258076 -0.082195655 0.03982125
0001c0 00 ff ea 3c b7 14 ee bc 7b e2 01 3d 2e 86 ec bc
       0.028686047 -0.029062612 0.03171013 -0.028872576
0001d0 d3 8f 65 3d a5 d8 76 3d d1 aa c5 bc 2d 13 5d bd
       0.056045365 0.060265202 -0.024129303 -0.053973366
0001e0 5e 78 55 bd ca 18 24 3d e5 c3 d8 bc 30 e5 9e bc
       -0.052116744 0.040062703 -0.026460597 -0.019396394
0001f0 2d f1 37 bd 65 47 9a 3d 0c 15 02 bd 8d 79 24 bc
       -0.044907738 0.07533149 -0.031758353 -0.010038746

head.9.weight f4 [7, 128]
000000 44 98 3f bd 6e b0 4d 3d 5c b4 b6 3b 1a 8b 91 3b
       -0.04677607 0.050217085 0.0055756997 0.004441631
000010 23 3e d9 bc 00 bf 5d 3d 2d b2 8c 3d 36 cd 18 bc
       -0.026518887 0.05413723 0.06869922 -0.00932627
000020 dd 9d 39 3d 53 3a 55 3d 98 53 ef 3b af 54 6b 3d
       0.045316566 0.052057575 0.0073036663 0.057453807
000030 29 b8 93 3c 63 3c 88 bd 96 e6 43 bd 03 94 f1 ba
       0.01803215 -0.06652143 -0.047827326 -0.0018430952
000040 f7 26 28 bc 23 63 34 3d ce 59 01 3b 10 91 51 3b
       -0.010263196 0.044039857 0.0019737366 0.0031977333
000050 d1 3e 9b 3d d4 5f 1c 3d 58 28 73 3c ea 16 3b ba
       0.07580341 0.038177326 0.014841162 -0.00071368983
000060 ff 40 3a 3d 06 0d 32 3d a9 43 65 3c b1 70 3c 3d
       0.04547214 0.04346945 0.013993182 0.04600591
000070 8f 3e 86 3b dc 02 5e bd a8 a6 87 3c 92 5b ac bc
       0.004096813 -0.054201946 0.01655896 -0.021039758
000080 f7 4f 80 3d 9c 1c 91 bd 3c 38 8d 3c a7 58 08 bb
       0.06265252 -0.07085535 0.017238729 -0.0020804794
000090 92 e9 0a bc 27 a7 47 3d 65 d8 6d bc 28 17 e9 bc
       -0.008478539 0.048743393 -0.0145169245 -0.028453425
0000a0 d0 de 85 bd 1f 0b 32 3b b3 6c 53 3d 1b 9a 0c 3d
       -0.06536639 0.0027167273 0.051617336 0.034326654
0000b0 99 6d 5b 3d 34 5b 08 3c 95 fc af 3c 45 a7 57 bd
       0.053571317 0.008322526 0.021482745 -0.052649755
0000c0 27 da 90 3c de c2 58 3d 47 2e 0e bd bf 3a 29 3d
       0.017682148 0.052920215 -0.034712102 0.04131579
0000d0 69 f4 69 3b ea 9e 3d 3d 43 7b 26 3d 22 80 f9 3b
       0.0035698658 0.04629413 0.040644895 0.0076141516
0000e0 89 51 16 3d 6d 9e 94 3c 0a c2 34 3d d0 28 16 bd
       0.03669885 0.01814195 0.044130363 -0.036660016
0000f0 5b 56 16 3c ad 27 85 3b a1 eb 1d 3b 51 08 ff bc
       0.009175862 0.0040635676 0.0024096745 -0.031131895
000100 17 e0 9d 3c 75 83 85 bd 58 86 d4 3c 32 37 84 bd
       0.019271893 -0.06519214 0.025942966 -0.0645584
000110 10 bc 5e 3c 08 8d b4 3b e0 01 e4 bc f7 90 86 3c
       0.013594642 0.0055099763 -0.027832925 0.016426546
000120 e1 23 20 3d ab b8 89 3d 8e 1c 9d 3b 13 0d 23 3d
       0.039096717 0.06724676 0.0047946637 0.03980739
000130 fe ed de bc 98 19 55 bd 97 d0 6d bd b5 f1 6b bd
       -0.027213093 -0.05202636 -0.058060255 -0.057603557
000140 54 6f 37 bd 5c 41 b1 bc c1 87 b4 3c 64 f6 8b 3c
       -0.044783905 -0.021637611 0.022037389 0.017085262
000150 a3 be 28 bd 31 b0 7c bc db 75 94 3d bd 21 86 bd
       -0.04119743 -0.015422867 0.07249042 -0.06549404
000160 a3 1d 65 bd 82 5f 2f 3d 34 30 3e bc 79 14 36 bd
       -0.055936467 0.042815693 -0.011608172 -0.044453118
000170 34 14 ea 3c 84 a7 99 bb 9d b7 60 3d c3 c2 57 3d
       0.028574087 -0.004689159 0.054862607 0.052675974
000180 90 a1 93 3b 07 e5 ba bb c7 3e 14 3d bf 8e 99 bc
       0.0045053437 -0.0057035717 0.03619268 -0.018744824
000190 9d ab 96 3d be 25 54 bd 5f 5e c2 bc 79 38 18 3b
       0.073569514 -0.051793806 -0.02372664 0.002322702
0001a0 86 0e 23 bd 0d 55 21 3d 2a 34 00 3c bd c8 6c 3d
       -0.039808773 0.03938775 0.007824937 0.057808626
0001b0 e1 30 e0 bc b8 3e 81 3b 06 24 1b 3b bb e0 ce 3b
       -0.027367057 0.0039442442 0.0023672595 0.006313411
0001c0 55 f4 81 3d 2b 80 39 bc f8 52 15 bd 95 e2 0f 3d
       0.06345431 -0.0113220615 -0.03645608 0.035128195
0001d0 ac 9a a9 39 c7 01 2d 3d 05 78 0d bc 1d e9 c7 3c
       0.0003234943 0.042238023 -0.008634572 0.02440315
0001e0 44 96 d8 39 b0 4e 6f 3c 7f 11 69 3d 6f 19 7c 3d
       0.00041310687 0.014606163 0.05690145 0.061547693
0001f0 a5 82 02 bd 94 88 a3 3c 9b 00 5b 3d 2b 3c 50 3b
       -0.031862874 0.019962586 0.053467374 0.0031774144
000200 66 be 19 3d 0e 53 a7 3d 44 7c ff bc a5 06 c7 3d
       0.037535094 0.08170138 -0.031187184 0.09718064
000210 98 68 60 bd 80 80 f2 39 b2 be 06 bd 1b c4 f3 3c
       -0.05478725 0.00046253577 -0.032896705 0.029756596
000220 8a 71 13 3d 65 3a 28 bd 6e 0b ed bc ea 79 e4 3c
       0.03599695 -0.041071314 -0.028936114 0.027890164
000230 38 db 10 be d7 6f 00 bd 0e ba c8 bd 2b 75 59 3d
       -0.14146125 -0.03135666 -0.09801112 0.053090256
000240 b0 30 9f 3c 2b b2 7b 3d b7 d6 10 3d fb 9e 52 3d
       0.019432396 0.06144921 0.035361018 0.051421147
000250 6e 7a 85 bd 3c 6b 44 3c 0a 3a 95 3d 95 14 53 bd
       -0.06517492 0.011988457 0.07286461 -0.0515333
000260 75 9b a0 bd d1 bc 15 be 89 0d d9 bd 16 94 46 bd
       -0.07842151 -0.14622809 -0.10598285 -0.04848107
000270 c2 ca 16 3d 66 17 76 bc 61 6d be 3c e9 4f c7 bc
       0.03681446 -0.015020227 0.023245515 -0.024330096
000280 1b b7 67 3d db f4 22 bd fb 68 3f 3d 72 c4 1a 3c
       0.056571107 -0.039784294 0.046730977 0.00944625
000290 4e 6a 96 3b 83 28 09 bb a5 c8 db 3d 34 8f d7 bd
       0.004590309 -0.0020928688 0.10731629 -0.10525361
0002a0 cf ef c5 3b 3f d0 99 bc 36 d4 e7 bb e4 b7 e7 3d
       0.0060405503 -0.018776057 -0.007074858 0.11314371
0002b0 84 1e 13 bd b7 da cc 3c b1 f3 e0 3d 73 46 e0 3b
       -0.035917774 0.025006635 0.109839804 0.0068443357
0002c0 d8 bc 1d 3d 13 39 6c bd fb b3 aa 3c 18 37 3a 3b
       0.038510174 -0.057671618 0.020837775 0.0028414186
0002d0 55 aa 00 3d 49 5f 88 3d 23 24 9d 3d e2 87 a2 bd
       0.03141244 0.06658799 0.07672908 -0.07936074
0002e0 10 9f e2 3b 2c 63 03 3e a1 f2 86 bd b9 6c 2e bd
       0.0069159344 0.128308 -0.065892465 -0.042584155
0002f0 b6 cc f4 ba 34 c6 43 bd 43 2d 43 bd 58 dc a0 3d
       -0.0018676731 -0.047796443 -0.047650587 0.07854527
000300 ca c1 8c 3d 2a f0 66 bd de fe 94 3d 09 25 a7 bd
       0.068729 -0.056381382 0.072751746 -0.08161361
000310 d9 dd 03 bc 55 ee 45 bd e8 68 37 bc 26 68 8a bd
       -0.008048498 -0.048322994 -0.011194445 -0.06758146
000320 79 2e 39 3d 63 44 b1 bd 12 36 c5 3d 53 97 e4 bd
       0.045210335 -0.08655622 0.09629454 -0.11161675
000330 7a 7e ed 3c 52 58 42 bd 1b 18 f8 bb f4 5f 55 3d
       0.028990973 -0.04744751 -0.007571233 0.05209346
000340 25 91 9f 3c a7 56 a0 bd 7a 7a 00 3c fd b6 b3 bd
       0.01947839 -0.078290276 0.007841701 -0.087751366
000350 39 29 43 3d f2 47 4b bb bc 00 93 3d 63 22 62 3d
       0.047646735 -0.0031018225 0.071778744 0.055208575
000360 90 83 35 bd 1f b4 fd bc bc cf dd 3d 75 98 c1 3d
       -0.04431492 -0.030969677 0.10830638 0.09452907
000370 9a 52 93 3d fc af a3 3c 51 92 9f bd 9d ea b9 bd
       0.071934894 0.019981377 -0.077915795 -0.09077952
000380 04 de 15 bd 39 41 2b 3c 66 76 4e 3d e6 53 dd 3d
       -0.036588684 0.010452562 0.050405882 0.10807018
000390 84 41 7e 3d b4 71 42 bd 1c 45 29 bc 9b c2 d9 bc
       0.0620742 -0.047471717 -0.010331418 -0.026582053
0003a0 85 f1 29 bd 34 7e 52 3d 9b 1c 0b 3d e0 59 90 3a
       -0.041490097 0.051389888 0.033962827 0.0011013113
0003b0 32 a9 cb bd 77 f5 58 3d 00 1a 0b 3e fc 8c 15 be
       -0.09944381 0.05296847 0.13584137 -0.14604563
0003c0 dc 32 4a bd 29 d2 98 3d b3 fc 8c bc 70 2d 48 bd
       -0.04936491 0.0746196 -0.01721034 -0.048871458
0003d0 6e 4d 6b bd 6c d2 5c 3c aa 14 80 3d 92 35 dc 3d
       -0.05744689 0.013477903 0.06253941 0.10752405
0003e0 b4 93 2e 3d 4e 4e aa 3d 69 b7 95 3d 0a 39 ea 3d
       0.04262133 0.08315717 0.07310373 0.114366606
0003f0 31 1c 8e 3d 83 1b 69 bd 09 f1 41 bd e7 23 f1 3d
       0.06938971 -0.056911003 -0.04734901 0.11774426

head.9.bias f4 [7]
000000 8c 9f a3 3d 99 d1 67 bc fc 75 8b bc 33 28 01 be
       0.079894155 -0.014149093 -0.017024033 -0.12612991
000010 65 19 77 bd ce e4 5c 3d b1 39 fc bd
       -0.060326952 0.053929143 -0.12315691
