script/tabpfn_sabr_step9_causal_final.pth (torch, 685071 bytes, 8 tensors)

head.0.weight f4 [512, 9]
000000 b2 bc 3b 3e b0 7c d5 3d 74 bc a3 bd 11 19 43 3c
       0.183337 0.10424173 -0.07994929 0.011907832
000010 ce fb 58 bd e3 60 11 3e 8f 76 aa 3e 8b e8 1b 3e
       -0.052974515 0.14197116 0.33293578 0.15225427
000020 72 af 1a 3e 56 24 81 be 5b f9 80 be c9 0d 82 3e
       0.1510599 -0.25223035 -0.25190243 0.25401142
000030 4f 82 50 3e 91 b9 ca 3d 33 e2 99 bd bf 12 85 3d
       0.20362209 0.09898675 -0.07513847 0.06497716
000040 82 b3 a8 3e 72 0d a8 bd f7 fb 94 3e c2 42 46 3e
       0.32949454 -0.082056895 0.29098484 0.19361404
000050 21 6b 47 3e 60 5e 99 be ee 34 68 be d3 0b 9a 3e
       0.1947446 -0.29954815 -0.22676441 0.30087146
000060 9a ce 6c bc 03 88 d9 3d a3 7c 23 be bd cf 67 3e
       -0.0144535545 0.10621645 -0.15965514 0.2263784
000070 d8 43 1f be cc c7 7d 3e b5 19 98 be 22 d1 4b bd
       -0.15553224 0.24783248 -0.29707113 -0.04975999
000080 b1 8d 43 be f1 8c 1e 3c c4 bd 8e 3d cd 56 04 3e
       -0.1909702 0.009677158 0.06969789 0.12923737
000090 23 c7 12 bd b4 ed 6c 3e c2 fc 11 3e 86 d2 72 be
       -0.035834443 0.23137552 0.14256576 -0.23713121
0000a0 1a 09 92 3e f3 df 85 3e 2d 4a 9a be 61 12 76 3e
       0.2852257 0.26147422 -0.30134717 0.24030448
0000b0 52 7a b3 3e 49 09 15 be ec 70 7e 3d 76 cd ce 3d
       0.3505426 -0.14554323 0.06211941 0.10097782
0000c0 92 b9 17 be f3 e4 63 3e 31 cc 17 3e 76 1c 63 3e
       -0.14816883 0.22255306 0.14823987 0.22178826
0000d0 61 00 a8 3e bb 80 45 be e2 4f 7b bd 51 68 0a be
       0.3281279 -0.19287388 -0.06135548 -0.13516356
0000e0 94 32 d1 3d 1c 54 34 bc 06 5b a7 bd 92 05 b6 bd
       0.10214725 -0.011006381 -0.08171658 -0.08887781
0000f0 a7 d8 ce bd d5 08 50 3e ec 25 2e 3e 9c 9b 2e bd
       -0.10099917 0.20315869 0.17006654 -0.04262887
000100 5f 7b b6 3d 89 91 78 be 3f c2 96 3e 90 8b 42 be
       0.0891025 -0.24274267 0.29445073 -0.18998551
000110 70 0e b2 bd f8 d2 d7 bc e2 eb 9a 3e 0b b1 90 be
       -0.0869416 -0.026345715 0.3025809 -0.28260073
000120 74 2e 7c bb 62 8f cc bc a6 53 5d be d8 fa 4e bd
       -0.0038479837 -0.024970714 -0.2161394 -0.050532192
000130 e8 4d 13 3e c2 d9 6f 3e a9 98 8a be db b2 71 be
       0.14385188 0.23422912 -0.27069595 -0.23603384
000140 f5 0e a4 3e 75 e9 c9 3c 0c db 07 be de b4 48 3d
       0.3204266 0.024647454 -0.13267154 0.049000613
000150 59 b9 3f 3e 37 35 92 be 46 ca 1a 3e 64 80 34 3e
       0.18723048 -0.28556225 0.15116224 0.17627102
000160 a1 90 80 be fd 55 48 3e c5 fa 34 be 91 c1 8f 3e
       -0.25110343 0.19564052 -0.17673786 0.28077367
000170 a4 e0 27 3e aa 09 c2 3c d9 ed 81 3e 46 74 22 be
       0.16394287 0.023686249 0.25376776 -0.15864667
000180 01 0f a0 3e 6f 23 21 bd 03 c9 89 3e e3 66 11 bd
       0.31261447 -0.039340433 0.26911172 -0.03549851
000190 08 93 c6 3d db 7d 03 3e 36 e8 56 3e b1 82 d0 bd
       0.09696013 0.12840979 0.20987019 -0.101811774
0001a0 38 d4 71 bd e8 7b 54 bd f3 a9 9b 3d 70 15 6e 3d
       -0.05904028 -0.05187598 0.076007746 0.058125913
0001b0 47 70 96 be 84 b7 ca 3c f6 f0 c4 3c ee c1 63 3e
       -0.29382536 0.02474571 0.02404068 0.22241947
0001c0 d4 23 85 3e c7 3f f4 3c c2 36 c3 bd 55 50 8b be
       0.26003897 0.029815568 -0.095319286 -0.27209726
0001d0 fd c7 97 be 4b e6 88 3e ed 80 b1 bd 83 b8 86 3c
       -0.29644766 0.267382 -0.08667169 0.016445404
0001e0 22 84 47 3e 5d a6 a2 be 1e 21 45 3d cb 44 23 3d
       0.19483998 -0.3176755 0.048127286 0.039860528
0001f0 9c 75 a8 be 04 fa 89 3e 90 e9 8b be 1b f5 61 be
       -0.3290223 0.2694856 -0.27326632 -0.22066157
000200 4a 35 0a 3c 99 70 54 3e 26 f7 fa bd a7 c3 24 3e
       0.008435557 0.20746078 -0.12254171 0.1609026
000210 3e d1 4b be 28 f8 85 3e cc 1c 78 bd cf 1f e2 3d
       -0.19904038 0.2616589 -0.060574338 0.11041223
000220 6b e8 41 be ac ee 2c 3e 22 41 0e 3d a9 aa 2d be
       -0.18936317 0.16887921 0.034730084 -0.16959633
000230 8a 05 cf bd 82 d5 0b 3e 6e bf 89 3a d3 2a 3e 3e
       -0.10108478 0.13655666 0.0010509321 0.18571024
000240 c3 38 85 be 80 d1 9a bd bf 8c 22 3e c0 63 2d be
       -0.26019868 -0.0755949 0.15874003 -0.16932583
000250 14 9a 13 be 1b 81 a1 3d 54 b0 1d be 0e 6e 5d 3d
       -0.14414245 0.07885953 -0.15399295 0.054060034
000260 3b ee fa bd 4c 56 64 be 6b 76 0c bd 45 9f fd 3d
       -0.1225247 -0.22298545 -0.03429262 0.12383894
000270 28 61 16 be 62 4a 88 3e a1 b7 10 3e c6 92 76 3e
       -0.146855 0.2661925 0.14132549 0.24079427
000280 b2 59 77 3e 5c ad 90 3e e3 15 18 be 1b 1e 62 3e
       0.2415531 0.28257263 -0.14852099 0.22081797
000290 2e 2f 2d 3e a0 4d 94 be 49 0d 6d 3e e2 97 75 bd
       0.16912529 -0.28965473 0.23149599 -0.0599593
0002a0 61 d6 8c 3e 2f 27 9a be 65 59 14 be 81 e0 2c bd
       0.27507308 -0.3010802 -0.14487226 -0.04220629
0002b0 d8 8a a8 3e 93 78 e3 3c 95 01 71 3e 0f 66 ed bd
       0.3291843 0.027767455 0.2353576 -0.11591732
0002c0 3e 82 a2 be fa eb 2a bd e2 ba a8 3e 5b 2e 49 3e
       -0.31739992 -0.04172895 0.3295508 0.1964659
0002d0 55 a9 a0 be f1 06 49 be 83 f9 58 3e 2d 8a 31 be
       -0.3137919 -0.19631554 0.21188931 -0.17337866
0002e0 57 50 81 3e 77 71 d6 bd a4 e4 41 be 1f 9b a8 be
       0.25256607 -0.104708605 -0.18934876 -0.32930848
0002f0 c9 f6 fb 3d e8 35 06 3e 4e 15 6d 3e 6a ff df 3d
       0.1230293 0.13106501 0.23152658 0.10937388
000300 34 f1 13 3e f2 91 79 be 1f 0a 7c be 86 45 65 3e
       0.1444748 -0.2437208 -0.24613236 0.22389802
000310 21 6b da bd 32 67 2d be f2 8f 58 3e 34 24 58 be
       -0.106649645 -0.16933897 0.21148661 -0.2110756
000320 c4 3a 8b be bb 86 ec 3d 2c cc 40 3e be 36 87 3e
       -0.27193272 0.11549135 0.18827885 0.26408952
000330 b0 ca 09 3e 04 e7 89 3e 68 09 25 be 17 9a 1e 3e
       0.13456225 0.26934063 -0.1611687 0.15488468
000340 74 a5 a9 bd bc 71 86 3d ac bf 98 be aa a9 27 be
       -0.08283511 0.06564662 -0.29833734 -0.16373315
000350 45 be 8b 3e e3 6f ca bd 34 4f ad bd 2c fa e0 3c
       0.27293602 -0.09884622 -0.084623724 0.027463041
000360 d3 6b 17 be 11 d2 6a 3e f9 23 58 3e 89 e3 95 be
       -0.14787225 0.22931696 0.21107472 -0.29275158
000370 55 e5 0c 3e da da 1c bd 53 e2 c2 3d f1 ef a6 bd
       0.13759358 -0.03829465 0.09515824 -0.08151234
000380 1a c0 94 3c 89 99 82 be f8 0b 7c 3e b4 fe 4e 3e
       0.018158007 -0.25507763 0.2461394 0.20214349
000390 1c fd f7 bc e6 03 27 3d aa c9 ac bd 3f 0f 81 3e
       -0.03027206 0.040775202 -0.08436902 0.25206944
0003a0 d5 dc 43 3d 83 9b 23 3e 7e 4d 0d be 93 91 22 be
       0.047818024 0.15977292 -0.13799092 -0.15875845
0003b0 b2 1e ce 3d 3b 3b 01 bb 99 d8 a9 bd 51 38 42 be
       0.100644484 -0.0019719142 -0.08293266 -0.18966796
0003c0 e0 3e 38 bd 39 30 95 be ff 40 4b 3e d8 29 3d bd
       -0.044981837 -0.29138353 0.19849013 -0.046182483
0003d0 be fd 23 be 7d 9d 93 3e 8e c2 d7 3d 5d 97 93 3e
       -0.16014764 0.28831092 0.10535155 0.2882642
0003e0 86 81 30 3e c8 97 d6 ba 77 a2 79 3e 9f 21 3c 3e
       0.1723691 -0.0016372139 0.24378382 0.183722
0003f0 c9 ff 3c be 15 c9 c3 3d 53 99 75 3e 6a a6 33 be
       -0.1845695 0.09559838 0.2398427 -0.1754395

head.0.bias f4 [512]
000000 9f 3a 5d bc d5 3f 90 be 09 3b 80 3e de 36 a7 3d
       -0.013502746 -0.281737 0.2504504 0.08164762
000010 db 66 a3 3c f1 e6 01 3e 08 7f 95 be 64 0c 8a bd
       0.019946506 0.12685753 -0.2919848 -0.067406446
000020 6b 0c f9 bc 26 60 c5 bc 6b 1f 1a 3e 89 48 8d be
       -0.03040143 -0.024093699 0.15051048 -0.27594402
000030 9f 7a 02 be b0 db 10 bd bc 20 c1 3a 5e 90 80 be
       -0.12742089 -0.03536576 0.0014734487 -0.25110143
000040 83 0d 95 3e 5c 0f 87 3e c2 d7 09 bd 44 7a 95 3e
       0.2911187 0.26378906 -0.03365303 0.29194844
000050 12 98 7e 3e 88 0b 60 3d d8 4c 0a 3e 3d 5a 03 bd
       0.24862698 0.054698497 0.13505876 -0.03206848
000060 70 59 d1 bd f2 38 98 3e 01 92 83 3e c9 8a 40 3e
       -0.10222137 0.29730946 0.2569733 0.18802942
000070 ca 0e 80 3e fe d0 00 be 98 c5 1a be 3f ae 5e be
       0.25011283 -0.12579724 -0.15114439 -0.21746157
000080 42 76 0a bc 5a ef 9e bc 67 d0 39 3e 6a 4b 4c 3b
       -0.008451046 -0.019401241 0.18145905 0.003117288
000090 6c 3d 1a be ab 35 c8 3c d8 6f 94 bd f8 7a 3b bd
       -0.15062493 0.024439653 -0.07247895 -0.04577157
0000a0 fc 72 50 3e 15 94 67 be ff c2 e6 bd c7 ea 9d bd
       0.20356363 -0.22615083 -0.11267661 -0.07710796
0000b0 b4 59 e3 3d 39 f3 96 3d 58 9b 5b 3e 91 a3 97 be
       0.11101094 0.0737061 0.21445978 -0.2961698
0000c0 de d6 93 be 38 17 c8 3d 19 02 ba bd 31 61 a1 3e
       -0.28874868 0.097700536 -0.09082431 0.31519464
0000d0 c2 7f 67 be 2f 07 9c be e9 5d 35 be 0e 6a ed bc
       -0.2260733 -0.3047423 -0.17711605 -0.028981235
0000e0 34 72 35 be 94 4e 1f 3e 94 e1 ef 3d b2 88 53 3e
       -0.17719346 0.15557319 0.117129475 0.20657614
0000f0 fe ed 05 3e b5 4d d7 3d 26 3a f3 3d d3 e8 f8 3d
       0.13079068 0.10512868 0.11876325 0.12153783
000100 7c 21 80 3e 10 06 4f bd e2 73 a8 3e c0 aa 39 be
       0.25025547 -0.05054289 0.32900912 -0.18131542
000110 75 a6 93 3e 80 a2 0f 3e 5f 6b 9b 3e 7f 31 ea bd
       0.28837934 0.14026833 0.30355355 -0.11435222
000120 f4 1a 8b 3d 86 cd 60 3c 28 ef fb bd c7 79 f6 3d
       0.0679225 0.013720876 -0.12301475 0.12034946
000130 57 58 05 3e ef 1e d5 bd 26 f8 85 3e 64 4c a7 be
       0.1302198 -0.10406291 0.26165885 -0.3267547
000140 56 38 28 3d 36 17 55 be 7d c8 95 3e 52 61 4d be
       0.04106935 -0.20809636 0.29254523 -0.20056656
000150 2d 24 0b be 6e cc 98 3d 37 8a a9 3e cd 3a 94 3e
       -0.13588019 0.07460867 0.33113262 0.2895111
000160 7e 7e 23 be 8e 0b 9b 3d 0a 9a d4 3d 7c 61 41 be
       -0.15966222 0.07570563 0.10380943 -0.18884844
000170 c5 45 26 3e 94 c8 27 3e 24 0f b9 3d 7f 37 9a be
       0.16237552 0.16385108 0.09036091 -0.30120465
000180 d0 e6 43 bd ec 62 96 3e 33 32 16 bd 3a 33 a2 bd
       -0.04782754 0.29372346 -0.036668967 -0.07919927
000190 92 59 5a be e7 d2 8b bd 8f b8 30 be ab 83 c2 bd
       -0.21323231 -0.06827336 -0.17257904 -0.0949777
0001a0 9e 48 51 3e 6d 60 d3 bd 5c 09 7e 3e 4a 6a d8 3c
       0.20437858 -0.10321126 0.24808258 0.02641787
0001b0 1f 89 8c bd d2 07 d2 3d 89 79 8e 3e 29 22 ae 3d
       -0.06862091 0.10255398 0.278271 0.08502609
0001c0 b7 73 2c 3e b2 f0 73 3e 07 00 7e be 8b a9 0b 3e
       0.16841017 0.23822287 -0.24804698 0.13638894
0001d0 de da 0b be 27 e5 24 be 2d 51 8d be 3a 24 15 3e
       -0.1365771 -0.1610304 -0.27600995 0.145646
0001e0 59 66 81 be 38 58 2f 3e 2a 67 0a 3e 95 39 26 bd
       -0.25273398 0.17123497 0.13515916 -0.04058226
0001f0 56 98 93 be 43 8e 5c 3d 22 8c 47 be e9 e2 22 bd
       -0.2882716 0.05384661 -0.1948705 -0.03976718
000200 60 0d 89 bd af cc e7 bc af f3 30 bd 8e 0d 5b be
       -0.06692004 -0.028295843 -0.043201145 -0.2139189
000210 81 16 ce bd 18 59 ff bd b7 2b 37 be b1 6a 60 3e
       -0.10062886 -0.12468165 -0.1788777 0.219157
000220 95 bb df 3d c8 a9 81 be 1f ce ab 3d b0 14 9c bd
       0.1092445 -0.25324845 0.08388924 -0.07621133
000230 70 bd 0a 3e 37 15 21 be 4d 42 0b be 54 b6 90 3e
       0.13548827 -0.15730749 -0.1359951 0.28264105
000240 48 67 27 3c d0 ba 6b 3e a5 eb f3 3c 17 1f 88 3e
       0.010217495 0.23020482 0.02977545 0.2658622
000250 a7 a4 06 be eb aa 8a be b3 e5 3c be 5f 4b 97 be
       -0.13148747 -0.27083525 -0.18446998 -0.2954969
000260 92 e8 8f be b7 1f 49 3e 33 76 36 3e 09 60 ec 3d
       -0.28107125 0.19641005 0.17818527 0.11541755
000270 c1 8f 3b 3e 53 c0 94 be 28 4d 14 3e 36 96 e2 bd
       0.18316557 -0.29052982 0.14482558 -0.11063807
000280 70 45 38 3e 05 59 0a 3e e4 1a b2 bd 68 79 90 3e
       0.17995238 0.13510521 -0.08696535 0.28217626
000290 47 b0 82 3c 6c 12 04 3e 1d a8 2a bd d4 da cf 3d
       0.015953196 0.12897652 -0.04166423 0.1014916
0002a0 34 f5 42 be da 1c 36 be 97 cf 82 3e 54 44 7a 3d
       -0.1903885 -0.17784443 0.25549003 0.06110032
0002b0 a1 98 c5 bd ca 0b 6d be 19 50 40 3e 34 d9 98 be
       -0.09648252 -0.23149028 0.18780555 -0.29853213
0002c0 3e 0d 8a be b4 19 d5 bd 8e 39 1c 3e ce 3b 90 3c
       -0.26963228 -0.10405293 0.1525633 0.017606642
0002d0 b8 ae 78 3e 0b 08 9f 3e ef c1 4a be 81 2b fa bc
       0.242854 0.31060824 -0.19800542 -0.030538322
0002e0 d7 9f 18 be 7a 35 d7 3c a8 53 10 3e 79 23 a7 3d
       -0.14904724 0.026270617 0.14094412 0.08161063
0002f0 b6 88 b3 3d e4 43 8a bd 31 ff f6 3d 80 0d 57 be
       0.0876631 -0.0675123 0.12060393 -0.21001244
000300 2e d3 3c be 26 73 43 3d b9 33 86 3e 71 22 5f bd
       -0.18439934 0.047717236 0.26211336 -0.054476205
000310 0d 8e 66 be 54 77 28 be a4 58 ee bd 55 0b 8d 3d
       -0.22515126 -0.1645177 -0.116380006 0.06886927
000320 30 cd 58 be 7f 75 7d 3e 1e 26 9b 3d e0 23 0d 3e
       -0.21172023 0.24751852 0.0757563 0.13783216
000330 b5 c2 bd 3d 78 94 f7 bd 45 32 88 be f5 21 b0 bc
       0.09265653 -0.12088865 -0.26600853 -0.021500567
000340 6a 89 08 be 0f f2 a8 3d c2 cb b8 3d 1a 4b 59 bc
       -0.1333367 0.08249294 0.09023239 -0.0132625345
000350 6e 49 46 be 69 9c 4a 3e 53 52 8e bd 01 28 3a be
       -0.19363949 0.19786228 -0.06949296 -0.18179323
000360 85 e6 f5 3d 95 93 a5 3e a2 dc 86 3e 22 7a c6 bc
       0.12006859 0.3233916 0.26340204 -0.02422816
000370 94 fc 04 3e d1 19 c6 3b 22 90 84 3e 48 b3 64 3d
       0.12986976 0.006045558 0.25891215 0.05583504
000380 2f b5 02 3e be 1b f0 3c 8c f5 57 be e0 d4 b0 bd
       0.12764429 0.029310104 -0.21089762 -0.08634353
000390 60 9c 7f 3e 83 37 ed bd 3a be 41 3d aa b5 f3 3d
       0.24961996 -0.11582854 0.047300555 0.11899884
0003a0 23 b5 ea bd 0e ff a7 3d 0b 3e 8a be 7a fb eb bd
       -0.1146033 0.08202945 -0.2700046 -0.11522575
0003b0 e9 30 cb 3d fc 26 86 3e ba c8 36 3e 22 d9 02 be
       0.09921438 0.26201618 0.17850009 -0.12778142
0003c0 eb 05 88 3e 30 95 c6 3d 56 10 13 3e 92 a8 33 3e
       0.26567015 0.09696424 0.143617 0.17544773
0003d0 52 84 0d be 61 39 80 3e 2c 35 18 be 5f f2 0b 3e
       -0.13820007 0.25043777 -0.14864033 0.13666676
0003e0 c7 98 64 be 9b ef 86 be d9 7c 87 3e 90 9f 93 be
       -0.22323905 -0.2635468 0.2646244 -0.28832674
0003f0 08 92 9c 3e 60 77 00 3e 42 16 7b be 10 46 03 3c
       0.30580163 0.12545538 -0.2452021 0.00801231

head.3.weight f4 [256, 512]
000000 1c 79 5d 3d 54 da af 3c 76 dd 99 3b 80 af 9e 3c
       0.054070577 0.021466412 0.0046955897 0.019370794
000010 9e eb 05 3c 1a 7d 0b bd 29 15 a2 bc 75 f1 88 bb
       0.008173851 -0.034054853 -0.01978548 -0.0041791745
000020 f3 fb 09 bd 7f b0 f6 b8 2e 2d d4 3b e4 05 af bc
       -0.033687543 -0.00011763069 0.0064751124 -0.021365114
000030 38 07 fd bc 27 a0 01 bc fd 68 e2 3c 56 7d 5d 3c
       -0.030887231 -0.007911718 0.027637953 0.013518652
000040 13 ba 05 3d 7a 35 0a bd 8b 8f 89 bc 9c 67 af 3c
       0.032648157 -0.033742405 -0.01679208 0.02141171
000050 22 df 9c bb c2 12 c5 3c 9f 2f 31 3d c3 17 ae 3c
       -0.0047873417 0.024056796 0.043258306 0.021251565
000060 87 2f 31 bd 8e 23 c0 3c d5 c1 98 3c d0 7f 32 3d
       -0.043258216 0.023454454 0.018647114 0.043578923
000070 40 1f 1a 3c b0 76 b7 bc 4c 07 25 3c 56 21 80 3c
       0.009406865 -0.022395462 0.0100725405 0.015640896
000080 c5 8d 99 bc da b6 a2 3c 26 95 90 3b 85 4a 87 3b
       -0.018744359 0.019862581 0.004412311 0.0041287565
000090 5f ea 57 3d c2 95 0b bb 13 74 5d bd 68 08 31 bd
       0.052713748 -0.002129898 -0.054065775 -0.043220907
0000a0 00 bd e7 3c 32 03 de 3c 45 93 62 bd 9e 21 a1 3b
       0.028288364 0.027101133 -0.05531623 0.0049173376
0000b0 8e 22 00 bd e1 4c 65 3d ce 59 18 3d 05 4b 35 3d
       -0.031282954 0.05598152 0.03719502 0.044260997
0000c0 a4 1f 03 bd c4 6b 32 3b 22 8d 08 bc 49 ee 3b bc
       -0.032012597 0.0027224878 -0.00833443 -0.011470386
0000d0 b6 b2 20 3d 85 c1 94 3c af 28 da 3b d3 ba bc 3c
       0.039232932 0.018158684 0.006657682 0.023038303
0000e0 05 ba 35 3b 18 36 c4 3c e8 19 26 bc a6 0c e9 ba
       0.0027729284 0.023951575 -0.0101380125 -0.0017780259
0000f0 07 3e 79 3b 61 47 23 3d be 7f 99 bc df 51 f9 3c
       0.0038031356 0.039862994 -0.01873767 0.030434547
000100 42 ad 3a bd be 8d 83 bb 60 d1 f9 bc 69 80 2c bd
       -0.045575388 -0.0040146997 -0.030495346 -0.04211465
000110 b7 fc d9 bb d0 84 15 3d f0 4b 8e bc a2 1c 5a bc
       -0.0066524404 0.036503613 -0.017370194 -0.013312491
000120 c5 5a c2 bb b3 ef 8c bc dd 3d 6b bc 9e bd 7d b9
       -0.0059312307 -0.017204141 -0.014358011 -0.00024198598
000130 77 39 02 bd da d8 d1 bc 10 4a 2b 3d a5 ca 6e bd
       -0.031793084 -0.025616098 0.04181868 -0.058298726
000140 9e a2 96 3c a1 73 81 bb 96 06 93 bc 6c 17 31 bd
       0.018388089 -0.0039505516 -0.017947476 -0.043235227
000150 50 11 56 3c 18 01 32 3d 7e aa a5 bc f7 3d 30 bd
       0.013065651 0.043458074 -0.020222899 -0.043027844
000160 9f 0a 15 bc 13 eb 75 3c 0c 01 de bc 57 b4 70 3c
       -0.009096771 0.015009659 -0.027100109 0.014691434
000170 d3 8a 04 bd a2 78 36 bc 75 5d bf 3c db e1 07 bd
       -0.032358956 -0.01113716 0.023359993 -0.033174377
000180 50 9c 05 bd 7b 4e f9 3c e0 95 f8 bc 55 b1 e9 3b
       -0.032619774 0.03043293 -0.030344903 0.0071317353
000190 e6 14 8f bc dc 95 a6 bc 04 dc 42 bd 09 77 c6 3c
       -0.01746602 -0.02033513 -0.047573105 0.024226682
0001a0 87 76 70 bc 0f 52 2e bd 68 f1 03 3d 59 38 e0 bc
       -0.014676697 -0.042558726 0.032212645 -0.027370619
0001b0 a7 64 69 ba 5e ce eb 3c 8c 33 10 3c 13 db 1c 3a
       -0.0008903243 0.028784927 0.008801352 0.00059835723
0001c0 ab b1 21 bc f7 de 56 3d f1 cb 30 3d 46 67 f4 bc
       -0.0098690195 0.05245873 0.043163244 -0.0298344
0001d0 82 10 05 bd c2 d7 ea bc 59 15 d5 3b cf b7 92 3d
       -0.032486446 -0.028667334 0.006502789 0.07163965
0001e0 81 7e 06 bb 19 cc 00 bd 43 88 e1 bc 7c 8a 3a bc
       -0.002052218 -0.031444643 -0.027530795 -0.011385556
0001f0 cb 85 eb 3c 0b 39 cd 3c 2e 09 0b 3c 53 41 21 3d
       0.02875032 0.025051614 0.008486075 0.03936894
000200 e5 3c 4e bc 8e 92 e4 bc 2b d9 3c 3d 51 7e 80 3b
       -0.012587761 -0.027901914 0.046105545 0.003921308
000210 fe 00 40 3d 18 8e 2c ba 44 1c f0 ba 65 74 ca 3c
       0.046875946 -0.0006582453 -0.0018318971 0.024713704
000220 1b 2f 02 bd b0 b2 26 bd a7 dc 2e bc 95 92 df 3c
       -0.031783205 -0.040697753 -0.010672725 0.027291575
000230 37 46 74 bb 90 c2 2b 3d ee e4 73 bb e0 ed a4 bc
       -0.0037273297 0.041933596 -0.003721531 -0.020132959
000240 a0 23 8b b6 b4 06 40 bd 26 68 76 3c 58 7c 2f bd
       -4.14667e-06 -0.046881393 0.015039479 -0.042843193
000250 00 b1 d8 bb c3 e3 b3 3c 29 09 1c 3c 75 24 fe 3c
       -0.006612897 0.021959191 0.009523668 0.031023243
000260 8b 31 d8 bb 08 74 54 bc 9e 35 80 bd b9 d3 b1 bb
       -0.006597703 -0.012967117 -0.06260227 -0.0054268506
000270 93 75 d1 bc c7 f1 f1 bc 18 fa c1 bc e2 fd d8 bc
       -0.02556876 -0.029534234 -0.023678824 -0.026488248
000280 2f 5e d5 3c e3 fb a0 bc 92 c7 4f 3c 1c 4a 15 bd
       0.026045887 -0.019651359 0.012681859 -0.03644763
000290 7d b8 a9 3b c4 94 89 bc 7e fc 23 3d d1 07 e1 3c
       0.0051794634 -0.01679457 0.040035717 0.027469547
0002a0 59 3e 2b 3d 97 85 ad 3b a6 6a 9d 3c 84 ed 0f 3d
       0.041807506 0.005295466 0.019215893 0.035138622
0002b0 78 3c 0a bc e9 73 de 3b 09 dc f1 bc 22 78 31 3d
       -0.008437268 0.00678872 -0.029523866 0.04332746
0002c0 65 90 e8 3c 75 cc e7 bb 21 77 15 bc 5c 9d 96 ba
       0.028389165 -0.0070739337 -0.009122641 -0.0011490989
0002d0 21 62 cd bb 83 e2 1a 3d 88 73 f5 bb 63 f3 22 3d
       -0.0062678014 0.037813675 -0.007490579 0.039782893
0002e0 1d 4c ce bc eb 23 ae 3c ca 00 6a bc 31 b1 32 3d
       -0.025182778 0.021257361 -0.014282415 0.043626014
0002f0 35 1c 02 3d 2b c2 cc 3c 42 37 88 bc 75 0c f5 3c
       0.03176518 0.02499493 -0.016627911 0.029913167
000300 35 11 eb 3b 94 3c 9d 3c 7a 72 fe 3c 34 d9 f2 3c
       0.007173682 0.019193925 0.031060446 0.029644586
000310 34 ee 13 3d 14 d1 b4 3c 53 dc c4 3c bd 43 d4 3c
       0.03611584 0.022072352 0.02403084 0.025911206
000320 06 30 5e 3c 18 fd da bc 6e 66 d3 3b 91 01 b7 bc
       0.013561254 -0.026732013 0.0064514196 -0.022339614
000330 9a b2 e6 bc d2 c5 37 3d 5a f4 2a bd 8e 98 b3 3c
       -0.028161336 0.04486639 -0.041736938 0.02192333
000340 65 1e a2 bc 22 c8 99 3c 84 64 e7 bc af 32 36 bd
       -0.019789884 0.018772189 -0.028246172 -0.04448193
000350 9b 15 17 bd da d8 30 bc 47 03 0e bd 6d 32 ab 3c
       -0.03688584 -0.010793889 -0.034671094 0.020898068
000360 28 71 fd bb 60 f8 1b 3d fe ca 18 3c 4b 4f 8a 3c
       -0.0077344365 0.038078666 0.009325741 0.016883513
000370 d8 66 28 3d 0d c7 a3 bd cc 3e da bc f7 03 60 3c
       0.041113704 -0.0799695 -0.026641272 0.01367282
000380 64 86 23 3d 7b 1f 55 bd 2d 57 c0 3c 33 67 93 bc
       0.039923087 -0.052031975 0.023479069 -0.017993545
000390 38 29 ed bc 98 1c 7d bc 04 d7 4b 3c 5e a3 6a bc
       -0.028950319 -0.015448712 0.0124414 -0.014321176
0003a0 c7 8d d4 3c 5b a4 91 3c f4 1e 29 3d 87 d3 fd 3c
       0.025946511 0.017778566 0.041289285 0.030984653
0003b0 d2 d7 19 bd 09 1e bb bc cd 1a 74 3c 38 9f 79 bb
       -0.037559338 -0.02284147 0.014898968 -0.0038089287
0003c0 a5 96 37 3c 11 14 0d bc c0 b9 f5 3c c7 87 74 bc
       0.01120535 -0.008610741 0.029995799 -0.01492495
0003d0 22 75 0f bd 18 e8 b4 3b 4e aa 48 bc 4c d3 5c 3d
       -0.035023816 0.005520832 -0.012247635 0.053912446
0003e0 36 d1 c0 bb b7 fc 15 3d e2 e0 56 bc a8 96 6e 3c
       -0.005884315 0.03661796 -0.01311514 0.014562286
0003f0 6d 96 95 3c 41 e6 0f 3c da 66 b8 3c 08 8d 71 bc
       0.018260205 0.008782924 0.022509981 -0.014743097

head.3.bias f4 [256]
000000 4c 1b c2 bb e2 b7 a0 3b 66 fb cb ba 70 f7 26 bd
       -0.005923664 0.004904733 -0.0015562593 -0.04076332
000010 c6 e7 3f 3d 7a 11 ae bc fb 48 9c bc d1 fe 62 ba
       0.046851896 -0.021248568 -0.019077769 -0.00086591864
000020 93 f4 20 3d 70 21 01 3b 37 c8 71 3c 6f b3 bc 3c
       0.039295744 0.0019703768 0.014757208 0.02303478
000030 b4 56 fe bc 38 d4 26 bc 47 a3 f6 bb 54 f3 83 bc
       -0.031047203 -0.010182433 -0.0075267884 -0.016107239
000040 99 bd 07 3c 53 4d 1a bd 3c ea c1 3c f3 b7 53 ba
       0.00828495 -0.0376714 0.023671262 -0.0008076422
000050 60 9c 17 3d 5c c4 ef bc 87 2a f6 bc 15 63 d7 3c
       0.037014365 -0.029268436 -0.030049575 0.026292363
000060 f0 4f cb bb 81 5e c1 bb 9e e5 2a 3d 9e cc 92 3a
       -0.0062045977 -0.0059011583 0.041722886 0.0011199897
000070 d4 40 32 bd cb 9d 47 3d 37 2d 80 3c 9a 6d 96 bc
       -0.043518856 0.048734467 0.01564656 -0.018362809
000080 10 d1 10 bd 82 e3 11 3d 96 e9 f0 3c c2 15 ce bc
       -0.035355628 0.03561736 0.029408257 -0.02515686
000090 fe 02 9c bc 20 69 e2 3c 54 c6 e6 bc c0 27 e3 3b
       -0.019044396 0.027638018 -0.028170742 0.006932229
0000a0 62 88 ae bc 21 48 6c bb e1 85 3b bd 00 32 24 3d
       -0.021305267 -0.0036053734 -0.045781974 0.040086746
0000b0 f1 d7 56 3c b7 4b 2d 3b 6a 3b 4c bc d9 fa e0 3a
       0.013113008 0.0026442835 -0.012465337 0.0017164602
0000c0 5f cf 57 bc 20 ac 07 bd 2d f1 3e 3d 60 ed 16 3d
       -0.013172 -0.033123136 0.046616722 0.036847472
0000d0 67 58 1e 3c b2 32 28 bc 36 ef b2 3b 5b af 30 3d
       0.009664631 -0.010265993 0.005460645 0.043135982
0000e0 a4 aa e8 bb a9 de 8b 3c 4a 9b 85 3c 3b bf 89 3c
       -0.00710042 0.017073946 0.0163094 0.016814819
0000f0 52 8e d6 3c 4b 69 1e bd 09 a9 b0 b9 00 3c f5 bc
       0.02619091 -0.038674634 -0.00033695277 -0.029935837
000100 a3 db 0e bd 88 c1 fe bc ed 53 c4 3c 23 9e 3d bb
       -0.03487743 -0.031098142 0.0239658 -0.0028933368
000110 4d ee fc 3c 28 1d 64 3b ac 93 c2 bc d5 d6 fa bc
       0.03087535 0.0034807418 -0.023752056 -0.030620018
000120 28 38 2c 3d ec a9 9f bb 85 f9 da 3b ce e8 3a bc
       0.042045742 -0.004872551 0.006682577 -0.011408044
000130 66 9f 04 3c af 65 8e bb f4 50 1c 3d ae a5 9c 3c
       0.008094644 -0.0043456177 0.03816314 0.019121971
000140 0f 93 4e bd 42 c6 02 3d 88 72 1f 3d 59 b6 ef bc
       -0.050433215 0.031927355 0.038927585 -0.029261755
000150 d7 a7 dc 3c 42 b8 09 3d b6 be ac 3c b8 cc 39 bd
       0.026935501 0.033622988 0.021087032 -0.04536125
000160 ba ba 09 bd f4 67 12 3d 95 08 fb bc 2f 53 08 3d
       -0.033625342 0.03574367 -0.03064374 0.033282455
000170 8d f3 34 3c a9 8c af 3c f3 e2 99 3c 7e 5b 51 3c
       0.011044395 0.021429377 0.018784976 0.012778161
000180 8d ae 3c 3d 70 94 88 bc 18 0b eb bb a9 4f 38 bd
       0.046064902 -0.016672343 -0.0071729533 -0.044997845
000190 b9 fb 85 bc f1 45 bb bc a8 dd 70 b9 6b 0b bc 3c
       -0.016355382 -0.0228605 -0.00022970757 0.022954663
0001a0 c4 5d 69 3c 38 d2 d8 3c b1 2f b8 3c 00 01 99 3c
       0.014243547 0.026467428 0.022483679 0.018677235
0001b0 1e fe db 3c c4 8c 9f 3c 2d 75 6e bc c7 79 3b bd
       0.026854571 0.019476302 -0.014554304 -0.045770433
0001c0 9a e3 13 bd b5 ad 2d bc 29 f0 b4 3c a0 bd 55 bd
       -0.03610573 -0.010600497 0.022087174 -0.052182794
0001d0 99 85 d6 3c bb 97 f3 bc 81 c8 51 3c 6e 0d 83 3c
       0.026186751 -0.029735437 0.0128041515 0.015997615
0001e0 66 31 88 bc 24 90 e0 bb 2a ad c2 3a f8 95 21 3d
       -0.016625118 -0.0068531204 0.0014852632 0.039449662
0001f0 b1 88 65 3a 0c 29 d5 3b 41 93 04 3d 3b 9b 2c bd
       0.00087560253 0.0065051373 0.032366995 -0.042140227
000200 db 14 ef bc 62 7c 55 3c cd 97 0a 3c d6 bd 21 bc
       -0.02918475 0.013030143 0.008459044 -0.009871921
000210 2a 3b ad 39 72 77 a5 3c 5c a7 a4 3c 28 67 b5 3a
       0.00033041212 0.020198558 0.020099334 0.0013839947
000220 f9 e4 df 3b 41 72 07 bd eb 8c bc 3c dc 28 8c bc
       0.0068327156 -0.033067945 0.023016414 -0.017109327
000230 54 da ce 3b 7b 02 4f bd 61 bd 81 3b dc d8 23 3d
       0.006312648 -0.050539475 0.0039593433 0.040001735
000240 1f c3 2f bd 86 87 f0 bb 40 e5 22 bd 00 b2 06 3d
       -0.04291069 -0.0073403744 -0.03976941 0.032884598
000250 84 4d 9e 3c 64 c2 12 bd 6c ff b2 3c 7e 4b a3 bb
       0.019324072 -0.035829917 0.02185031 -0.0049833646
000260 82 0f ac 3b 5e 43 ac bc a9 a0 f1 3c 98 a3 d2 bc
       0.005250872 -0.021028217 0.029495554 -0.025712773
000270 86 20 19 bd 78 29 75 3b 20 66 0e bd 5c 41 a8 bc
       -0.037384532 0.003740875 -0.034765363 -0.020538978
000280 83 7f a3 bc 73 24 66 bc 80 ad c5 39 40 32 bb 3c
       -0.019958263 -0.014046776 0.00037704036 0.02285111
000290 5c ce 59 bd b7 28 05 3c af f6 4a bd 25 28 12 3d
       -0.053175315 0.008127383 -0.049551662 0.035682816
0002a0 84 b5 22 bd dc 23 23 bd f9 d7 1d 3d 8a 79 1d 3d
       -0.039723888 -0.03982912 0.038536046 0.038445987
0002b0 5a 25 e5 3b b0 8a 2a bc 06 d7 00 bd 5a fc 04 3d
       0.006992978 -0.010409042 -0.031455062 0.032467224
0002c0 21 dd 1a 3c 6e 0b 31 3b d2 3a e6 3c c9 48 8f 3c
       0.009452135 0.002701487 0.02810422 0.017490761
0002d0 5d f7 e0 bc df 3a db bc 05 55 a1 3c ed 41 34 bb
       -0.027461702 -0.02676147 0.01969386 -0.0027505115
0002e0 30 6a 42 bd b4 36 06 bd 4b 6d bd bc 69 69 c0 3c
       -0.04746455 -0.032767013 -0.023123404 0.023487763
0002f0 b9 5b b1 3c c0 a8 b8 3c ce af 16 bd 0a 11 51 3c
       0.021650182 0.022541404 -0.036788754 0.01276041
000300 ed 94 d2 3c 73 9f 2a 3d 1c 9b f0 bc ab 28 08 3d
       0.025705779 0.04165597 -0.029370837 0.03324191
000310 80 b5 71 bc 73 f5 f0 bc 1c 0c 3a bd 3c 94 97 bc
       -0.014752746 -0.029413914 -0.045421705 -0.0185033
000320 87 76 0b 3d 77 e6 a8 3c fc 35 16 3d 50 dc f3 3c
       0.034048583 0.020617707 0.036672577 0.02976814
000330 6c cc e5 ba ed 6c 05 bc f9 77 cc ba 2a 3a 0c 3d
       -0.0017532236 -0.008143646 -0.001559972 0.034235157
000340 18 d2 9f 3c a3 8f b4 bc bd bd f2 bc 03 61 60 3b
       0.01950936 -0.022041148 -0.02963149 0.003423751
000350 f3 45 2c bd 8b d4 2f bd 27 f2 95 bc 30 47 78 bc
       -0.042058896 -0.042927306 -0.018303944 -0.015153691
000360 cc 2d 2a 3d 3e 22 03 bd ab 05 ee bc 4e 44 4c 3c
       0.04154758 -0.032015078 -0.029055437 0.012467457
000370 6b 77 b9 bc d5 ae 16 3c d8 34 f9 3c 73 ed a1 bc
       -0.02263995 0.009196957 0.030420706 -0.019766545
000380 5a 12 e8 3c 6f 69 e5 3c f2 f1 b8 bc ed f2 44 bd
       0.028329063 0.028004376 -0.022576306 -0.048083235
000390 dc 08 58 bc e3 9e db bb 81 57 a6 3c 1c 03 f4 bb
       -0.013185706 -0.0067022904 0.020305397 -0.0074466597
0003a0 ce 33 06 bd 74 49 2d bb 8d 8f 39 3b 6a 09 da 3c
       -0.03276425 -0.0026441487 0.0028314323 0.026615817
0003b0 6b 0f 42 bd 7f 63 ed bc d7 12 1b 3d 70 79 8b bc
       -0.047377985 -0.028978107 0.037859764 -0.01702568
0003c0 85 71 80 bc df 9a 10 bd 35 6d 9b 3b 8b 42 73 3b
       -0.01567913 -0.035303947 0.004743243 0.003711852
0003d0 77 fa f5 3c 7b a6 9d bb f5 c2 31 3c 59 a4 0c bc
       0.030026658 -0.004811106 0.010849704 -0.008584105
0003e0 d0 19 4a bd f7 1a 2b 3c 45 ef 9d 3b 01 4e 33 bc
       -0.049341023 0.010443441 0.004819783 -0.010943891
0003f0 8b 24 ef ba 96 ad 92 3c 99 55 a4 b9 50 02 f3 bb
       -0.0018245144 0.017905038 -0.00031344293 -0.007416047

head.6.weight f4 [128, 256]
000000 41 62 8b 3d aa 2f 3c 3c d1 53 f4 ba 2b 90 50 3d
       0.0680585 0.011485973 -0.0018640702 0.05091874
000010 64 f0 17 bd 63 84 5d bd 59 29 54 bd a5 a7 f2 bb
       -0.03709449 -0.054081332 -0.051797245 -0.0074052387
000020 08 9b 55 bd c1 2e 69 3d 14 bf 2d bd 6f 37 cd 3c
       -0.052149802 0.056929354 -0.042418554 0.025050847
000030 74 6c 3a 3d 38 44 f9 bc 94 66 30 3b 34 04 97 3c
       0.045513585 -0.030428037 0.002691661 0.018434621
000040 8a d4 61 3d 6c 41 7d bc a4 21 52 3c 9c d7 4d bd
       0.055134334 -0.015457492 0.012825403 -0.05025445
000050 ec d7 a0 bb 85 d2 45 3d 6d d5 3e 3d 88 fb 28 bd
       -0.0049085524 0.04829647 0.046590257 -0.041255504
000060 98 9c b0 bc e8 3a 3b bc fd de 17 3d ae 33 31 bd
       -0.021559045 -0.011427619 0.037077893 -0.043262176
000070 6c ec cc bb 3c eb 3d bd 02 f8 ac bc e1 1b 2f 3c
       -0.0062537696 -0.046366915 -0.021114353 0.010687799
000080 2a 55 86 3d ac 16 24 3d 2b e7 e0 bc 15 d2 29 bc
       0.065592125 0.040060684 -0.02745398 -0.010365029
000090 93 2a 1f 3d 7c 6b 21 bc b4 18 f6 3c a2 f9 97 3c
       0.03885896 -0.009852286 0.030041076 0.018551651
0000a0 fa aa af 3c 26 ca e5 bb c3 1c c5 bc 56 59 7b bd
       0.021443833 -0.0070126234 -0.024061566 -0.061364494
0000b0 8e 13 82 ba d3 45 64 3d 75 42 05 bc 7d 89 f0 bb
       -0.0009924041 0.055730652 -0.00813352 -0.0073406086
0000c0 95 46 32 3c af 37 79 3c 19 96 d6 bc 18 86 13 3d
       0.010881086 0.01521103 -0.026194619 0.036016554
0000d0 65 f5 dc bb 78 02 93 3c ed ed 78 3c e6 f9 80 3d
       -0.0067431205 0.017945513 0.015193445 0.06297664
0000e0 95 95 be bc ad 51 a0 3a e1 1e 8a 3d a7 df 8a bd
       -0.023264686 0.0012231373 0.06744171 -0.067809395
0000f0 29 38 61 3d c5 26 4e bd 44 60 04 3d 04 69 4a bd
       0.0549852 -0.050329942 0.03231837 -0.049416557
000100 2c a4 bd 3c df c7 2b bd 8b 8b 42 3d 0a 41 74 bd
       0.023149572 -0.04193866 0.04749636 -0.05963234
000110 39 42 90 3b 95 30 b0 bc b4 d8 88 3c e6 86 61 3c
       0.0044024256 -0.02150754 0.016704895 0.013765072
000120 c3 32 07 3c 90 4d 35 bd 51 9d 53 3b 31 ee 0c bd
       0.008251849 -0.044263422 0.0032289813 -0.034406845
000130 27 d0 49 bd b2 ac 75 bd 44 33 b5 bc b0 5b 8a bd
       -0.049270775 -0.05997915 -0.022119172 -0.06755769
000140 a1 a3 2e 3d 60 99 d3 bc 73 65 af 3c 23 d9 35 3d
       0.042636517 -0.02582997 0.02141068 0.04439653
000150 7e cf d7 bc 79 cd 22 bc 9b 41 b2 3b ea 9f d1 3c
       -0.026344057 -0.009936684 0.0054399497 0.025588948
000160 6e 79 09 3d 0d 9b 3b bd cc f0 b7 bc ee 22 8d 3a
       0.03356307 -0.045802165 -0.022453688 0.0010767856
000170 10 2a 0d bd 54 22 0a 3c bc 6d 35 bd a6 44 03 3d
       -0.034463942 0.008431036 -0.044294104 0.03204789
000180 e9 2d c9 bb 15 29 f2 bc 99 b6 56 3d 9e f7 52 3c
       -0.006139506 -0.029560605 0.052420232 0.012876419
000190 9b 6f d6 3c 93 e5 77 bd 99 c2 1b 3d 5d 4d 3f 3d
       0.026176265 -0.060521673 0.03802738 0.04670464
0001a0 27 61 4d 3b 8a 47 68 3d 0d 42 53 bb a0 1e 4d bd
       0.0031338425 0.05670885 -0.0032235414 -0.050078034
0001b0 cc e4 65 3d ec 2a 81 bd 52 f2 7f bd fd 7f 47 3d
       0.0561264 -0.06307015 -0.062486954 0.048706044
0001c0 02 c3 a4 bb b1 77 da bc 17 67 42 bd a2 68 9d 3c
       -0.0050281296 -0.026668401 -0.047461595 0.019214932
0001d0 ad 29 52 bc c2 da 50 bc b9 64 31 bd aa 54 2f 3d
       -0.012827319 -0.012747468 -0.043308947 0.04280535
0001e0 b5 fd 2e 3d 1b 09 e0 bc e3 0c f2 3b 5b ce 81 3c
       0.042722423 -0.027348092 0.00738679 0.015845468
0001f0 6a 5e 6a 3d 75 a3 c4 bc 72 1e 8b 3c 61 4d 90 3c
       0.057218947 -0.024003724 0.01698229 0.017615022
000200 97 88 55 3b bb e1 69 bc 89 4d 86 3d ac 93 7e bd
       0.0032582635 -0.01427501 0.065577574 -0.06215255
000210 9b fe 6d bd 3a be 54 3d 79 04 9d bc 15 b6 3e bd
       -0.05810414 0.051939227 -0.019167172 -0.046560366
000220 5e c6 e2 bc 19 26 f5 3b 37 8c 40 bd 94 a7 0e bc
       -0.02768248 0.0074813482 -0.04700872 -0.008706946
000230 d1 00 0a 3d 9c e8 b8 bc 81 87 ac 3c 43 24 12 3d
       0.033692185 -0.022571854 0.021060707 0.035679113
000240 e6 fc a5 3c db 94 28 3c 41 41 32 bd 9e 63 e5 3c
       0.020262193 0.010289396 -0.043519262 0.028001603
000250 86 cd 6f 3c e5 9e 97 3c e3 55 ec bc 1f 18 16 3d
       0.014636403 0.018508384 -0.028849548 0.036644097
000260 56 b1 7f 3c 2f 56 13 bd d9 67 8c 3c 2c d3 83 3d
       0.015606245 -0.035970863 0.017139362 0.06436762
000270 f2 b4 2a bd 02 f4 6e 3d 20 23 22 bd 9c 8d 59 bc
       -0.04167647 0.058338173 -0.03958428 -0.013278391
000280 eb 3e 68 bd 51 eb e3 3a 29 79 4e bd 7e f2 1e bd
       -0.05670063 0.0017388855 -0.050408516 -0.038805477
000290 90 b9 e4 bc 56 7c 5b bd a1 11 69 bd 39 0b 6c 3d
       -0.027920514 -0.053585373 -0.056901578 0.05762789
0002a0 c8 4e 4d 3a eb 2d ac bc ec 22 f9 3c 38 07 de 3c
       0.0007831869 -0.02101799 0.03041216 0.027103052
0002b0 a5 f8 59 3d 6a 7d 57 bd 85 19 b0 3c c0 f7 1b bd
       0.05321564 -0.05260984 0.021496544 -0.03807807
0002c0 37 69 6d bc 25 99 4c bd 02 a1 5c bd eb 4f 2a bd
       -0.014490417 -0.049950738 -0.053864487 -0.041580122
0002d0 97 c7 43 3d 4e 2d 2e bd 96 f6 32 bd db dd 05 bd
       0.047797766 -0.042523675 -0.043692194 -0.03268228
0002e0 0b d6 3c 3c 58 f7 0b 3d 61 57 35 bd af 24 80 3c
       0.011525641 0.034171432 -0.044272784 0.015642492
0002f0 7a 02 f0 3c b3 95 15 3d 95 0d 2b bd 81 16 f6 bc
       0.029298056 0.036519717 -0.041761 -0.030040028
000300 fc ad 0c 3c 60 1a 49 3d de f4 33 bd 82 4d 5d 3c
       0.008586403 0.04909742 -0.043934695 0.013507249
000310 3f fe 5c bd 0b ca 77 3d 7b 2c 88 3c e1 48 3a 3a
       -0.053953405 0.060495418 0.016622772 0.0007106197
000320 cf bc 0f 3d ae 4a 78 bc fe f7 17 bd da 67 8a 3c
       0.03509217 -0.015154524 -0.03710174 0.016895223
000330 07 1b 32 bd 4d aa c9 bc ba ab 1f bc 3a 61 5b bd
       -0.043482807 -0.024617339 -0.009745533 -0.05355952
000340 65 a7 01 3d 7e 82 6e bd e8 a1 70 3c ba 05 a9 bb
       0.03165378 -0.058229916 0.014687039 -0.0051581534
000350 a6 34 63 bd 5e 53 ce bb d6 18 58 bc 78 72 25 bd
       -0.05547013 -0.0062965592 -0.013189515 -0.04039237
000360 72 c6 6c 3d 17 ad 45 bd 97 34 8d bc 7c eb 48 bd
       0.05780644 -0.048260774 -0.01723699 -0.0490527
000370 1b 9d 65 bc c6 c6 e7 bc 57 5d 14 3c 08 39 4e 3d
       -0.014014508 -0.028293025 0.009055457 0.050347358
000380 61 49 24 bc f8 0e 81 3b d5 ee 71 bd b4 ab e6 3c
       -0.0100272605 0.003938552 -0.05906566 0.028158046
000390 52 a5 fa ba 5c 19 fd bb 49 03 17 bd 15 3b 12 bd
       -0.0019122756 -0.0077239703 -0.036868367 -0.035700876
0003a0 70 fd 5c bd 38 b9 5a 3d 09 40 1b 3d 98 b1 7b bd
       -0.053952634 0.053399295 0.037902866 -0.061448663
0003b0 30 43 a1 3c ef db 6d 3d 9a bd bf 3c 56 d3 d0 bb
       0.019685358 0.058071073 0.023405839 -0.0063728495
0003c0 d4 23 56 bc 70 ab e6 3c d6 19 1c bd 0f 34 45 3d
       -0.0130700655 0.02815792 -0.038110577 0.04814535
0003d0 be 41 33 bd 30 80 7a bd 32 01 0a 3d 7c 7c e0 3c
       -0.04376387 -0.061157405 0.033692546 0.027403109
0003e0 0d 89 9e bc 22 65 44 3d c9 de a5 3a ed 25 8c 3d
       -0.01935246 0.04794801 0.0012654896 0.06843171
0003f0 fb b7 1a 3d e1 a0 01 3c 77 60 28 3c 95 ea 98 3d
       0.037773114 0.007911892 0.010276905 0.07466618

head.6.bias f4 [128]
000000 41 57 4b 3d 7e 89 45 bc bc f9 79 3d 9f 93 9a bc
       0.04964376 -0.0120567065 0.06102918 -0.01886922
000010 a0 d0 47 3d 0b 99 38 3d d9 c2 85 bd 3e 98 f4 3c
       0.048782945 0.04506783 -0.06531305 0.029857751
000020 8c 5f 04 bd 9a 6b b1 3d fa c4 62 3c 8d 65 d2 3b
       -0.032317683 0.086631015 0.013840908 0.006420797
000030 88 a2 80 bd 0b fe a1 bb 80 0e 05 3d a3 3f 49 bd
       -0.062810004 -0.0049436144 0.03248453 -0.049132954
000040 d9 c2 24 bc a9 c8 51 3d be 3e 2c bd fb fa d3 3c
       -0.010056221 0.051216755 -0.042052023 0.025876513
000050 a4 b4 e0 bc 6a b6 6b bc 8e f5 85 bc 01 c1 8b bd
       -0.027429886 -0.014386753 -0.016352441 -0.06823922
000060 53 2f 35 bc 6c 1d ec bb 6e 09 0a 3d 58 fd 57 3d
       -0.011058646 -0.007205656 0.0337004 0.05273184
000070 c1 02 37 3d 50 cf 79 bc c6 c8 5a 3c 8e b5 86 bd
       0.04468036 -0.015247181 0.013353532 -0.065775976
000080 18 ed 35 3b 35 54 2e 3d ea 6a 0b bd 22 be 3c bb
       0.0027759727 0.042560775 -0.034037508 -0.0028799851
000090 80 66 3a bd 69 1c be bd 6c 01 8a bd 4f af 32 3d
       -0.045507908 -0.092827626 -0.067385525 0.04362422
0000a0 d0 5d 36 bd 56 05 54 3d a3 69 ab 3c 51 55 8c 3d
       -0.04452306 0.0517629 0.020924395 0.0685221
0000b0 a9 03 59 bd 86 12 ab bc aa f8 43 3d 9c 0d 97 bc
       -0.052982006 -0.020882856 0.047844566 -0.018439107
0000c0 1d df 90 3c 85 57 0d 3c 78 35 36 bc f4 99 9f bc
       0.017684514 0.008626823 -0.011121146 -0.01948259
0000d0 84 ee ff 3c 88 0a 87 3d 78 96 32 bc 86 d7 55 3c
       0.031241663 0.065938056 -0.010900132 0.013051873
0000e0 1f cd af bc 7b 23 98 3c 38 4e 94 bc 31 c0 c2 3c
       -0.021460114 0.018571606 -0.018103704 0.023773285
0000f0 6a 81 45 3d 8d 2f 23 bd b1 d7 40 bd b6 e6 46 bc
       0.048219122 -0.03984027 -0.0470807 -0.012139967
000100 24 18 96 bd 42 44 80 bb 87 f3 5b bd e5 b8 84 bd
       -0.07328823 -0.003914387 -0.053699043 -0.06480578
000110 f2 77 15 bd 5d 4e b0 3c d3 a8 66 ba 60 8a c5 3c
       -0.036491342 0.021521742 -0.00087989605 0.024113834
000120 21 d1 75 3d 73 63 60 bd 69 75 01 bd 6f d1 f4 bc
       0.060013894 -0.054782342 -0.03160611 -0.029885022
000130 56 8e 96 bc 3e 0b 3b bd 8a 7d 96 bd d5 38 d4 bb
       -0.018378418 -0.04566502 -0.073481634 -0.0064765015
000140 9b 9c 5f 3d 0c 21 56 3d 22 92 87 bc 78 cb 33 bd
       0.05459271 0.05227761 -0.016549174 -0.043895215
000150 fc a7 53 3c d0 62 1c 3d f9 45 82 bd b8 20 82 bc
       0.012918469 0.038180172 -0.063610025 -0.015884742
000160 79 d1 33 3d cc 8c 5b 3c 6b 17 a3 3d ef 05 00 bd
       0.04390094 0.013400268 0.07963451 -0.03125566
000170 67 57 6c 3d b7 df fd bc 10 d6 08 3b 86 4c bd b9
       0.05770054 -0.030990465 0.0020879544 -0.00036105904
000180 40 0d 9c 3c dd f6 c6 bb cb 58 f2 3b 7f 4a 68 bd
       0.019049287 -0.006071909 0.007395839 -0.05671167
000190 64 67 e6 3c 3a 8d 6c 3d d6 17 8d 3d a4 47 27 bd
       0.028125472 0.05775187 0.06889312 -0.040839806
0001a0 e2 1b 71 3d 18 8b 01 3d ce 86 f1 3c d5 83 36 3d
       0.05886448 0.03162679 0.029483225 0.04455932
0001b0 47 05 f9 3c 08 22 09 bb 50 38 13 bd f9 19 22 bb
       0.030398024 -0.0020924825 -0.035942376 -0.002473472
0001c0 d8 60 5b 3d b4 5f 78 bd b8 dd 91 3c 4d 15 03 3d
       0.053559154 -0.060638145 0.017805919 0.032002736
0001d0 8c ce 09 3d 95 32 80 bd cf 0e 40 bd 28 c6 55 3a
       0.033644244 -0.06259648 -0.046889123 0.0008154833
0001e0 f4 29 a7 3b af a4 f8 bb c1 1b 14 3d 5b 71 c4 3c
       0.0051014367 -0.007587991 0.03615928 0.023979833
0001f0 19 43 7f 3c dc 1f 0d 3d 2a 22 29 3d c9 87 45 3d
       0.015579962 0.03445421 0.041292347 0.048225198

head.9.weight f4 [7, 128]
000000 fe 46 85 3d 03 f0 40 3b 00 c3 1e 3c 4c 28 d2 bc
       0.06507681 0.0029439933 0.009690046 -0.02565398
000010 ba 0d c8 bc f6 64 b3 3c a9 0a 9c bd 76 90 09 bc
       -0.024420608 0.021898728 -0.07619221 -0.008396259
000020 08 24 88 3d 2e 93 e2 3b d8 0b 4e bb 93 34 27 3d
       0.066474974 0.006914518 -0.0031440165 0.040821623
000030 05 4c 11 bd c1 61 8d 3d 99 89 a8 3c bf 54 16 bd
       -0.03547289 0.06903411 0.020573424 -0.036701914
000040 9b 45 0d bd a1 20 32 3d 7d 91 08 3d e0 e7 14 3c
       -0.03449021 0.04348815 0.033341873 0.009088486
000050 46 f5 7f bd ee c7 d0 bc a6 39 2b 3d 82 c8 87 bd
       -0.06248977 -0.025485959 0.041803025 -0.06630041
000060 2f dd 6e bd 0e ad 8a bb a7 39 1e 3d 4d 4a 56 3c
       -0.058316406 -0.0042320555 0.0386292 0.013079238
000070 96 6f 0e 3d 3c ca 3a 3b 25 4a 3e 3d a2 2e 7f bc
       0.034774385 0.0028501889 0.04645743 -0.015575083
000080 a0 9f 15 3d 21 f8 e3 bb 9f 6b d8 39 18 e3 31 bc
       0.036529183 -0.0069570695 0.00041278914 -0.010857366
000090 22 52 33 bd e8 83 29 bc 16 13 4e bd 2b 8e 84 bd
       -0.0437795 -0.01034639 -0.05031117 -0.06472429
0000a0 74 1d 93 bc 29 dd 7e 3d 9d ab 8e 3b 69 58 3f 3d
       -0.01795838 0.062222634 0.004353954 0.046715174
0000b0 1c 01 b5 3c 5c 08 ca bc 9e 16 6e bd a5 27 04 3d
       0.022095256 -0.02466219 -0.05812704 0.03226437
0000c0 cc b1 4e 3d fc 62 60 3d d2 05 0f 3c 9d 07 b8 bb
       0.05046253 0.0547819 0.008729415 -0.005616142
0000d0 a1 ea 76 bd 6a f9 2b 3d 87 ae 7c bd 30 6d b3 3c
       -0.060282353 0.041985907 -0.06168988 0.02190265
0000e0 85 00 33 bd 07 cf 81 3d 82 5b 91 bd 0d d4 99 3b
       -0.043701667 0.063383155 -0.07097532 0.004694468
0000f0 3f 52 00 3d 66 ce d0 bc e5 ac 0d bc eb 15 e1 3c
       0.031328436 -0.025489043 -0.008647178 0.027476272
000100 6f 43 87 bd af cd 30 3c 31 87 77 bc 40 4d 4d ba
       -0.06604659 0.010791226 -0.015107916 -0.00078316405
000110 04 8e 8f 3c 23 a7 8b 3c 9f 5a 00 bd f6 b5 72 3d
       0.017523773 0.01704747 -0.031336423 0.059255563
000120 1e 91 17 3b 14 47 57 bd 0f 9f 4c bd 3d d0 e3 3c
       0.0023127268 -0.05255802 -0.049956378 0.027809257
000130 7e 2b 9b bd fa 88 58 3a ef b9 ea bc 7d 3b 1f bc
       -0.07576655 0.0008260157 -0.028653113 -0.009718773
000140 fc 38 cc 3b 5b 86 9c 3d 63 e4 88 bc 00 63 29 bc
       0.006232379 0.07642814 -0.016710466 -0.010338545
000150 4f 5e 96 3d 1b 0b 7f bd 53 b1 10 bc 85 22 7c bc
       0.07342207 -0.06226645 -0.00883134 -0.0153890895
000160 f8 55 cf 3a df 0b 19 3d bc 3b 02 3c 1b d0 4d bd
       0.0015818467 0.037364837 0.007948812 -0.050247293
000170 f9 e8 80 3d 3a b7 ec bc 78 6a 99 bd 7c 18 a0 3d
       0.06294436 -0.028895963 -0.074910104 0.0781717
000180 c1 d4 d7 3c 3c 24 41 3d 66 4e af bb 4e b6 d6 3b
       0.026346566 0.047153696 -0.005349922 0.006552494
000190 3c fe a4 3d 49 36 0a 3d 2a 95 18 3b c7 c6 33 3c
       0.08056304 0.033743177 0.0023282268 0.010972685
0001a0 5c b2 8f 3d cf 35 21 bb ef 99 2d bc fa a7 39 3c
       0.07016441 -0.0024598723 -0.010595783 0.011331553
0001b0 64 29 a5 ba 9b 73 2f bd 40 1a 64 3d f3 27 88 3d
       -0.0012600836 -0.04283486 0.055689096 0.06648245
0001c0 00 bc 9b 3c 29 8a 83 bd 40 c9 95 bd 15 d4 87 bc
       0.019010544 -0.06422836 -0.07313776 -0.01658062
0001d0 2a 54 c2 bc 3a cf df 3b 20 24 85 3d 24 d9 e5 bc
       -0.023721773 0.0068301233 0.06501031 -0.028057642
0001e0 fa 36 1e bd 0b 7e 0d ba 22 08 d9 3c d9 24 33 bd
       -0.03862665 -0.0005397505 0.026493136 -0.043736313
0001f0 65 3e 09 3d fa 00 83 bd 40 33 dd 3b 0e 41 83 3d
       0.03350677 -0.06396671 0.0067504942 0.064088926
000200 7a d0 f5 3b d0 45 1c be e5 e9 5a 3d f0 a7 c5 3b
       0.007501659 -0.15261006 0.053445715 0.0060319826
000210 5b 06 67 bd df 92 99 bd c4 a8 1f bd 98 57 f8 3d
       -0.056402545 -0.074987166 -0.038979307 0.12126082
000220 d0 14 29 bc 27 1f 68 bd 4a 0f dc bd 58 a8 4e bd
       -0.0103199035 -0.056670334 -0.10745104 -0.050453514
000230 5e ce 7f bc cd 11 37 bc 0e 7f e7 bc bc d3 de bd
       -0.015613167 -0.011173678 -0.028258827 -0.10880229
000240 85 06 bd 3d bc ef a8 bd e9 5c da bc 97 9e a9 bd
       0.09229759 -0.08248851 -0.026655631 -0.08282202
000250 4e 92 67 bd 60 0e bc bd 3b 30 7f bd f7 de 27 3d
       -0.05653601 -0.09182429 -0.062301856 0.04098412
000260 6d 69 9d 3d 54 ab 51 bd ba 3c d2 3d fb c0 93 3d
       0.07686124 -0.05118878 0.10265489 0.072145425
000270 7c 7b b7 bc e6 ca a0 3d 5c a9 87 bc d3 07 a0 3d
       -0.02239775 0.078512 -0.016560249 0.07813992
000280 1c e3 f0 3d e1 22 df bd b1 e9 2e 3d 94 e6 1e bd
       0.11762068 -0.108953245 0.042703334 -0.038794115
000290 37 25 06 bd a3 c0 97 bd d3 4f 4f bd 91 64 61 bc
       -0.032750335 -0.074097894 -0.050613236 -0.013756887
0002a0 06 15 8c bc 80 a0 b4 bd e5 e0 7d 3d 98 27 1c bd
       -0.017099869 -0.088196754 0.061982054 -0.038123697
0002b0 22 d2 fe bd 12 10 aa 3d 80 5a f1 bd 7b d4 c3 bc
       -0.124424234 0.083038464 -0.1178484 -0.02390503
0002c0 c7 78 7a 3d a0 3e 6e bb 69 43 d4 3d 54 6e 14 bc
       0.06115034 -0.0036353245 0.1036442 -0.009059507
0002d0 4e fb ae bd c4 a0 4e 3d 7e fb 38 3d a3 17 48 3d
       -0.08544026 0.050446287 0.045161717 0.048850667
0002e0 ca f7 56 3c 64 55 d7 bd ab e6 6b 3d 74 32 10 3e
       0.013120601 -0.10514334 0.05759303 0.14081746
0002f0 cb 7a 0d be 45 22 39 3d 1e 38 03 bd f3 d9 f4 bc
       -0.13816373 0.045198698 -0.03203594 -0.029889083
000300 e3 9b 60 bd fd 06 2c 3d da b0 12 bc 57 04 9f 3d
       -0.054836165 0.041998852 -0.0089532975 0.077645
000310 ee 14 f5 bd d1 8d 32 3d 62 06 a7 bd 6a 05 0d 3e
       -0.11966883 0.043592278 -0.08155514 0.13771597
000320 6f cf ad 3b 73 15 c7 3d 32 15 59 3d b1 61 0e bd
       0.005304269 0.09720888 0.05299873 -0.034761135
000330 1e 3d be 3d 89 ca 38 3e 01 41 ee 3c 17 3c 36 bd
       0.09289001 0.18046011 0.02908373 -0.0444909
000340 e8 fc cf 3c 01 3a 5b 3b f6 44 ce 3d 65 f0 5e 3d
       0.02538915 0.003345132 0.10071747 0.054428477
000350 ee eb b0 3d 93 f9 c5 3c fa 54 8a bd 68 e4 9d 3d
       0.0863875 0.024166858 -0.06754489 0.07709581
000360 16 e9 03 3e 7c 26 6c 3d 39 b5 49 3c 77 07 9b bd
       0.12881884 0.05765389 0.012311273 -0.07569783
000370 9b c3 af bc ee a2 9e bc 7c 5d b4 bd 8d 9c a1 3c
       -0.021455577 -0.0193648 -0.08806893 0.01972797
000380 97 ee bc 3c c8 68 68 bc b6 bb 10 3d b6 e1 96 3d
       0.023062987 -0.014185138 0.035335265 0.0736727
000390 b6 de 14 bd bd ef da bc d5 e5 0a 3d 7e e3 0e bb
       -0.036345206 -0.026725644 0.03391059 -0.0021803076
0003a0 73 e5 b7 3d 4c 2a 96 3c 82 67 f6 bd e3 84 2c 3b
       0.08979311 0.018330716 -0.12031461 0.0026324324
0003b0 2b a3 9d bd f4 b0 c0 3d f1 68 be bd 6c 62 b8 3d
       -0.076971374 0.09408751 -0.0929736 0.090031475
0003c0 8b 43 09 be 5d 03 e2 3d 31 c0 1e bd 6b ad 3e 3a
       -0.13404672 0.11035798 -0.038757507 0.0007273766
0003d0 28 61 38 3d 3c a5 b3 3c 55 51 5e bd f2 5f 1f 3d
       0.04501453 0.021929376 -0.054276783 0.03890986
0003e0 b9 18 f6 3c 12 8c ce bc 9c ff a1 3d 64 fc 9b bd
       0.030041086 -0.025213275 0.07910082 -0.07616499
0003f0 fb 1d 0b 3d e0 0d 73 3d 7e 16 e0 3d c8 78 91 3d
       0.03396414 0.059339404 0.1094179 0.07103115

head.9.bias f4 [7]
000000 fb a6 7c bc 4e fd 62 bd cf d1 b2 3c 7c 72 07 be
       -0.015420671 -0.05541735 0.02182856 -0.13227266
000010 22 3a 8c bd e6 79 c4 3d 41 96 46 bd
       -0.068470255 0.09593563 -0.048483137
