script/tabpfn_sabr_step8_stacking.pth (torch, 685015 bytes, 8 tensors)

head.0.weight f4 [512, 9]
0.05273242 -0.07283074 -0.10382263 -0.16003121 -0.15424842 -0.3014618 0.24562263 0.11838229
-0.36925837 -0.019550247 -0.18674791 -0.18951727 0.13563013 0.25178185 0.23621503 -0.287552
0.29730636 -0.3171711 -0.031951368 -0.13717417 0.13255122 -0.28024724 0.21025163 -0.014684081
0.20428471 0.1614804 0.31740096 0.2522968 -0.14303854 -0.13767785 -0.33061066 -0.14949802
0.071122855 -0.05306021 -0.15286207 -0.27602038 0.08063944 0.22302826 -0.08620371 -0.30525622
-0.14970425 0.13143681 0.50099075 0.42729202 0.23028871 -0.07474663 -0.24811192 0.36103582
-0.32974172 0.12490035 0.28892702 0.39860687 0.452166 0.075460054 0.08481642 -0.17872342
0.106787 -0.030594787 0.069383994 0.3323777 -0.31919777 -0.29956692 -0.24147269 -0.022557573
-0.048227046 -0.046977952 -0.014701272 -0.1045955 -0.27720952 0.5303032 0.34662774 0.20244859
0.09019717 -0.07904942 0.094574 -0.04923644 0.26381275 0.14601664 -0.080250226 -0.30410442
0.2939102 0.026237361 -0.10919302 0.114465855 0.03675602 -0.092802875 0.15196508 0.150643
-0.39009616 0.05217229 -0.07466739 -0.11329297 0.1261121 -0.017498702 0.03772643 0.15313932
0.02604311 -0.1924417 0.30969185 -0.07640713 0.0070439815 -0.031054998 -0.34963918 0.07991411
-0.03236456 0.27471814 0.10899802 -0.050783135 -0.1364666 0.16800052 0.15463987 -0.28627747
0.19156715 0.24912678 -0.030278292 -0.18016234 0.2797892 -0.07798925 -0.2141526 -0.1353715
-0.016909674 -0.27103698 0.39060524 -0.38017923 -0.19086157 -0.11651829 -0.101129495 -0.2617149
0.1675344 0.28876227 -0.043096904 0.18134566 0.15537068 -0.2752406 0.017366959 0.10160346
-0.020883938 0.14653075 -0.28261992 0.13914715 -0.017691152 -0.024549363 -0.1787476 -0.3058301
-0.03396992 0.01461079 0.02859879 -0.14344065 0.08164023 -0.230438 0.3982063 0.014223168
0.32270038 -0.062401965 -0.067582704 -0.111938335 -0.08818282 -0.19402383 -0.20353669 0.16763446
-0.19399275 -0.26895234 -0.113139644 -0.11882408 0.1271288 0.2595872 -0.16477089 0.20394845
-0.0062335758 0.014393486 -0.11733924 -0.010262931 0.07041584 0.07299175 -0.06858736 0.058958508
-0.10969318 0.18250033 -0.09382332 -0.4395258 0.0082216235 -0.050098628 0.009092521 0.10491423
-0.16779475 0.06405609 -0.06970937 -0.20152704 0.4241691 -0.0704689 -0.012910869 -0.058156822
0.30457726 -0.1586374 -0.04890446 0.1513912 0.17134568 0.19741549 0.008825929 -0.024230916
0.09682577 0.19239849 0.080798395 -0.034147497 0.23315938 -0.24565454 0.3802709 0.21011059
-0.27913505 -0.12326383 -0.23029166 0.037515473 -0.44324836 -0.24437247 -0.08417518 0.09278386
0.012357801 0.07315097 0.12390257 -0.12950149 0.011277692 0.03838583 -0.21764629 0.16051893
-0.47425413 0.10226201 -0.2667984 0.061348815 -0.24174093 -0.04585615 -0.19998972 -0.064860344
0.17119765 -0.050356865 -0.09935642 -0.15136889 0.017397385 0.15223421 -0.2112889 0.011018545
-0.099681795 -0.2664381 0.24163869 0.067879505 -0.11862347 0.02678463 0.18503281 -0.17453444
-0.031191366 0.35262644 0.2202581 -0.09620784 0.026263667 -0.20048875 0.11954748 0.11992486
00000000: f3fd 573d 4828 95bd f6a0 d4bd 39df 23be
00000010: 4cf3 1dbe 3359 9abe 8084 7b3e 6a72 f23d
00000020: 6f0f bdbe d727 a0bc d83a 3fbe d110 42be
00000030: a0e2 0a3e 8de9 803e 5ae2 713e 043a 93be
00000040: 8a38 983e 4064 a2be 70df 02bd 6377 0cbe
00000050: 82bb 073e 917c 8fbe 344c 573e 8095 70bc
00000060: 0330 513e 1e5b 253e 6182 a23e 0c2d 813e
00000070: b278 12be 6cfb 0cbe cd45 a9be 0216 19be
00000080: dca8 913d aa55 59bd e087 1cbe 8b52 8dbe
00000090: 4a26 a53d 8561 643e 928b b0bd 8b4a 9cbe
000000a0: 124c 19be 5f97 063e ee40 003f 05c6 da3e
000000b0: ced0 6b3e c314 99bd 0d11 7ebe b0d9 b83e
000000c0: e8d3 a8be c1cb ff3d 3eee 933e 3316 cc3e
000000d0: 4d82 e73e cd8a 9a3d 3bb4 ad3d 4603 37be
000000e0: 25b3 da3d eba1 fabc 3219 8e3d 692d aa3e
000000f0: e46d a3be d660 99be 9e44 77be a9ca b8bc
00000100: b989 45bd f46b 40bd 9bdd 70bc 2a36 d6bd
00000110: 68ee 8dbe f3c1 073f 3179 b13e af4e 4f3e
00000120: 4bb9 b83d aae4 a1bd 03b0 c13d 26ac 49bd
00000130: 7712 873e 6385 153e 3b5a a4bd 93b3 9bbe
00000140: 667b 963e bcef d63c 97a0 dfbd 136d ea3d
00000150: 7b8d 163d 6f0f bebd bc9c 1b3e 2942 1a3e
00000160: afba c7be 9cb2 553d 37eb 98bd 2506 e8bd
00000170: 8823 013e 7059 8fbc 0787 1a3d 8ed0 1c3e
00000180: 5c58 d53c 700f 45be ee8f 9e3e 577b 9cbd
00000190: 33d1 e63b 0d67 febc e803 b3be 02aa a33d
000001a0: b390 04bd dba7 8c3e 5b3a df3d fa01 50bd
000001b0: e6bd 0bbe 5408 2c3e ea59 1e3e f692 92be
000001c0: 2e2a 443e 171b 7f3e 2e0a f8bc 7a7c 38be
000001d0: 8840 8f3e d4b8 9fbd d24a 5bbe d49e 0abe
000001e0: 2886 8abc 5cc5 8abe 69fd c73e daa6 c2be
000001f0: 3771 43be 24a1 eebd fb1c cfbd 7fff 85be
00000200: 238e 2b3e a6d8 933e 6186 30bd adb2 393e
00000210: 7e19 1f3e 56ec 8cbe 2745 8e3c 7a15 d03d
00000220: cb14 abbc 280c 163e 8fb3 90be 977c 0e3e
00000230: 09ed 90bc bf1b c9bc 9c09 37be c395 9cbe
00000240: 0b24 0bbd 1862 6f3c 0248 ea3c 1be2 12be
00000250: fe32 a73d f0f7 6bbe b2e1 cb3e 4a08 693c
00000260: fc38 a53e 3499 7fbd cd68 8abd ed3f e5bd
00000270: 3299 b4bd 2fae 46be ec6b 50be 5ea8 2b3e
00000280: 09a6 46be 1fb4 89be c2b5 e7bd 0a5a f3bd
00000290: 0d2e 023e 9de8 843e b3b9 28be ddd7 503e
000002a0: 0643 ccbb a8d2 6b3c 8e4f f0bd da25 28bc
000002b0: 2e36 903d b37c 953d 8877 8cbd 7a7e 713d
000002c0: d1a6 e0bd 5ee1 3a3e 7126 c0bd 8709 e1be
000002d0: fdb3 063c 3834 4dbd ccf8 143c 46dd d63d
000002e0: 63d2 2bbe d72f 833d c9c3 8ebd 1b5d 4ebe
000002f0: b12c d93e 0052 90bd 1c88 53bc d935 6ebd
00000300: 8df1 9b3e d871 22be 0b50 48bd 4b06 1b3e
00000310: 3e75 2f3e 4927 4a3e a19a 103c ea7f c6bc
00000320: 974c c63d 1c04 453e a179 a53d 3fde 0bbd
00000330: 55c1 6e3e dd8c 7bbe deb2 c23e 3b27 573e
00000340: caea 8ebe bf71 fcbd 94d1 6bbe d3a9 193d
00000350: 73f1 e2be c73c 7abe 0964 acbd 7705 be3d
00000360: 6078 4a3c 2dd0 953d a1c0 fd3d 0a9c 04be
00000370: 12c6 383c 763a 1d3d abde 5ebe 135f 243e
00000380: 70d1 f2be bf6e d13d cd99 88be e548 7b3d
00000390: ef8a 77be a9d3 3bbd 1bca 4cbe 80d5 84bd
000003a0: 704e 2f3e 0043 4ebd 617b cbbd 7200 1bbe
000003b0: f684 8e3c 49e3 1b3e 1e5c 58be 2187 343c
000003c0: f825 ccbd 936a 88be 2270 773e 6904 8b3d
000003d0: ddf0 f2bd 716b db3c 3e79 3d3e 28b9 32be
000003e0: 0985 ffbc 748b b43e 578b 613e 9e08 c5bd
000003f0: e726 d73c ec4c 4dbe 4fd5 f43d 2a9b f53d

head.0.bias f4 [512]
0.23695785 0.14922263 0.16672449 -0.1584786 -0.072401546 -0.30983216 -0.17339496 0.24989125
0.24694695 0.065599374 -0.20020859 -0.037437055 -0.011589411 -0.15971039 0.015144326 0.20423947
-0.044334713 -0.11788148 0.011822516 0.27096862 -0.276956 -0.14619695 0.0322141 -0.32282555
0.09559398 0.007388049 -0.34355497 0.1469483 0.38113385 0.14989428 0.18076824 0.036328837
-0.15613899 -0.28425747 -0.017788231 -0.3178812 0.0040416373 -0.18096162 0.15651165 -0.19316638
0.29644674 -0.3373426 0.14196594 0.18335326 0.012885269 0.037996385 -0.19922367 0.22127217
-0.03612547 0.022643272 -0.21898124 -0.32542846 -0.07005225 -0.13499594 -0.022819443 -0.029791446
-0.08058839 0.10353788 -0.052996404 0.022632243 -0.19653699 -0.07922928 -0.030610703 -0.3442093
-0.0931026 0.22948323 0.057609037 0.11451475 0.1759831 0.03631212 0.1782318 0.16233493
-0.22350651 -0.118497714 0.029932696 -0.24931598 0.05494669 0.21882008 -0.065466814 0.153089
0.058557037 0.048608977 0.15081272 0.07150861 0.0020591416 -0.1229973 0.14724514 0.2506188
0.10907637 0.105554 0.09426758 0.026020871 -0.07912493 0.19815738 0.11885068 -0.1777962
0.059437048 0.00020748457 -0.43197125 -0.16600332 0.088224754 -0.15022707 0.15196696 0.21202722
0.21339932 -0.22786297 0.25808442 -0.074404545 -0.005241569 -0.078783885 -0.12997556 -0.26503152
-0.29901665 0.063629486 -0.09571383 0.0689164 0.10144911 -0.21936384 0.28288662 0.07190673
0.06980526 0.20906067 -0.23325296 -0.2673121 0.18703096 -0.10000457 -0.120851174 0.12937403
-0.03410183 0.12029514 -0.24350327 -0.1701822 0.085292414 -0.043317072 0.1971195 -0.021010144
0.23479737 0.035703536 -0.4137443 -0.073736355 0.357286 -0.30161393 0.087115295 -0.21042345
0.2238544 -0.05467717 -0.29200172 -0.027458617 -0.27037185 -0.08243232 -0.1772234 -0.24007191
-0.08450954 -0.23831125 -0.24358697 -0.24347045 -0.108630106 -0.21957032 -0.07264806 0.13168775
-0.11716188 -0.2712279 -0.31274042 -0.3300705 -0.2062332 -0.13069387 -0.17655803 -0.0107283415
0.38494304 0.025359506 -0.2377734 0.03897115 -0.049729165 -0.027533194 0.041763633 -0.037284315
0.21270698 -0.2992159 0.08284141 -0.054549854 0.314922 -0.14964151 0.045699645 -0.09624557
-0.30881292 -0.24207318 -0.22184442 -0.19226353 -0.12746213 -0.22651681 -0.3320157 0.12408637
-0.20543677 0.12850836 0.03547351 -0.17509383 0.04836912 0.14816514 -0.19881193 -0.11789044
-0.15992215 0.14243636 -0.15317138 -0.19190168 0.0966536 -0.11782846 0.3353918 -0.013048881
-0.32665637 0.19738805 0.15342787 0.14415467 -0.20042862 0.055665158 0.048059627 -0.3294372
0.09043668 0.008648829 -0.22926795 -0.10128355 0.0030881134 -0.03931831 0.09689321 -0.045938242
-0.1406548 -0.13023828 -0.28527868 -0.29634315 -0.18335411 -0.26922226 0.047641996 0.0045427415
-0.0043847417 -0.18502548 0.023952432 0.1086423 -0.11782858 -0.31708297 0.05693504 -0.37026355
0.13996948 0.23428598 0.021066954 0.0050577614 0.03891708 -0.12870543 0.06587345 0.11994248
0.003993284 -0.03712678 -0.023926655 -0.1428353 0.11269753 0.07909694 0.22113095 0.08590351
00000000: 14a5 723e d1cd 183e d3b9 2a3e 3748 22be
00000010: 4347 94bd 52a2 9ebe 738e 31be 7ee3 7f3e
00000020: a9df 7c3e f758 863d 7b03 4dbe 9957 19bd
00000030: 83e1 3dbc 1f8b 23be e81f 783c 2724 513e
00000040: 5198 35bd d86b f1bd 3ab3 413c 66bc 8a3e
00000050: 2dcd 8dbe a7b4 15be eff2 033d 6449 a5be
00000060: c7c6 c33d 7217 f23b 70e6 afbe 9d79 163e
00000070: fa23 c33e e37d 193e 4f1b 393e 8ccd 143d
00000080: e6e2 1fbe 328a 91be a0b8 91bc 53c1 a2be
00000090: b66f 843b 014e 39be 9744 203e 68cd 45be
000000a0: dec7 973e 2bb8 acbe 855f 113e f5c0 3b3e
000000b0: bc1c 533c 19a2 1b3d 4a01 4cbe 2c95 623e
000000c0: 4df8 13bd 627e b93c 9e3c 60be 8f9e a6be
000000d0: 8e77 8fbd 603c 0abe d7ef babc 310d f4bc
000000e0: 870b a5bd ab0b d43d c212 59bd 4167 b93c
000000f0: fe40 49be f642 a2bd 4cc3 fabc 343c b0be
00000100: 93ac bebd a7fd 6a3e 74f7 6b3d b686 ea3d
00000110: ea34 343e 04bc 143d 6682 363e 213b 263e
00000120: e4de 64be eeae f2bd 6a35 f53c b04c 7fbe
00000130: c80f 613d 5f12 603e 7713 86bd 5dc3 1c3e
00000140: 81d9 6f3d 351a 473d a66e 1a3e 1b73 923d
00000150: aaf2 063b 02e6 fbbd 6ec7 163e 1b51 803e
00000160: 6f63 df3d b22c d83d 5c0f c13d b929 d53c
00000170: 400c a2bd c5e9 4a3e fc67 f33d 3510 36be
00000180: 4374 733d 3790 5939 562b ddbe c6fc 29be
00000190: 2eaf b43d 20d5 19be 3a9d 1b3e aa1d 593e
000001a0: 5a85 5a3e e954 69be a423 843e 6961 98bd
000001b0: 78c1 abbb 7259 a1bd 5018 05be 36b2 87be
000001c0: b618 99be 2d50 823d 9d05 c4bd 0b24 8d3d
000001d0: 8dc4 cf3d eaa0 60be 84d6 903e d643 933d
000001e0: 0ff6 8e3d 0014 563e ddd9 6ebe 22dd 88be
000001f0: 0b85 3f3e 32cf ccbd d280 f7bd a07a 043e
00000200: 5cae 0bbd 4c5d f63d ec58 79be 3e44 2ebe
00000210: caad ae3d 3e6d 31bd b2d9 493e 771d acbc
00000220: b96e 703e df3d 123d 4bd6 d3be 1603 97bd
00000230: 31ee b63e 246d 9abe 8169 b23d 3f79 57be
00000240: 163a 653e 2bf5 5fbd 4081 95be e5f0 e0bc
00000250: 2e6e 8abe 47d2 a8bd 0d7a 35be 69d5 75be
00000260: 5613 adbd dd07 74be dd6e 79be 5150 79be
00000270: 7679 debd 0bd7 60be 82c8 94bd 27d9 063e
00000280: 91f2 efbd 62de 8abe 831f a0be 00ff a8be
00000290: cc2e 53be 9dd4 05be a1cb 34be edc5 2fbc
000002a0: 4117 c53e bdbe cf3c df7a 73be 36a0 1f3d
000002b0: cfb0 4bbd 4b8d e1bc 5810 2b3d 70b7 18bd
000002c0: dccf 593e d432 99be c2a8 a93d ab6f 5fbd
000002d0: 753d a13e a03b 19be 8d2f 3b3d 661c c5bd
000002e0: ba1c 9ebe 08e2 77be 2f2b 63be bbe0 44be
000002f0: 6f85 02be 06f4 67be f6fd a9be ff20 fe3d
00000300: 045e 52be b297 033e ac4c 113d cc4b 33be
00000310: b31e 463d 9ab8 173e 5b95 4bbe 8b70 f1bd
00000320: a2c2 23be d6da 113e f5d8 1cbe e081 44be
00000330: 53f2 c53d 0c50 f1bd 79b8 ab3e f9ca 55bc
00000340: 813f a7be 1820 4a3e 321c 1d3e 489d 133e
00000350: 293d 4dbe 2601 643d 2cda 443d feab a8be
00000360: de36 b93d d1b3 0d3c 38c5 6abe c06d cfbd
00000370: f261 4a3b 3c0c 21bd f36f c63d bd29 3cbd
00000380: d007 10be 2f5d 05be 0c10 92be 4aba 97be
00000390: 2ec1 3bbe 80d7 89be 4124 433d 47db 943b
000003a0: e1ad 8fbb 5277 3dbe e437 c43c db7f de3d
000003b0: 1c50 f1bd b358 a2be b734 693d 2f93 bdbe
000003c0: 2954 0f3e aae8 6f3e 9b94 ac3c 94bb a53b
000003d0: 8467 1f3d 5bcb 03be a9e8 863d 67a4 f53d
000003e0: 18da 823b 4012 18bd d501 c4bc 6b43 12be
000003f0: f6cd e63d 94fd a13d 2770 623e 2eee af3d

head.3.weight f4 [256, 512]
-0.007356495 -0.079468265 0.015601733 0.02585106 0.03667277 0.053142864 0.054803494 0.03553481
0.009583003 0.033649776 0.023252944 0.003209002 0.019263402 -0.08280373 0.024396945 0.019539798
0.0780725 -0.026953919 0.012648935 0.02076015 -0.0027612145 -0.0487424 0.008047093 0.007868843
-0.019659497 -0.024019154 0.026526812 0.0016004851 -0.039513417 -0.021622075 -0.014332228 0.0591107
0.052465282 0.054307345 0.02136846 -0.0046996404 -0.036954142 0.059555966 -0.05910601 0.06283349
0.063263915 0.090574436 -0.016708337 0.042181913 -0.042250115 0.049424272 -0.054634638 -0.020341929
0.02878664 0.017545814 -0.006929988 -0.051565617 0.0123868445 0.004973381 -0.075759344 -0.07717921
-0.012286334 -0.012193157 -0.0068873996 0.0021865529 0.017162854 0.0009787639 -0.02574326 -0.015813734
-0.036711078 -0.0019500619 0.024315337 0.0064810878 -0.013511843 0.030941434 0.04417131 0.022033151
-0.06279796 0.006240894 -0.024473509 -0.021894462 -0.013249925 -0.0432779 0.036156572 -0.020169625
0.010685041 0.01646408 -0.04936412 -0.027860502 0.02878076 -0.014334738 0.006114479 -0.045586016
-0.011201028 -0.02925701 0.0033153216 0.0118025215 0.07531653 -0.04881775 -0.027706787 -0.015003487
0.0002115248 -0.01270544 -0.016787795 -0.0041739317 0.005895388 -0.03619122 -0.016885642 -0.0016448568
0.012396579 -0.06484151 -0.002145753 -0.044896103 0.016604146 0.044857904 0.05535218 0.059772227
-0.016428778 -0.01650248 0.03105254 0.0037117617 -0.066099234 0.036144417 0.0151265925 0.024655057
-0.015830241 0.0040916023 0.010092723 0.10954366 0.018662643 -0.048939813 -0.03210412 0.02200478
-0.03727646 0.004038576 0.002584597 0.009324928 0.0151071455 -0.066054225 0.0249049 0.05734722
-0.04477021 0.05310902 0.03636281 0.10786562 -0.11827685 0.016152382 0.015808832 0.024662158
0.03611313 -0.030622117 -0.031123498 0.063073404 -0.022603372 0.0016442005 -0.037239555 0.03339182
0.0044107703 -0.0010641249 -0.05995436 -0.0073147225 -0.029446747 -0.00904183 0.05874365 -0.019768951
0.029775957 -0.005468258 0.045277126 -0.050234593 0.0030926405 -0.003879509 0.048410103 -0.0050390745
-0.03905103 0.015872834 -0.010152473 -0.0051380475 -0.06397074 -0.00037677534 0.02767751 -0.0747225
-0.034945436 0.016758587 -0.02299524 0.03304088 0.0022924307 0.06249086 -0.0063447366 -0.0015368875
-0.04228468 0.045289744 -0.041766796 -0.021362653 0.010053581 -0.013792867 0.0038504992 0.024908444
-0.04611641 -0.010504467 0.034179207 0.002416102 -0.056829527 -0.0058924593 -0.04806643 -0.027374689
-0.040071793 -0.0073080254 0.011095442 -0.0066681327 -0.06725875 0.00082240615 -0.002328404 0.0055161105
0.009740582 0.040421825 0.022006812 -0.0145886745 0.023111252 0.041033067 0.021995774 -0.045595553
0.016855264 0.012976001 0.035040963 0.019255474 0.046620943 -0.029119339 -0.053553537 -0.010965816
-0.0383756 0.01425198 -0.009518198 0.009782556 -0.029363 0.04630975 -0.027778704 0.0053990367
0.0011797019 -0.023251014 0.008795559 -0.006343419 0.023214346 0.07299754 0.04162848 -0.0132337175
0.021024484 0.035910994 0.015697625 0.028241716 -0.0035468831 0.023903292 -0.061656237 0.049853045
-0.019163234 0.024820998 0.031477235 -0.0045640534 0.0075436803 0.0055689043 -0.0023187462 0.06111551
00000000: c10e f1bb 42c0 a2bd 699e 7f3c 9ac5 d33c
00000010: 3036 163d 55ac 593d a179 603d f38c 113d
00000020: 0702 1d3c 59d4 093d f57c be3c 1f4e 523b
00000030: 48ce 9d3c 0195 a9bd 1adc c73c ed11 a03c
00000040: 7ae4 9f3d 77ce dcbc 7b3d 4f3c 3111 aa3c
00000050: 7ef5 34bb 1ca6 47bd f4d7 033c 52ec 003c
00000060: f40c a1bc d1c3 c4bc c24e d93c 5ec7 d13a
00000070: d2d8 21bd c720 b1bc b9d1 6abc 101e 723d
00000080: d6e5 563d 6171 5e3d e90c af3c 71ff 99bb
00000090: 3a5d 17bd f5f0 733d 2519 72bd d8ae 803d
000000a0: 8390 813d 177f b93d ecdf 88bc f1c6 2c3d
000000b0: 750e 2dbd 1b71 4a3d 92c8 5fbd 1ea4 a6bc
000000c0: f6d1 eb3c 3dbc 8f3c f414 e3bb 7836 53bd
000000d0: 31f2 4a3c bef7 a23b b727 9bbd 2210 9ebd
000000e0: 9f4c 49bc cfc5 47bc b2af e1bb 454c 0f3b
000000f0: 1d99 8c3c de49 803a 87e3 d2bc ce8b 81bc
00000100: 5b5e 16bd 3899 ffba f530 c73c 4e5f d43b
00000110: c760 5dbc e478 fd3c faec 343d de7e b43c
00000120: 389c 80bd 6a80 cc3b ab7c c8bc 045c b3bc
00000130: 3716 59bc 2b44 31bd ea18 143d c53a a5bc
00000140: 4f10 2f3c aedf 863c 0832 4abd b53b e4bc
00000150: a1c5 eb3c 40dc 6abc f85b c83b 67b8 3abd
00000160: 8484 37bc 66ac efbc de45 593b 5d5f 413c
00000170: 8e3f 9a3d 1ff5 47bd 58f9 e2bc 2fd1 75bc
00000180: c2cc 5d39 7a2a 50bc 8f86 89bc 7ac5 88bb
00000190: 192e c13b 3f3d 14bd c253 8abc 3c98 d7ba
000001a0: 051b 4b3c a0cb 84bd c39f 0cbb fae4 37bd
000001b0: 6b05 883c ecbc 373d f8b8 623d b9d3 743d
000001c0: a595 86bc 3530 87bc e561 fe3c 0741 733b
000001d0: 095f 87bd 2b0c 143d 87d5 773c 67f9 c93c
000001e0: 6cae 81bc d912 863b f35b 253c 6d58 e03d
000001f0: 66e2 983c 1d75 48bd 9c7f 03bd 5e43 b43c
00000200: 34af 18bd 0856 843b 5862 293b 95c7 183c
00000210: f683 773c 7047 87bd 5c05 cc3c ebe4 6a3d
00000220: f860 37bd d888 593d 2bf1 143d a6e8 dc3d
00000230: 223b f2bd 0052 843c 8681 813c 4b08 ca3c
00000240: 5deb 133d 3cdb fabc b5f6 febc a12c 813d
00000250: b52a b9bc 3782 d73a 8188 18bd dcc5 083d
00000260: 3988 903b 1b7a 8bba b492 75bd 57b0 efbb
00000270: 4e3a f1bc 2f24 14bc 2e9d 703d 7ff2 a1bc
00000280: b5ec f33c 132f b3bb 8274 393d cac2 4dbd
00000290: e6ad 4a3b 5c3f 7ebb ac49 463d d21e a5bb
000002a0: f9f3 1fbd bf07 823c 8f56 26bc 115d a8bb
000002b0: 1703 83bd ee89 c5b9 f2bb e23c 1c08 99bd
000002c0: f222 0fbd 4e49 893c 8360 bcbc e055 073d
000002d0: 9b3c 163b 6af6 7f3d 82e7 cfbb 6371 c9ba
000002e0: b332 2dbd bd81 393d a913 2bbd bb00 afbc
000002f0: c6b7 243c 7afb 61bc a858 7c3b cb0c cc3c
00000300: 90e4 3cbd ee1a 2cbc 7fff 0b3d 7757 1e3b
00000310: 14c6 68bd 8815 c1bb 4ee1 44bd e240 e0bc
00000320: 5222 24bd 2978 efbb a8c9 353c 5a80 dabb
00000330: f5be 89bd be96 573a 2398 18bb 7dc0 b43b
00000340: f696 1f3c 5b91 253d a147 b43c 5605 6fbc
00000350: cf53 bd3c 4a12 283d 7b30 b43c 67c2 3abd
00000360: 0d14 8a3c 4b99 543c 1d87 0f3d a8bd 9d3c
00000370: 9af5 3e3d ae8b eebc f45a 5bbd f7a9 33bc
00000380: bc2f 1dbd 2381 693c 37f2 1bbc 0447 203c
00000390: ad8a f0bc 4baf 3d3d 2a90 e3bc 67ea b03b
000003a0: 3aa0 9a3a e978 bebc 401b 103c 75dc cfbb
000003b0: 032c be3c bc7f 953d a082 2a3d 3cd2 58bc
000003c0: 8a3b ac3c 6817 133d 4e98 803c 2c5b e73c
000003d0: d372 68bb d6d0 c33c 408b 7cbd b532 4c3d
000003e0: 37fc 9cbc 6855 cb3c 46ee 003d 0e8e 95bb
000003f0: fa30 f73b 5b7b b63b 1bf6 17bb 4254 7a3d

head.3.bias f4 [256]
-0.022250632 0.006123608 -0.028259952 -0.030289102 -0.007657849 -0.051053472 0.006115994 -0.045573547
-0.023148425 -0.03679297 -0.089737736 0.048983857 0.0011842645 -0.05983678 -0.11551737 -0.008529102
-0.050244857 -0.015763897 -0.061621152 0.014238522 -0.0019323666 -0.017165385 -0.066362515 -0.044012144
0.0054410957 -0.0044125314 -0.059100438 0.00089554815 0.005004071 0.003464664 0.011269828 0.038611293
-0.0043766024 -0.042587012 -0.04947569 0.033393025 -0.048013326 -0.050428014 -0.17917354 0.026525203
0.03445343 0.011562129 -0.08466966 -0.012043245 -0.069263145 -0.075847924 -0.0114398245 -0.049650833
0.0011722611 -0.013011883 0.019581718 0.014796829 -0.00851793 0.038240373 -0.0047685304 -0.056603346
-0.015646145 -0.058210462 -0.041893087 7.6785385e-05 -0.047036223 -0.06864173 -0.06611385 0.027751764
-0.27580142 0.022585325 -0.04175486 0.034292705 -0.053978793 -0.023137908 0.008420804 -0.044959687
-0.046428993 -0.0083841365 -0.08574815 -0.034900416 0.020512491 -0.050721895 0.0015219254 -0.010723132
-0.029119201 -0.018667255 -0.07668541 -0.01775363 0.027313374 -0.06345614 0.026053846 -0.022378705
-0.05169208 -0.0005671778 -0.03553046 0.005523663 -0.055574745 -0.016738763 0.010264092 -0.006776116
-0.027577806 0.03244512 -0.0042090495 -0.020568619 -0.020862168 -0.23722227 0.046056386 -0.05163288
-0.018199755 0.009212397 0.029253043 -0.0047487514 0.017042868 0.021208297 -0.096464604 0.0018050671
0.0040166904 -0.011221724 -0.060951084 -0.0035133674 -0.038891315 -0.12436796 -0.023175804 -0.12526451
-0.02431409 -0.015444022 0.026342839 -0.056057822 0.013826418 -0.02067016 0.006049813 0.005701012
-0.0071406937 -0.022038663 -0.02200679 0.0050820773 0.026370015 0.015358259 0.028356228 -0.055206258
-0.1575417 -0.049456384 -0.090953335 -0.1265219 -0.027101526 -0.045301046 0.0063062976 0.05094293
-0.019219255 -0.00855299 -0.055912364 -0.09332807 -0.038494803 -0.018052187 -0.051148184 -0.062182628
0.045718182 -0.00029761452 -0.02244961 0.020141086 -0.037300486 -0.040910136 -0.009162113 -0.0016010832
-0.091196746 0.02317403 -0.0024400514 0.022349486 -0.060935624 -0.0052426625 -0.00068711804 0.011742739
-0.075037464 -0.06901873 0.01642559 0.014861513 -0.16617504 -0.0559693 -0.080977306 -0.011882591
-0.044524647 0.023197528 -0.05212956 -0.010379699 -0.043063927 -0.09087976 -0.01542555 0.029924255
-0.027355675 -0.018168623 -0.03883384 -0.053154226 0.013669791 -0.0061726444 -0.09526648 -0.03697889
0.024941344 -0.018970381 0.02199954 -0.022813426 0.02097284 -0.063184276 -0.048077755 -0.03887134
-0.054039586 0.018923225 -0.06382125 -0.17163925 0.008952464 -0.023310445 -0.039154954 0.02143851
-0.034666628 0.021129923 -0.008369581 -0.040320106 -0.019737039 -0.037884023 0.0074203555 -0.011401737
-0.04998512 0.01641521 -0.03693455 -0.015246301 0.007394277 -0.018036386 -0.05010126 -0.045756843
-0.001623199 -0.11065636 -0.041612644 -0.006529331 -0.17721245 -0.013358292 0.022155672 -0.1321498
-0.00094399095 -0.06701749 -0.0049396227 0.03502026 0.0021998736 -0.010892588 0.040445358 -0.030627145
-0.015376295 -0.0172061 -0.04723221 -0.038800467 -0.060951248 -0.047421556 -0.080261275 -0.21129453
-0.12700328 -0.009611967 0.019826142 -0.031166565 0.018667545 0.004602738 0.009611516 -0.032836184
00000000: f546 b6bc 8ca8 c83b 6a81 e7bc da20 f8bc
00000010: b2ee fabb 721d 51bd ad68 c83b 54ab 3abd
00000020: c4a1 bdbc 3ab4 16bd 6bc8 b7bd 4ca3 483d
00000030: 5339 9b3a 6917 75bd 5f94 ecbd a6bd 0bbc
00000040: 8dcd 4dbd 4a23 81bc 7666 7cbd b148 693c
00000050: 7747 fdba 6c9e 8cbc 12e9 87bd 1446 34bd
00000060: 384b b23b ff96 90bb 4d13 72bd 38c3 6a3a
00000070: 31f9 a33b 6b0f 633b 16a5 383c e026 1e3d
00000080: 9a69 8fbb b86f 2ebd 05a7 4abd 20c7 083d
00000090: 9fa9 44bd 9b8d 4ebd 4579 37be 624b d93c
000000a0: 0a1f 0d3d 156f 3d3c 4967 adbd 0851 45bc
000000b0: d6d9 8dbd 2856 9bbd 1a6e 3bbc ac5e 4bbd
000000c0: 8ea6 993a cb2f 55bc d769 a03c 666e 723c
000000d0: ca8e 0bbc f0a1 1c3d 5541 9cbb e9d8 67bd
000000e0: 582c 80bc 186e 6ebd 1698 2bbd d707 a138
000000f0: 0ea9 40bd 0994 8cbd b366 87bd ab57 e33c
00000100: d835 8dbe dc04 b93c 2507 2bbd 8276 0c3d
00000110: de18 5dbd b68b bdbc 69f7 093c a627 38bd
00000120: 542c 3ebd 9e5d 09bc ba9c afbd bdf3 0ebd
00000130: d009 a83c c3c1 4fbd 587b c73a 13b0 2fbc
00000140: 648b eebc 12ec 98bc 3e0d 9dbd 1070 91bc
00000150: 4cc0 df3c 4bf5 81bd e06e d53c 8c53 b7bc
00000160: 13bb 53bd a8ae 14ba 6388 11bd d8ff b43b
00000170: 58a2 63bd bb1f 89bc b92a 283c 2e0a debb
00000180: daea e1bc 2de5 043d 11ec 89bb 857f a8bc
00000190: 23e7 aabc 65ea 72be 9fa5 3c3d 007d 53bd
000001a0: a717 95bc 98ef 163c 14a4 ef3c 6a9b 9bbb
000001b0: 7c9d 8b3c 06bd ad3c 3c8f c5bd 0098 ec3a
000001c0: 719e 833b 52db 37bc d8a7 79bd 8640 66bb
000001d0: 804c 1fbd a1b4 febd 2fdb bdbc 5745 00be
000001e0: 582e c7bc ec08 7dbc f0cc d73c e39c 65bd
000001f0: 3388 623c 7854 a9bc 823d c63b 8ecf ba3b
00000200: 7bfc e9bb 6d8a b4bc 9547 b4bc 8e87 a63b
00000210: ee05 d83c 35a1 7b3c 524b e83c f51f 62bd
00000220: 9d52 21be c792 4abd be45 babd f58e 01be
00000230: 0504 debc 978d 39bd 0fa5 ce3b 89a9 503d
00000240: b371 9dbc d721 0cbc 5d04 65bd ca22 bfbd
00000250: baac 1dbd 2ee2 93bc c280 51bd 36b3 7ebd
00000260: fd42 3b3d 2509 9cb9 3fe8 b7bc ebfe a43c
00000270: 65c8 18bd 6391 27bd b01c 16bc 70db d1ba
00000280: 5cc5 babd 77d7 bd3c 45e9 1fbb 4516 b73c
00000290: a297 79bd a4ca abbb b61f 34ba 9e64 403c
000002a0: 3ead 99bd b159 8dbd f58e 863c b47d 733c
000002b0: ca29 2abe 1140 65bd 6ed7 a5bd 33af 42bc
000002c0: 7a5f 36bd be08 be3c ce85 55bd 9d0f 2abc
000002d0: cd63 30bd 2b1f babd 72bb 7cbc b623 f53c
000002e0: 0219 e0bc 5dd6 94bc 3c10 1fbd 3fb8 59bd
000002f0: 42f7 5f3c e543 cabb 131b c3bd 2d77 17bd
00000300: ca51 cc3c c667 9bbc 6138 b43c 39e3 babc
00000310: 3ccf ab3c c266 81bd 2eed 44bd 8e37 1fbd
00000320: 9d58 5dbd e104 9b3c b7b4 82bd 33c2 2fbe
00000330: 5bad 123c 8cf5 bebc f260 20bd d09f af3c
00000340: 98fe 0dbd a918 ad3c 9120 09bc b226 25bd
00000350: 92af a1bc 472c 1bbd 7426 f33b 5ace 3abc
00000360: 32bd 4cbd 3179 863c af48 17bd 9fcb 79bc
00000370: b14b f23b 0bc1 93bc fb36 4dbd 876b 3bbd
00000380: 85c1 d4ba cd9f e2bd 0572 2abd 00f4 d5bb
00000390: 2e77 35be bddc 5abc d07f b53c 4752 07be
000003a0: 2976 77ba 7740 89bd 8fdc a1bb 6771 0f3d
000003b0: c12b 103b d376 32bc 08aa 253d c7e5 fabc
000003c0: dbec 7bbc cff3 8cbc 9076 41bd 3ded 1ebd
000003d0: 04a8 79bd 1b3d 42bd 0660 a4bd 985d 58be
000003e0: 260d 02be 837b 1dbc 6f6a a23c 0651 ffbc
000003f0: aeec 983c 91d2 963b 9f79 1d3c 3c7f 06bd

head.6.weight f4 [128, 256]
0.07384889 0.015382979 0.13212295 0.086384505 0.038880542 0.061573803 -0.03184179 -0.003086148
-0.078373775 -0.11918006 -0.32701492 -0.10724195 0.04755755 -0.027480284 -0.038091313 -0.11479135
0.057155073 -0.11435683 -0.1270002 0.003889086 0.015652498 -0.12910235 0.03178864 0.035348322
-0.2259878 0.050466113 -0.102260515 -0.026273167 0.079642355 -0.20395304 0.052619826 -0.012152041
-0.12427853 0.013519455 -0.026043499 -0.29835737 -0.13914208 -0.16727087 -0.2864149 -0.035866097
-0.03786882 -0.14422725 -0.06404837 -0.00592346 -0.08932046 -0.05424265 -0.0200785 0.044138465
0.014546331 -0.007549752 0.024220165 -0.038476367 -0.051951677 -0.07875835 0.00042749714 -0.0022010454
-0.027177285 0.079500355 0.014295975 -0.013155809 -0.020169841 -0.033103142 -0.023023486 0.0009492967
-0.0074051674 0.013329218 -0.10848143 -0.013197624 -0.029940687 0.03975625 0.0014273061 0.029950595
-0.08174536 0.0024855167 0.054759793 0.005728232 0.03230177 -0.02681433 -0.06040461 -0.012704279
-0.04052006 -0.03177607 0.072510906 -0.026282473 -0.10509271 -0.045919545 -0.12304743 -0.16035707
-0.06498573 -0.052713674 0.009309926 0.027194388 0.042001624 -0.018136436 0.017876783 0.066855416
0.04429973 -0.13077578 -0.08367182 -0.0793648 0.057689257 -0.21908534 -0.044453196 -0.03997869
-0.03136847 -0.079790205 0.040972393 0.099373266 0.018897748 -0.02136498 -0.0054453025 -0.0906585
-0.060834806 -0.18882243 -0.056400876 -0.0792628 0.036484033 0.014962612 -0.029698433 -0.05024443
0.05876301 0.044908088 0.004754346 -0.11554455 -0.053553924 0.005565763 -0.09726735 -0.121572
-0.07371968 0.025218222 -0.15898597 -0.01264014 0.020702608 -0.0394518 0.0425046 -0.010195226
-0.0009730363 -0.014321322 -0.07562164 -0.027930127 -0.04217383 -0.019606905 -0.0207826 -0.08809681
-0.14505905 -0.022723176 -0.023495492 -0.036669403 -0.092144005 0.027741704 0.00014099304 0.05761773
0.01947161 -0.020508034 -0.32469895 0.02660378 0.0040372415 0.01206226 -0.040248375 -0.054057322
0.0039498163 -0.060289934 -0.12478357 -0.104107834 0.026098223 -0.09046602 0.018049179 0.012804601
-0.0025166736 0.010200893 -0.050727874 -0.09034208 0.011483708 -0.0245989 0.149398 -0.07494676
0.14665613 0.02653724 0.08724185 0.010516647 0.04723904 0.060286023 0.03433712 -0.040416554
0.0018644079 -0.15359722 0.07195091 -0.00319742 -0.03999179 0.054843903 0.102309994 -0.0071310145
-0.1991649 -0.08019234 0.038138412 0.008693496 -0.050412256 -0.035417635 0.02172656 -0.0086405575
-0.010261648 -0.09693362 0.02560525 0.19441487 -0.0823703 -0.002975272 0.025648188 0.07392928
0.044179022 0.076616794 -0.075240985 -0.07200022 -0.28696787 -0.020076212 0.026202478 0.025015287
0.13236384 -0.03232131 0.046553314 -0.07499686 0.03856534 -0.014845435 -0.108563714 -0.05685668
0.005119114 -0.050699048 -0.18141401 -0.029775303 0.33427322 -0.10720202 -0.038849093 -0.10946383
0.038023666 -0.0016869563 -0.065423615 -0.012603867 -0.015528845 0.07121253 -0.12993409 0.05908654
-0.010715312 0.04800911 0.0329005 0.19504271 0.089665174 0.041835435 0.09109289 0.13531308
-0.049533468 0.07356262 -0.005548252 0.036549065 -0.020385629 0.038125806 -0.08067724 -0.043626994
00000000: 163e 973d e408 7c3c 3d4b 073e 5cea b03d
00000010: 3441 1f3d d034 7c3d 896c 02bd f940 4abb
00000020: 6e82 a0bd ad14 f4bd 806e a7be aba1 dbbd
00000030: b5cb 423d 551e e1bc a305 1cbd ba17 ebbd
00000040: 701b 6a3d ea33 eabd 570c 02be 09e0 7e3b
00000050: ab39 803c 6833 04be ce34 023d 67c9 103d
00000060: 5969 67be 8eb5 4e3d f66d d1bd d33a d7bc
00000070: 881b a33d 11d9 50be e387 573d 5b19 47bc
00000080: be85 febd b480 5d3c 2d59 d5bc 4cc2 98be
00000090: 437b 0ebe 0e49 2bbe f9a4 92be 54e8 12bd
000000a0: 561c 1bbd 4fb0 13be cb2b 83bd 9519 c2bb
000000b0: a5ed b6bd 8a2d 5ebd ab7b a4bc 89ca 343d
000000c0: bc53 6e3c e963 f7bb 5e69 c63c 6599 1dbd
000000d0: 48cb 54bd 0f4c a1bd b221 e039 6a3f 10bb
000000e0: e6a2 debc 15d1 a23d aa39 6a3c 768b 57bc
000000f0: 393b a5bc 2997 07bd c09b bcbc 39da 783a
00000100: 0ca7 f2bb cb62 5a3c 832b debd d93a 58bc
00000110: 2c46 f5bc 73d7 223d 7214 bb3a f35a f53c
00000120: 1c6a a7bd 0de4 223b ce4b 603d e5b3 bb3b
00000130: dc4e 043d baa9 dbbc d36a 77bd 9c25 50bc
00000140: 5df8 25bd a027 02bd 9980 943d 574e d7bc
00000150: d93a d7bd 2216 3cbd 4a00 fcbd a534 24be
00000160: 3d17 85bd 4bea 57bd a988 183c c4c6 de3c
00000170: e509 2c3d dd92 94bc 5572 923c 7eeb 883d
00000180: a273 353d 16ea 05be 225c abbd 038a a2bd
00000190: 924b 6c3d e857 60be 8e14 36bd b2c0 23bd
000001a0: 3a7c 00bd 0c69 a3bd abd2 273d 3684 cb3d
000001b0: 73cf 9a3c 9c05 afbc 826e b2bb 2aab b9bd
000001c0: eb2d 79bd ab5a 41be 9b04 67bd 8954 a2bd
000001d0: 4870 153d be25 753c 214a f3bc 1acd 4dbd
000001e0: 7bb1 703d 8bf1 373d 58ca 9b3b 9fa2 ecbd
000001f0: 5c5b 5bbd 0161 b63b 1b34 c7bd befa f8bd
00000200: 58fa 96bd 7296 ce3c 38cd 22be 9718 4fbc
00000210: 8498 a93c 3698 21bd 4e19 2e3d e109 27bc
00000220: 5c13 7fba faa3 6abc 85df 9abd b9cd e4bc
00000230: 77be 2cbd a99e a0bc 4540 aabc 1a6c b4bd
00000240: 5c8a 14be f425 babc 9e79 c0bc a832 16bd
00000250: ffb5 bcbd 9242 e33c 88d7 1339 9200 6c3d
00000260: ed82 9f3c 7700 a8bc f13e a6be 2cf0 d93c
00000270: d64a 843b c9a0 453c 7bdb 24bd 366b 5dbd
00000280: 766d 813b 94f2 76bd 878e ffbd 7d36 d5bd
00000290: f1cb d53c 4046 b9bd dfdb 933c 64ca 513c
000002a0: c7ee 24bb a521 273c 08c8 4fbd 4505 b9bd
000002b0: 2a26 3c3c a283 c9bc cafb 183e b07d 99bd
000002c0: 062d 163e a064 d93c dbab b23d 044e 2c3c
000002d0: b97d 413d 7aee 763d 14a5 0c3d d48b 25bd
000002e0: 265f f43a 9748 1dbe 005b 933d ce8b 51bb
000002f0: 6ece 23bd 00a4 603d e787 d13d 49ab e9bb
00000300: e2f1 4bbe e23b a4bd 0637 1c3d 2a6f 0e3c
00000310: 157d 4ebd 1512 11bd e6fb b13c 2091 0dbc
00000320: 7920 28bc 2285 c6bd 1ac2 d13c b114 473e
00000330: c3b1 a8bd c8fc 42bb 261c d23c 3c68 973d
00000340: 10f5 343d 44e9 9c3d f217 9abd da74 93bd
00000350: 74ed 92be de76 a4bc 94a6 d63c dcec cc3c
00000360: 638a 073e 5a63 04bd b0ae 3e3d f497 99bd
00000370: b1f6 1d3d 443a 73bc a756 debd 8de2 68bd
00000380: 3ebe a73b cea9 4fbd 98c4 39be 56eb f3bc
00000390: dc25 ab3e bc8c dbbd 3a20 1fbd 932e e0bd
000003a0: b4be 1b3d dc1c ddba d1fc 85bd 7380 4ebc
000003b0: b26c 7ebc e0d7 913d 710d 05be ba04 723d
000003c0: 478f 2fbc 33a5 443d adc2 063d 47b9 473e
000003d0: 60a2 b73d a25b 2b3d e98e ba3d 838f 0a3e
000003e0: 9be3 4abd 00a8 963d 1cce b5bb 79b4 153d
000003f0: c3ff a6bc ce29 1c3d 1c3a a5bd 38b2 32bd

head.6.bias f4 [128]
-0.18177208 0.088082924 -0.33945763 -0.065033436 -0.051693857 -0.018165866 0.0031675783 -0.08122962
-0.037011255 -0.019043667 0.036414955 -0.08469318 -0.0794695 0.040013533 -0.09431286 -0.07407663
-0.12747116 -0.0033256728 0.06273426 -0.29947266 -0.08070562 -0.00083252747 -0.002832222 0.049243975
-0.018848233 -0.030240899 -0.043276567 0.074530065 -0.023817005 -0.09341547 -0.08669964 -0.12752995
0.058460098 0.0070618326 0.057460375 -0.037675545 -0.042319864 -0.11600103 -0.17859095 0.0030532845
-0.0019272334 -0.11823131 -0.20781578 -0.051244527 -0.043389328 0.059495483 0.043898426 -0.034446556
0.047468167 0.004244486 0.011222714 -0.014372897 0.026580378 0.008320202 -0.11115125 -0.12254885
-0.08297947 0.009123306 -0.04052692 -0.032392886 0.014119904 -0.020942401 0.0144495 -0.013138747
-0.22399887 -0.028747818 0.030612493 -0.025757909 -0.089867376 -0.032499474 -0.10987454 0.014977347
0.071495295 0.030342866 -0.07698436 -0.024206055 0.07501509 -0.013165149 -0.09903224 0.04374751
-0.15374473 0.0483555 -0.09864156 -0.057307556 0.062373802 -0.09511077 -0.053140994 -0.016617803
0.032427337 -0.040484734 0.027870173 -0.087120995 -0.062246438 -0.062374264 -0.02934921 -0.09478165
-0.025762105 0.08284956 0.004670271 -0.08778273 -0.10891588 -0.073161244 0.046844237 0.07960873
-0.06587379 0.09737035 0.04050389 -0.016078131 -0.16111962 0.038534097 -0.009570769 0.024020338
0.07951224 -0.09622432 -0.09413088 0.0013541682 -0.05654925 -0.11449882 -0.015603723 -0.019900084
-0.0062469104 -0.35613173 -0.10807032 0.024547115 -0.08958802 0.044072445 -0.0003206373 0.054361057
00000000: 7622 3abe d264 b43d 64cd adbe 4030 85bd
00000010: f0bc 53bd 95d0 94bc 2597 4f3b b75b a6bd
00000020: 1d99 17bd 7701 9cbc d927 153d 9e73 adbd
00000030: e8c0 a2bd 3be5 233d 1a27 c1bd 7db5 97bd
00000040: cd87 02be 88f3 59bb d27a 803d 7b54 99be
00000050: fd48 a5bd f93d 5aba cd9c 39bb 0db4 493d
00000060: 9c67 9abc c3bb f7bc c542 31bd 38a3 983d
00000070: e11b c3bc 9c50 bfbd 958f b1bd 3697 02be
00000080: db73 6f3d f266 e73b 925b 6b3d ac51 1abd
00000090: 9857 2dbd f391 edbd 8ce0 36be 9d19 483b
000000a0: 399b fcba 4223 f2bd a9cd 54be c8e5 51bd
000000b0: 02b9 31bd 89b1 733d d6ce 333d d517 0dbd
000000c0: fb6d 423d 5415 8b3b 79df 373c 4d7c 6bbc
000000d0: 18bf d93c 7551 083c 44a3 e3bd e4fa fabd
000000e0: 24f1 a9bd eb79 153c 8eff 25bd 67ae 04bd
000000f0: 2b57 673c 668f abbc 98bd 6c3c e643 57bc
00000100: f65f 65be 8b80 ebbc 0dc7 fa3c 4002 d3bc
00000110: 630c b8bd 2b1e 05bd e705 e1bd 8c63 753c
00000120: 206c 923d 9a91 f83c faa9 9dbd c74b c6bc
00000130: 83a1 993d a3b2 57bc 6ad1 cabd 9730 333d
00000140: 426f 1dbe 6b10 463d 9604 cabd 54bb 6abd
00000150: ac7b 7f3d 6fc9 c2bd 5faa 59bd 0f22 88bc
00000160: 87d2 043d 52d3 25bd fd4f e43c 7e6c b2bd
00000170: 1ff6 7ebd 287c 7fbd c16d f0bc e21c c2bd
00000180: 0d0b d3bc 08ad a93d 1309 993b 6fc7 b3bd
00000190: 4a0f dfbd 90d5 95bd bedf 3f3d e709 a33d
000001a0: d6e8 86bd 1b6a c73d 68e7 253d 49b6 83bc
000001b0: 8bfc 24be eed5 1d3d b7ce 1cbc 4dc6 c43c
000001c0: 50d7 a23d 4211 c5bd b1c7 c0bd 587e b13a
000001d0: 30a0 67bd 5b7e eabd c2a6 7fbc 8005 a3bc
000001e0: e2b2 ccbb e656 b6be f953 ddbd 0817 c93c
000001f0: ed79 b7bd 4f85 343d 361b a8b9 b3a9 5e3d

head.9.weight f4 [7, 128]
0.004111633 0.0014212073 -0.00065062253 -0.008904673 0.003705387 -0.0017786778 0.011202634 -0.011599458
-0.010278631 -0.0085099125 0.00016664134 -0.01096014 -0.0055292556 0.009268895 -0.011511257 -0.010191749
-0.008968423 -0.013134531 -0.00022504994 0.005531046 -0.012582382 -0.004292923 -0.0020253034 0.010939396
0.012072201 -0.010331582 0.009559622 0.011739601 -0.012616879 -0.010165373 -0.001954253 -0.0020250625
0.0025002242 0.012013493 -0.0037329234 0.009353037 0.00933666 -0.013790844 -0.0056565437 0.0117222145
-0.0010222609 -0.0061418563 -0.0026641286 -0.0023335824 -0.002824521 0.00987987 0.011458518 -0.010279872
-0.0015716677 0.008310415 -0.00018495967 0.0056692148 -0.0031272757 0.004662835 -0.011910723 0.0036845582
-0.009560345 0.0009877906 -0.0099407965 -0.0072020604 0.00397948 0.0016590139 0.010868091 0.010010037
0.00028980238 0.004856997 0.004997173 0.00938943 -0.010156908 -0.010057559 -0.009201314 0.001655928
0.010634113 -0.0024819553 -0.008049309 -0.010090365 0.0030581818 0.008903715 -0.013355062 0.01019907
0.00030538134 0.009424787 -0.011501858 -0.010447144 0.007143447 -0.00988477 0.0005681702 0.009021703
0.010749845 0.002932869 -0.002037179 -0.008559875 -0.011562232 -0.011492504 -0.000527785 0.0033742657
0.00769498 0.011887261 -0.00061409944 -0.012784868 -0.01189081 -0.00015677337 0.00073054066 -0.0047467793
0.0014726225 -0.00011570329 0.010744114 -0.011929454 -0.010247682 0.0092286635 -0.00094220386 -0.00041366083
0.011914111 -0.0121535165 -0.008321779 0.009815753 -0.00898272 -0.0025170825 -0.01247318 0.0027984052
-0.012161113 -0.0042589735 -0.013894196 0.00833563 -0.012384011 0.011960504 0.010165552 0.0012701993
-0.0051643364 0.025148131 9.885432e-05 0.006509487 0.014310576 0.010897023 0.021712674 -0.012477547
-0.0014380529 0.006083052 0.1463598 -0.009744032 0.019540358 0.005480094 0.0033619744 0.00066116033
0.011998469 0.0025482334 -0.13469674 -0.004173307 0.013528702 -0.086431906 -0.05928674 0.0071084765
-0.004771 0.0054553878 0.025010513 -0.0017718778 -0.0017878651 -0.0034930995 0.018667111 0.044055752
-0.03046587 0.0039887764 0.0077154115 0.0027506517 0.015572416 0.0032021492 0.0062095076 0.028304502
-0.07919871 -0.0010515578 -0.0074383724 -0.017394911 0.072963566 0.043986026 0.0047186045 -0.00915595
-0.022526698 0.05290333 -0.052854612 -0.04239848 -0.034749508 -0.04515349 -0.012440215 0.046503518
-0.017600508 -0.0043597124 0.016254252 -0.0941051 0.111747965 -0.020585904 0.054438896 0.046317536
0.007985665 -0.0068394453 -0.08721928 -0.002588325 0.028367223 -0.013949269 -0.0072476454 -0.041879278
-0.009189868 0.04241525 0.013174995 0.0047369506 -0.11352145 0.009835505 0.00016940193 0.03970842
0.020307118 0.00027396984 0.0017802678 0.011344376 -0.026528796 0.00076109933 0.0007270642 0.0049746595
0.017228434 -0.017051315 0.021019042 -0.0024591694 -0.02155193 -0.0022732178 0.12070899 0.016299821
0.010157624 0.010561489 0.05914787 -0.0074341474 -0.008875251 0.026116995 -0.010979968 -0.014988788
0.020559989 -0.080717385 0.012150839 0.00065966405 0.0109089995 0.015047978 0.019886354 0.038356394
0.0031397808 -0.0030461776 -0.017033609 0.043041702 -0.02409096 -0.077658296 -0.007186029 0.09180084
-0.025858587 0.006448015 -0.012944973 0.03668256 0.010194658 6.8922527e-06 0.03834426 -0.11129089
00000000: e1ba 863b ce47 ba3a 8a8e 2aba e8e4 11bc
00000010: 14d6 723b 8622 e9ba 418b 373c a70b 3ebc
00000020: b467 28bc 296d 0bbc 72bc 2e39 2992 33bc
00000030: c22e b5bb 90dc 173c b699 3cbc 4bfb 26bc
00000040: 4bf0 12bc 3732 57bc 62fb 6bb9 c73d b53b
00000050: 5626 4ebc a6ab 8cbb f4ba 04bb 273b 333c
00000060: 7bca 453c cc45 29bc f69f 1c3c 7557 403c
00000070: 07b7 4ebc aa8c 26bc ed12 00bb e9b6 04bb
00000080: cdda 233b 3ed4 443c 10a4 74bb 7b3d 193c
00000090: caf8 183c fef2 61bc 875a b9bb 880e 403c
000000a0: 62fd 85ba a041 c9bb a998 2ebb 04ef 18bb
000000b0: 991b 39bb 2edf 213c 82bc 3b3c e96c 28bc
000000c0: 6b00 ceba 6828 083c bcf1 41b9 d2c4 b93b
000000d0: fbf2 4cbb b2ca 983b 3125 43bc a178 713b
000000e0: fea2 1cbc c178 813a b9de 22bc 43ff ebbb
000000f0: 4c66 823b 4573 d93a 1410 323c 2301 243c
00000100: 9ef0 9739 7227 9f3b 53bf a33b 20d6 193c
00000110: 2969 26bc 76c8 24bc 1cc1 16bc b90b d93a
00000120: b43a 2e3c 4da8 22bb 40e1 03bc 0f52 25bc
00000130: c76b 483b e3e0 113c 31cf 5abc 001a 273c
00000140: 971b a039 6c6a 1a3c 4a72 3cbc 7f2a 2bbc
00000150: 9413 ea3b bbf3 21bc 42f1 143a c4cf 133c
00000160: 1e20 303c 6035 403b 3182 05bb b83e 0cbc
00000170: 846f 3dbc 0e4b 3cbc 0d5b 0aba c922 5d3b
00000180: 2c26 fc3b c9c2 423c 84fb 20ba 9f77 51bc
00000190: acd1 42bc 8863 24b9 c181 3f3a df8a 9bbb
000001a0: 0305 c13a bba5 f2b8 1508 303c c273 43bc
000001b0: e5e5 27bc d233 173c 3bfe 76ba 9ee0 d8b9
000001c0: 6733 433c 8b1f 47bc 1258 08bc 41d2 203c
000001d0: 422c 13bc a3f5 24bb 4f5c 4cbc 7365 373b
000001e0: 683f 47bc dc8e 8bbb 7ba4 63bc 2b92 083c
000001f0: 4fe6 4abc fdf5 433c 6a8d 263c d17c a63a
00000200: 9839 a9bb 7403 ce3c 0250 cf38 894d d53b
00000210: e876 6a3c 6d89 323c c7de b13c a06e 4cbc
00000220: 0c7d bcba 5754 c73b 58df 153e 6fa5 1fbc
00000230: 1a13 a03c 5c92 b33b 9254 5c3b b851 2d3a
00000240: 3a95 443c 4300 273b f1ed 09be 3dc0 88bb
00000250: 7da7 5d3c 3603 b1bd a7d6 72bd 39ee e83b
00000260: 0c56 9cbb 1cc3 b23b d9e2 cc3c 5a3e e8ba
00000270: cc56 eaba 7cec 64bb c5eb 983c ce73 343d
00000280: 8f93 f9bc 48b4 823b 90d1 fc3b 4744 343b
00000290: 7223 7f3c 26db 513b 2079 cb3b d8de e73c
000002a0: ef32 a2bd 6dd4 89ba 97bd f3bb c67f 8ebc
000002b0: ec6d 953d b12a 343d 869e 9a3b d602 16bc
000002c0: e989 b8bc 2ab1 583d 147e 58bd 07aa 2dbd
000002d0: 8055 0ebd def2 38bd 0bd2 4bbc 797a 3e3d
000002e0: f12e 90bc ebdb 8ebb a327 853c 2dba c0bd
000002f0: 1edc e43d c5a3 a8bc 52fb 5e3d 75b7 3d3d
00000300: 4fd6 023c 6d1d e0bb 06a0 b2bd e3a0 29bb
00000310: 6162 e83c 7a8b 64bc a87d edbb 9b89 2bbd
00000320: 1a91 16bc 9dbb 2d3d efdb 573c 6c38 9b3b
00000330: ef7d e8bd 1925 213c 7ca1 3139 4ca5 223d
00000340: 1d5b a63c 9ca3 8f39 e057 e93a c3dd 393c
00000350: eb52 d9bc 8384 473a 7498 3e3a 7802 a33b
00000360: a522 8d3c 33af 8bbc 2030 ac3c 042a 21bb
00000370: ac8d b0bc 44fa 14bb 4636 f73d 3487 853c
00000380: 2a6c 263c 180a 2d3c 0945 723d 269a f3bb
00000390: 8069 11bc 4ff3 d53c 53e5 33bc 8993 75bc
000003a0: 6c6d a83c 284f a5bd 5014 473c 4eed 2c3a
000003b0: a9bb 323c cb8b 763c b5e8 a23c 981b 1d3d
000003c0: c8c4 4d3b 61a2 47bb 118a 8bbc 7f4c 303d
000003d0: 685a c5bc 500b 9fbd c878 ebbb 1402 bc3d
000003e0: 63d5 d3bc df49 d33b 2717 54bc 7440 163d
000003f0: 7f07 273c 0044 e736 df0e 1d3d 7aec e3bd

head.9.bias f4 [7]
0.283952 -0.12818974 -0.050356843 -0.59980696 -0.08755387 0.7127907 -0.6813708
00000000: 2862 913e 2c44 03be fa42 4ebd f38c 19bf
00000010: 724f b3bd 7479 363f 516e 2ebf
