script/tabpfn_step9_causal_final.pth (torch, 685001 bytes, 8 tensors)

net.0.weight f4 [512, 9]
00000000: 0dbf e53d 0e4e 0b3e 8693 a33d 75cb 31bd
00000010: 57db 8abe 5fda 5ebe 7f95 2abe 9801 bc3d
00000020: 99c0 693e 4b7a 423e 7585 793e 77a1 99bd
00000030: 6806 b23c e481 8cbe df26 f0bd 1e48 923e
00000040: e930 763e 1e1d 53be 4110 933d bfae fd3c
00000050: cf74 dbbd 56b8 b03e f1bc 94bd 3285 663e
00000060: 5f37 93be cf85 32be e555 e13d 3dea 873e
00000070: 8eb2 51be ce2f 32be c697 a53e c5e2 753e
00000080: 2188 82be 44bd fabd 706e c9bd bf5c 993e
00000090: 2cf0 c3bd 3f49 853d a952 3fbe 676b 15be
000000a0: 78b8 913e 2ed8 9abd 64cf 803d 3227 a0be
000000b0: c16a 493e 30c8 16bd 7367 133d e447 ce3c
000000c0: b7a5 45be 9427 1a3c eb9c b8be a6d2 113e
000000d0: 2b43 7ebe aae1 2ebd 7ec4 d53c 3490 9abd
000000e0: 4a55 d9bd 8620 08bf 8884 5a3e 6d29 98bd
000000f0: 1a74 c9bd 1c9d da3d a651 9cbe acbf 82bb
00000100: 4b2e 323e 855e 8e3e 5f73 02bd 6605 59be
00000110: 1dc1 883d 499f 05be fda8 c2be ead2 ac3d
00000120: add8 f33d fbeb 9ebd 04ef 1e3e 3808 b73e
00000130: 7c5e d33d 5679 e7bd fee0 ddbd 3ea1 c63d
00000140: acb2 f73d feb8 553d 988b 413d 58a7 093e
00000150: fdab 70be 1817 40be 6025 543e e841 3cbe
00000160: 2692 a6be 4da6 c4be 1345 8d3c 7ba2 673e
00000170: 7dfc eb3d 6192 3b3e dc41 10be 837f a13d
00000180: d495 bf3a 7e23 853e fd31 153d ee24 533e
00000190: 2ca2 04be 40eb 323e aacd 79be 3953 513d
000001a0: e946 adbe caea f13d 5f2e 4abe 2505 66be
000001b0: 1f79 163e f3b3 7bbe f380 ffbd 5ecd acbd
000001c0: 1509 4f3e ffdc 7e3e 1cd9 18bd 3272 32bd
000001d0: d7d5 c6be cb46 423c a936 59bd 3975 67be
000001e0: 9d9d 90be d8dc 1c3e c62e 363e 139f 2a3e
000001f0: 242b c0be 7e04 553d ced9 c1bb 4474 3bbe
00000200: 5c6d a5bd 781d a13b a4a2 6fbd 2c80 553e
00000210: bdf3 1fbe 5a29 173d 5764 963e 3134 0c3e
00000220: 94b9 87be 8066 443e c4bc 3d3e ed4f 12be
00000230: 4344 cdbb bbed 903c 2d6d f4be ddeb 8fbe
00000240: bc7e 03bb 16d5 373e f343 80be 22c7 053e
00000250: 5f70 80be 7737 f43d f8b1 3e3e 4600 8d3e
00000260: c20d 98bd 7fe3 5a3e 6439 6fbe 1290 c7bb
00000270: 1849 d3be 23e4 5c3e 4405 a3bd 2b1f 493e
00000280: cd78 5ebe 0cde 273e 13d4 473d 5670 3a3d
00000290: 7793 84be e896 833e 736f 8d3d 4626 87bc
000002a0: 93ba 423e b7a9 973e aa39 133e ced8 00be
000002b0: aef6 fe3d 41f0 223e 5770 81be 1757 3b3e
000002c0: bfd1 b53d 5c9f 93be 8414 523d 7746 7fbe
000002d0: 1002 24be 7c5f 6b3e 71e1 703e bc56 1abc
000002e0: 6740 d5bd 71eb c7bd 4a11 af3e b267 bc3e
000002f0: 1465 1bbe b868 993c 6d5d b63d a879 76bd
00000300: 15af 9bbe 8d3a 48bd 7dd7 94bc 254a 3c3e
00000310: 1820 60be 4b56 7bbe a57c 08be c473 c1be
00000320: 1ac6 2fbc d87e fd3d 101a 983e d5b0 75bd
00000330: 4eb1 3f3e 32e3 a43d 28a9 81be 9ee4 123e
00000340: 7fa6 c03d 3ac7 743e 2317 81be 7ae6 433e
00000350: b365 b13d d212 493e 1edf 73be 45b8 a8bd
00000360: 6712 5f3e 41b0 b03e ceb9 b53d 964b 243e
00000370: 759e 01be c62f 04be 2e43 873c b06a 50be
00000380: 2d99 a53e 83f5 443e a06c 833c 717a b8bc
00000390: 9c6d 413b c188 423e 9aad 173e 21ef afbe
000003a0: ee55 5a3e c0d7 563e dc94 8dbd 3ac0 50bc
000003b0: 5229 04be db8d d9be f863 253e a806 90be
000003c0: c5d6 15bd 237a 4c3e a83a 98be b227 12be
000003d0: 936a 0e3c de10 b63a 3451 833d 32e8 07bd
000003e0: 4c12 c53d df55 88be 5f74 8cbe a8c4 803e
000003f0: 7459 293e 70bf b0be d2e9 7a3e c423 46be
0.11218081 0.13603994 0.07987122 -0.043406922 -0.27120468 -0.2176299 -0.1665859 0.091799915
0.22827376 0.18991964 0.24367316 -0.075015 0.02173157 -0.2744285 -0.11726164 0.28570646
0.24042095 -0.20616576 0.071808346 0.030967114 -0.10715639 0.34515637 -0.072626 0.22511747
-0.28753182 -0.17433856 0.11002711 0.26545897 -0.2047827 -0.17401049 0.32342356 0.24012287
-0.25494483 -0.12243131 -0.098355174 0.29953572 -0.095672935 0.06508111 -0.18683876 -0.14591752
0.2846105 -0.07560764 0.062895566 -0.31279904 0.1966963 -0.036812007 0.03598733 0.025180764
-0.19301496 0.00940885 -0.3605722 0.14240512 -0.2483031 -0.04269568 0.026094671 -0.07547036
-0.10611971 -0.53174627 0.21339619 -0.07429776 -0.09836598 0.106744975 -0.30531043 -0.003990134
0.17400472 0.27806488 -0.031848308 -0.21193466 0.066774584 -0.13049044 -0.38019553 0.08438666
0.11906562 -0.077598535 0.15520865 0.35748458 0.10320756 -0.1130244 -0.108339295 0.09698723
0.12094626 0.052178375 0.047252268 0.13442743 -0.23503108 -0.1875881 0.20717382 -0.18384516
-0.32533377 -0.38408127 0.017244851 0.22620575 0.11522768 0.18317558 -0.14087623 0.07885649
0.0014616796 0.2600364 0.036424626 0.20619556 -0.12952489 0.17472553 -0.24394861 0.051104758
-0.33843163 0.118123606 -0.19744252 -0.224629 0.14694642 -0.24580364 -0.12475767 -0.08437608
0.20218308 0.24888991 -0.037316427 -0.043565936 -0.38835022 0.011857699 -0.053030644 -0.2260331
-0.2824525 0.1531862 0.1779128 0.16662244 -0.37532914 0.052006237 -0.005915857 -0.1830607
-0.08077499 0.004916843 -0.058504716 0.20849675 -0.15620323 0.03690467 0.29373428 0.13691784
-0.26508772 0.19179726 0.1852904 -0.14288302 -0.006264241 0.017691484 -0.47739545 -0.28109637
-0.0020064553 0.1795238 -0.2505184 0.13064244 -0.25085732 0.119246416 0.18622577 0.2753927
-0.07424499 0.21375845 -0.23361737 -0.0060901726 -0.41266704 0.21571402 -0.07959989 0.19640796
-0.2172577 0.16393298 0.048786234 0.04551729 -0.25893757 0.2570107 0.06906023 -0.016497742
0.19016485 0.2962167 0.14377466 -0.12582704 0.12449394 0.15911962 -0.2528102 0.18294941
0.088778965 -0.2883252 0.051289096 -0.24929224 -0.16016412 0.22985643 0.23523499 -0.009420093
-0.104126744 -0.09761704 0.34192878 0.36797863 -0.15175277 0.018726692 0.08904538 -0.060174614
-0.30407014 -0.048883963 -0.01816916 0.18387659 -0.21887243 -0.24544637 -0.13328798 -0.37783635
-0.010728383 0.12377709 0.29707384 -0.059983093 0.1871998 0.080511466 -0.25324368 0.14345023
0.094067566 0.23904124 -0.25212964 0.19130889 0.08661976 0.19636086 -0.23815581 -0.082382716
0.21784364 0.3450947 0.0887333 0.16044459 -0.12658103 -0.12908849 0.016511526 -0.20353198
0.32343426 0.1923428 0.016043007 -0.022519322 0.0029514795 0.1899748 0.14812317 -0.34362128
0.21321842 0.2098074 -0.06913158 -0.012741143 -0.12906387 -0.4249104 0.16151416 -0.28130078
-0.036581773 0.19968466 -0.2973225 -0.14272955 0.008692401 0.0013890525 0.06411973 -0.033180423
0.096226305 -0.26628014 -0.27432534 0.25150037 0.1653803 -0.34521055 0.24503258 -0.19349581

net.0.bias f4 [512]
00000000: 034a 6c3e 1158 36be 413f 073e afce 1c3e
00000010: bcf9 b23e e477 983e fb6a 4dbd 54bb 0dbe
00000020: d890 a0bd d21a 253e c895 96be 8220 773e
00000030: 4ee9 453e 165b 14be cabb 42be 9781 623e
00000040: 8faf 2abe 0e02 aa3c 2c05 983d 9e13 5d3b
00000050: 73cd b6be f60f 36bc b6db c6bd 9202 b5be
00000060: 380b 18be cef5 943d d570 89bd 76da 3b3e
00000070: 5331 d2bc 9b01 f83d fc22 0fbe 9f2d 86be
00000080: 1d17 1f3e 03dd 9a3e 1fc8 74be 1338 97be
00000090: 21e1 5c3e aab4 303e c03b c13b eb41 eabd
000000a0: 21c3 35be a6b2 15be 137c 78be 4530 8fbe
000000b0: b380 ebbd 95dc 9b3c a8de 9dbd a01d 4cbe
000000c0: 2991 5d3e 17d4 97be a6c8 27be 0d5d 703e
000000d0: ccf9 9e3e 5345 6d3b 4207 1b3e 75f8 2fbd
000000e0: 51d1 e63d ac7f 773d 6ab2 8ebe 961f 82be
000000f0: d93b 003e ebfb 1dbe 20da 8dbe cebf 49be
00000100: b3d6 703e 3dae 8cbd 6603 fabd 0e38 853e
00000110: 8b36 c63c e1e5 21be 7afc 9cbe 18af 4f3e
00000120: 35b5 ab3e e9a1 443e d9f0 90bd 2350 523d
00000130: 6ae0 02bd 7829 983c e405 a83e e4ed 383e
00000140: 43f9 b5bb cdc4 5dbe 18ec 453c e066 dfbd
00000150: b0ee 013d 56ce eabd 6e22 00be 8d56 c3bd
00000160: 38a0 07be 328e 263e 5451 543e 324c 22be
00000170: fb6e 413e 9788 89be 9bc2 183d 9d84 81be
00000180: a16e a7be bb96 e23d c3ee 6fbe 5da7 c9bd
00000190: 60f1 01bd c85a 6abe 61ab f8bd 82be 8bbe
000001a0: 1f1a 8abe 9370 0c3e 2dff 6e3e f668 adbd
000001b0: ef4d aabe 8bf8 72be cd26 b7be 6405 043e
000001c0: 937d 8dbe a180 8ebd e518 99be 6d93 8c3d
000001d0: 2aeb 1ebe ac3f 673c 7b62 1fbe c37f afbe
000001e0: 2a17 afbe d6af 9fbe fa40 a73d b823 b7bd
000001f0: 4668 103e 011a 3b3e 0b94 6e3e 7122 28be
00000200: 8402 7ebe 7f23 b23e bf1e 153e 2ab0 283e
00000210: 3aa9 b53d b73f 4d3e 4df1 133d 5e2c 773e
00000220: b4c2 79bc 78cd 9ebd 85e8 313e add1 103e
00000230: 44be 833e 0e28 9bbe 92c4 373e 3921 9dbe
00000240: 4c40 99be b8a1 7cbe 464a 4d3d 2091 b1bd
00000250: a0f6 e7bd 09f0 513d a305 a9be c2f5 f83d
00000260: e972 57be 48e0 92be 3d42 913e f12b 913e
00000270: e1dd b6be 5ea2 cf3d 8d4e 733e e4c8 b5be
00000280: 49d5 113d 81b4 653c 460b 443e 8db5 cf3c
00000290: 8e48 c93e a90e cebc 916d 2fbd 2c18 b4be
000002a0: 69ef 723e f7a5 593e a784 293e 735b 32be
000002b0: ba82 383d 2464 f2bd 393d 6c3e 6ee9 bbbd
000002c0: b68b 653e 825d 643d 2775 4abe 6d7c dd3b
000002d0: 3bae 1dbd 661e 8e3e 838a 1dbe 008c 213d
000002e0: daea f1bd caef c8bd 439f 43be 0354 18be
000002f0: 71db 71bc 322e 453e 1a12 a1bd 607b 98be
00000300: 0c82 99be b219 8e3e 5f03 ee3c 20bc 73be
00000310: 5ff3 53be 661e f1bd e5e9 853e 28ae 8d3e
00000320: 3113 da3d c481 ddbd 7bb9 45be 66ef afbd
00000330: b51e 003d 85f3 3bbe 91a1 8b3e 2fe0 55be
00000340: ffeb 8e3e 2cd4 3a3e dfe8 ad3c 3ce4 063e
00000350: 3678 a43d 8ea3 1c3e 4688 32be 7ad8 d03e
00000360: fe99 603b 0b6e a1be ee45 a2be e09f 8abe
00000370: aa30 0d3d 8bb8 9fbe e974 2b3e dbac 323e
00000380: e028 943e 6d1d 863e 9554 4bbc f889 343e
00000390: 60fe 973c 1670 61be 8509 8e3e eb78 3d3c
000003a0: fc35 a93e f231 a13e d040 863e b6a1 123e
000003b0: 32a3 553e 716b ffbd ed1b 913d 269e 28bc
000003c0: 694f 63be c0e2 25bd fd1f bb3d b043 a7be
000003d0: 3197 5d3e 7cd8 c4be bcae 58be 01ca 0e3e
000003e0: 2f3f 533e a037 b8be dfc2 a0be 83b8 92be
000003f0: e4e3 6a3e aa7e 55bd a93e b7be 269d 0e3e
0.23075108 -0.17807032 0.13207723 0.15313219 0.34956157 0.2977897 -0.050150853 -0.13840991
-0.07840127 0.16123512 -0.2941115 0.24133494 0.1932728 -0.14487872 -0.19016948 0.22119747
-0.16668533 0.020752933 0.074228615 0.0033733617 -0.3570362 -0.011112204 -0.09709875 -0.35353523
-0.1484803 0.07273446 -0.06710974 0.18345055 -0.025658285 0.12109681 -0.13978189 -0.2620668
0.15536161 0.30246744 -0.23904465 -0.2953497 0.21570255 0.17256418 0.0058970153 -0.11438354
-0.17750217 -0.1461893 -0.2426608 -0.27966514 -0.11499157 0.01902608 -0.07708484 -0.19933176
0.21637405 -0.29654 -0.16385135 0.23472996 0.31049955 0.003620465 0.15139487 -0.042961556
0.11270393 0.06042449 -0.27870494 -0.25414723 0.1252283 -0.1542813 -0.2770548 -0.19702074
0.23519401 -0.06869171 -0.122076795 0.2601933 0.02419593 -0.15810348 -0.30661374 0.20281637
0.33536687 0.19202389 -0.07077188 0.051345956 -0.0319523 0.018574461 0.32816994 0.18059498
-0.005553396 -0.21657105 0.012080215 -0.10908294 0.03172177 -0.11465137 -0.12513134 -0.095379926
-0.13244712 0.1626518 0.20734149 -0.15849379 0.18889992 -0.26862022 0.037294965 -0.25296488
-0.3270159 0.11063906 -0.23430924 -0.09846375 -0.031724334 -0.22886193 -0.12142063 -0.27293783
-0.26973054 0.13714819 0.2333953 -0.08467285 -0.33262584 -0.23727624 -0.3577179 0.12892681
-0.27634868 -0.06958128 -0.29901806 0.06864057 -0.15519395 0.014114302 -0.15564911 -0.34277162
-0.3419736 -0.3118884 0.0816669 -0.0894236 0.14102277 0.18271638 0.23298661 -0.16419388
-0.24805647 0.34792706 0.1456251 0.16473451 0.08870168 0.20043837 0.036118794 0.24138018
-0.015244175 -0.07754034 0.17373855 0.14142485 0.257311 -0.30303997 0.1794608 -0.3068941
-0.29931867 -0.24671066 0.05011966 -0.086702585 -0.11326337 0.051254306 -0.33012113 0.121562496
-0.21039928 -0.28686738 0.28370848 0.28353837 -0.35716155 0.10138391 0.23760433 -0.3550483
0.035603795 0.014020086 0.19144925 0.025355125 0.39313167 -0.025153475 -0.0428291 -0.35174692
0.2372414 0.21254717 0.16554509 -0.17417698 0.045046546 -0.118355066 0.2307023 -0.091753826
0.22416577 0.05575324 -0.19771253 0.0067592175 -0.038496237 0.27757567 -0.1538487 0.039440155
-0.118123725 -0.09811361 -0.19103722 -0.14875798 -0.014761792 0.19255903 -0.07864781 -0.29781628
-0.2998203 0.2775398 0.029054342 -0.23802233 -0.20698307 -0.11773376 0.2615501 0.27671933
0.10648192 -0.108157665 -0.19309036 -0.085905835 0.031279285 -0.18354614 0.27271703 -0.208863
0.27914426 0.18245 0.021229206 0.13173002 0.08030741 0.15296766 -0.17434797 0.4079016
0.0034271474 -0.3152927 -0.31693977 -0.270751 0.034470238 -0.31195483 0.16743816 0.17448752
0.28937435 0.26194325 -0.012410303 0.17630756 0.018553913 -0.22015414 0.27741638 0.011564474
0.33049 0.31483418 0.26221323 0.143195 0.20863035 -0.12471665 0.070854045 -0.010291612
-0.22198261 -0.04049945 0.09136961 -0.3266883 0.21639706 -0.38446414 -0.21160406 0.13944246
0.20629571 -0.35979939 -0.31398675 -0.28656396 0.22938496 -0.05212275 -0.35789993 0.13927135

net.3.weight f4 [256, 512]
00000000: c58f 0fbc 10bb efbc a76f a03b 29c9 01be
00000010: 3c8e dbbc 1e31 44be bef4 923b 5e70 02bd
00000020: 7ca3 1a3b 1a18 99bd 6384 863c 4e6b a4bd
00000030: baaf 133d 321f 923d e8b6 263e a4e8 fa3a
00000040: 7d42 803d 6846 f9b8 d67e 0f3d 0e5a 493b
00000050: 50e7 88bd 119e 4bbd b751 043d 7758 413c
00000060: 8826 0ebe 45f5 ec3c 5566 9e3d bbef 1abd
00000070: 401f 6d3d 3565 4d3d f221 643c 937c 583d
00000080: 1e40 5f3c d255 86bc 96cf 9e3d c380 f93c
00000090: a6ff e5bd 4f58 37bd 79d3 713c 43d4 ecbd
000000a0: 0ec9 33bd ce9a a83d f34e 813b d10b 9abd
000000b0: 3289 acbc 7cbe 45bb 5005 1e3b e917 aebb
000000c0: 4337 1c3d f4e8 f3bd 636e e0bd b273 133e
000000d0: f2e3 45bd e527 edbc 234c d8bd 861d 1eba
000000e0: b212 cabc 518e 193e 7290 64bd 6654 c03c
000000f0: fb61 2f3d 60fe fbba b8b7 18bc b1a2 453d
00000100: fe45 973d 6b3d 12bc 7c7d b53d 91da bfbd
00000110: 608c f8bc a686 533d 1a89 503d 8ca5 183d
00000120: 5de4 70bd b2da e83d bd63 1f3d 96fb 383d
00000130: e977 f53c 6f90 b43c ec87 d0bc e569 28bd
00000140: 831a 95bd 61e7 e23d e283 633d 9f5a 523d
00000150: f0bb f0bc e1de d13d 7982 2cbc 7685 6a3b
00000160: e835 0c3c 7a59 6fbd cf3f b7bd 69c8 c63d
00000170: 3fe8 923c 25b6 ca3c c1b2 273d 44bf 8cbd
00000180: b84c 2cbd c4c3 d53c 85b8 0e3e 3a1f 1f3e
00000190: c052 593d be8e a3bc 511a 8dbd 27af 75bc
000001a0: 3dd6 903c 9cdd 423c 1d9b 9abd 3709 9abd
000001b0: 6105 d7bc 7f2d bebd 4a1a 4e3c 8b59 0c3c
000001c0: 2c7c bdbc 2355 8a3b 01ec 4cbc d049 cbbc
000001d0: 00b1 a83d 4763 a43b 10bd 46bb 020f e93c
000001e0: a6cf 493d 1cba 04bc e55e 943c ced0 63bc
000001f0: 3c16 683c 26a5 b9ba 56a1 4c3d 7ef9 6a3d
00000200: d882 c73c cef9 0b3e a52d e63b 750d 6dbe
00000210: 24b8 79bd e1a3 9abc 645a 0bbe 7f2e 42be
00000220: 4793 e1bc 9331 f13c ef90 963d 59f9 f5ba
00000230: 8583 a63c a3d8 c03d 5d92 ad3c cf89 60be
00000240: 9996 003d 95ee f0b9 0441 b339 1d11 883d
00000250: fe1e 44bc 6047 853d 8320 cebd 769a a8bc
00000260: 04e6 783d 0213 7d3d 4b52 043e ae7d 01be
00000270: 475c 983d 9527 10be 57c2 6b3d af90 92bd
00000280: 6caa 9b3b 8c0f a3bd 60e5 b9b9 4837 04bd
00000290: e09c 35bc c094 00be 28f8 a4bd 6528 dd3d
000002a0: 815c 17bc c4c4 8ebc 910f 80bd 63a9 e7bd
000002b0: ba5f cfbd 676b d73d 8c5f f23d b7a2 64bd
000002c0: 4898 b73a 702b 4d3c 35f8 6ebd f191 453d
000002d0: 76fc 453d 076e e33d 6dd0 343d 6c5f 9dbd
000002e0: a07f 81bd ca54 683e 5750 403e c4b9 963d
000002f0: 0f50 efbc 9616 83bb a1da c2bc 2fe7 ebba
00000300: 05f4 1bbb f5ca 0c3b fb16 fcbd db10 223a
00000310: 7423 3eba 7e1b af3d cec0 26bd 7118 153d
00000320: 65db 293d 46f2 65bd af53 123c 3005 48bd
00000330: 027c c0ba 29ba 3dbd aa7f 73bc f26c 18be
00000340: 2bab bc3c 0c53 d63c 4619 e93c 5c14 a2bd
00000350: 2c87 213d 847f 66bc 3b7d 303c c839 b03c
00000360: b101 8a3d c839 ba3c 6b6b 10bd 5c0a 173b
00000370: 7412 033c 97c6 ccbc d36f e2bd 7911 b93c
00000380: d716 4e3d 939a 8b3d 6093 4f3d 9b99 d7bd
00000390: 5b46 fc3c e811 a13d f1e4 893c f778 bd39
000003a0: bf17 97bd 19c0 3fbc 4844 9abb 1d01 163d
000003b0: 1423 1c3d 1999 ac3d 6023 173c ea0c 15bd
000003c0: 6b0c 503d 9a1d 2dbd 09b6 19bc 816d 0b3d
000003d0: 0ae4 4fbd b0c9 70bd 6f1a 29bd 86b2 cd3b
000003e0: 4487 043d 0935 903d 17ac 393d 2064 d2bb
000003f0: f66a 5dbc e541 ca3b b806 1b3c 473c 23bb
-0.008762305 -0.029264003 0.0048961225 -0.12674393 -0.026801221 -0.19159362 0.004484742 -0.031845443
0.002359598 -0.074753 0.016420549 -0.08028279 0.036056258 0.07134856 0.1628071 0.0019142819
0.06262682 -0.000118863594 0.03503307 0.0030723843 -0.06684744 -0.04971129 0.03230449 0.011800877
-0.13881886 0.028925547 0.07734362 -0.03782628 0.05789113 0.050145347 0.013924109 0.05285318
0.013626127 -0.016398344 0.077544376 0.030456906 -0.11230402 -0.044761952 0.014759892 -0.11563923
-0.043892913 0.08232652 0.003946179 -0.07521785 -0.021061514 -0.0030173352 0.0024112053 -0.005312909
0.03813864 -0.11909667 -0.109585546 0.14399603 -0.04831309 -0.028949687 -0.10561397 -0.0006031621
-0.024667118 0.14995696 -0.055801816 0.023477744 0.04281805 -0.001922559 -0.009321146 0.048250858
0.07386397 -0.008925776 0.08861825 -0.0936786 -0.030340374 0.051642083 0.050912 0.037267253
-0.058811534 0.11369838 0.038913477 0.045161806 0.029964404 0.022041528 -0.025455438 -0.041116614
-0.07280447 0.11079288 0.055545695 0.051355954 -0.02938649 0.10247589 -0.010529154 0.0035785115
0.008557774 -0.05843494 -0.089477174 0.09706194 0.01793301 0.024745056 0.040941957 -0.068724185
-0.042065352 0.026094325 0.13937576 0.15539256 0.053057432 -0.019965526 -0.06889785 -0.014995373
0.017680282 0.011893656 -0.07549117 -0.07521289 -0.026247682 -0.092860214 0.01257951 0.008566271
-0.023130499 0.004221575 -0.01250744 -0.02481547 0.08236885 0.0050167176 -0.0030325092 0.02844954
0.049270295 -0.008101013 0.018111655 -0.013904763 0.014165457 -0.0014163598 0.04995855 0.05736684
0.024354383 0.13669512 0.007024484 -0.23149665 -0.060966626 -0.018876972 -0.136087 -0.1896305
-0.027536048 0.029442584 0.07351863 -0.0018766328 0.020326385 0.0941632 0.021187956 -0.2192757
0.03139362 -0.00045954125 0.0003418998 0.06643889 -0.01197028 0.06507754 -0.10064795 -0.020581465
0.060766235 0.061785705 0.12922017 -0.12645599 0.074394755 -0.140776 0.057558384 -0.071565025
0.0047505405 -0.0796195 -0.00035456847 -0.032279283 -0.011084765 -0.12556744 -0.080551445 0.1079872
-0.009238363 -0.01742781 -0.06252969 -0.11311605 -0.1012568 0.10518532 0.1183463 -0.05581924
0.0014007175 0.012522563 -0.058342177 0.048234884 0.04833647 0.111049704 0.044144083 -0.07684216
-0.06323171 0.22688594 0.18780647 0.07359651 -0.02921298 -0.004000495 -0.023785891 -0.0017997975
-0.002379657 0.0021483277 -0.12309071 0.0006182321 -0.0007253208 0.085501656 -0.040711217 0.036400262
0.041468997 -0.056139253 0.008931085 -0.048833072 -0.0014685395 -0.046320114 -0.01486198 -0.1488531
0.023030838 0.026162647 0.028454434 -0.079140395 0.03943555 -0.014068488 0.010772045 0.021511927
0.06738604 0.02273263 -0.03525869 0.0023046946 0.008000005 -0.024997039 -0.11056485 0.02259134
0.05031475 0.06816592 0.050677657 -0.10527345 0.030795267 0.078647435 0.0168328 0.00036139015
-0.07377576 -0.0117035145 -0.004707847 0.036622155 0.03811939 0.084276386 0.009224743 -0.03638927
0.050793093 -0.04226456 -0.0093817795 0.034039978 -0.050754584 -0.058786094 -0.041284975 0.006277385
0.03235556 0.07041366 0.045330133 -0.0064206272 -0.013514271 0.006172406 0.009462051 -0.0024907754

net.3.bias f4 [256]
00000000: e644 29bd dfd5 d4bc 60bc e0bc 46cb 0b3d
00000010: 88e2 9d3c 8187 70bd 2837 fb3b 1c11 083c
00000020: 5d83 3cbd b3ee 0cbd 1ddb 6ebc 3714 153d
00000030: e14c 093c 85ce 87bb a5ff fb3c b990 0b3d
00000040: 91cb 08bd 9d7f bfbc 5a17 5bbd 5e2b 0a3d
00000050: efb4 82bd f138 e3bc 03dd 88bc 2598 8dbc
00000060: e9d4 85bb 2511 47bd 9477 6a3d 8424 843c
00000070: c0ec 90b7 8ae4 55bd baf5 c9bb 421c a0bb
00000080: 928d 85bc df9e adbd fd08 0abd 94fa c33c
00000090: 42e7 9abd 72cf 18bd 372f 713c 12aa bebd
000000a0: 7361 86bd 6e7a 6bbd efeb 89bd bec4 043d
000000b0: 6f2f 82bd 473c eabc 81d3 963c 0961 09bd
000000c0: 2721 7dbd ca8c 5d3c e4b9 b53c 022c 47bd
000000d0: 4629 0fbe 9ab0 083d bcc4 17bb cff6 5fbd
000000e0: 3507 81bb 1807 303b ddd1 f0bd c4a9 e23c
000000f0: 255f 7cbc 8b56 1c3c 63ec 10bd effb 5dbd
00000100: 037b a13c 3280 a03c 77db 6c3c 7b6e abbc
00000110: 5e6e 90bd 04e3 e8bc dc25 d6bc 3cb5 0d3d
00000120: a4e4 54bd 6ec2 8fbc 2868 aa3c c8ef d7bc
00000130: 7ce9 6f3c 236b 633d f5ef 9abc 8383 b4bd
00000140: 9cbd 093b d59f 08bd 7f67 22be fabe 7abd
00000150: 4865 febc f72b 1c3b e229 6dbd 2f14 eb3b
00000160: 0b1c 3bbc 36da 92bc b988 6d3c 867c 0cbd
00000170: 5b5c 7fbd 00bd a9bd 36c3 98bd 3a7c c7bc
00000180: d93f ca3c 17a0 0cbd 8cc5 b7bc 8d8e a63c
00000190: e582 fabd c1d8 12be 0f2d 9bbc 3f8a 81bc
000001a0: b48c c3bc 6518 42bd 0f48 9ebc 38ed 8abd
000001b0: 8be9 a5bd 0d99 98bd 6036 33bd 8d92 b3bc
000001c0: 8d8b 36bd 6bfe cbbb 2a7b 0cbe 82e2 51bd
000001d0: 4abc f03c 35ce 8ebd 9d0f 14be fa39 0abd
000001e0: f018 1fbd f452 8bbd 0e39 73bd 209c 74bc
000001f0: cb92 babc eca9 90bd 9f23 fcbc 4d87 14bd
00000200: 350c 54bb b3ce bf3b 2654 fcbc 48a9 0bbd
00000210: d7f7 29bd 44a1 3cbc 1edf cfbc fec5 6ebc
00000220: 3f62 c3bc f27f 483d 76e7 00bd 12fa 79bc
00000230: 86ac b6bd d5b0 0abd 508e 393c 8d9b 123c
00000240: 81dd 0b3c 77c1 34bd 8076 83bd 29a2 66bc
00000250: 723d 07bb ddad cebb ee83 24bd ccff cbba
00000260: 1d97 013d 71af a23c 5f7e 14be 1f33 2f3d
00000270: 2917 02be 260c 73bc e3b1 bd3b e820 be3c
00000280: 5557 f6bc ada7 a3ba a51e 003d 9d76 86bd
00000290: 4504 08bd 9df2 46be 32af cdbc dc93 8b3d
000002a0: 7357 b53c 3112 1d3b e9f9 21bd 4cea d0ba
000002b0: ec5a c5ba 086d 9abc 96a4 bebd 7949 fc3c
000002c0: 6cf0 89bb dc5c 49bd f9e9 69bd 07cc 003c
000002d0: 21ad babc 195e 92bd f330 dbbc 4e03 843c
000002e0: 2c63 c8bc 5fd2 30bd c628 05bd e425 2e3c
000002f0: ea2a 923c 352c 32bd d2e7 8e3c 1b1c e1bc
00000300: 24fc 5bbc bdb4 9abc 7e63 d1bb 2ccd 19bd
00000310: 878b adbd 98a8 4b3c 3257 12be c121 d7bc
00000320: 78c2 933b c9a7 4abd 1784 ecbd 3e2b 103d
00000330: 2e2d 8bbd f97f cbbb c08e 033d 4625 7cbd
00000340: 181d 9dbb 2605 d3ba 1961 79be 3586 b9bb
00000350: e803 bd3c a28c 09bc e61d d8bb 90e6 3e3c
00000360: 4369 41bd 125d c9ba 08da 2eb9 938b a5bc
00000370: c3e9 153c fdf5 d8bd 5114 3dbc 5ec1 86bc
00000380: 4f18 8bbc 9568 803d 0d58 7b3c c5cf 0fbd
00000390: 5e9a dfbd ce30 50bd a384 37bd 67f4 3dbd
000003a0: 54dc fe3c 6b87 3bbc b9b0 00be a9b9 6fbb
000003b0: 500d 50bd 6cbd 24bd 51c5 7b3b fb12 fdbd
000003c0: e3e7 ea3b 51e2 713d 3bfb 3cbc 8c9b 4abc
000003d0: de16 afbb 3492 05b9 de81 3dbd 1a69 5f3b
000003e0: d5f3 bbbd debb 67bd d18b 21bd 2d75 143c
000003f0: 6dbe d03c f46e 86bd 0345 5dbd 9c39 97bc
-0.041325472 -0.025980888 -0.027433574 0.034129404 0.019273058 -0.058722977 0.0076664872 0.00830486
-0.046023715 -0.03440733 -0.014578608 0.03639623 0.008380146 -0.004144492 0.03076155 0.034073565
-0.03339726 -0.02337628 -0.053489067 0.033732764 -0.063821666 -0.027737113 -0.01670695 -0.017284462
-0.0040842188 -0.048600335 0.057242945 0.016130693 -1.7276383e-05 -0.052219905 -0.006163326 -0.004886181
-0.016302858 -0.08477568 -0.03369998 0.023923196 -0.0756364 -0.03730721 0.01472073 -0.09309782
-0.06561556 -0.057489805 -0.06734454 0.03241419 -0.063567035 -0.028593196 0.0184114 -0.033539806
-0.061799195 0.013522336 0.022183366 -0.048625953 -0.13980588 0.033371545 -0.0023158034 -0.054678734
-0.0039376267 0.0026859697 -0.11758778 0.027668841 -0.015403544 0.009542118 -0.035381686 -0.05419534
0.019711977 0.019592378 0.014456621 -0.020926705 -0.07052301 -0.028428562 -0.0261411 0.034596667
-0.05197586 -0.017548766 0.020801619 -0.026359454 0.014643069 0.055522095 -0.018913249 -0.08814146
0.0021017557 -0.033355553 -0.15859793 -0.061217286 -0.031054154 0.0023829916 -0.05790127 0.007174037
-0.01142026 -0.017926317 0.014497929 -0.034298442 -0.062343936 -0.08288002 -0.074591085 -0.024351228
0.024688648 -0.03433236 -0.022433065 0.020331645 -0.122319974 -0.14340498 -0.018942384 -0.015812991
-0.023870803 -0.047386546 -0.01932147 -0.06783527 -0.081011854 -0.07451067 -0.043753028 -0.021920467
-0.04456668 -0.0062253973 -0.13718858 -0.051241405 0.029386658 -0.069729246 -0.14459081 -0.033746697
-0.03884214 -0.068029314 -0.059380583 -0.014929801 -0.022775074 -0.0706366 -0.030778704 -0.036261845
-0.0032355909 0.005853498 -0.030801844 -0.034096986 -0.041496124 -0.011513058 -0.025374945 -0.014573572
-0.023850558 0.048950143 -0.03147074 -0.015257375 -0.08919625 -0.033860046 0.011325434 0.008948219
0.008536697 -0.044129815 -0.064190865 -0.014076748 -0.002063599 -0.006307347 -0.04016488 -0.0015563904
0.031638253 0.019859048 -0.14501332 0.042773362 -0.12704147 -0.014834439 0.005789028 0.02320905
-0.03007094 -0.0012485884 0.031279225 -0.065655924 -0.033207197 -0.19428487 -0.025107954 0.06815311
0.022136426 0.0023967142 -0.039544974 -0.0015938967 -0.0015057004 -0.018850818 -0.09308736 0.030796753
-0.0042095687 -0.049160823 -0.0571079 0.007861144 -0.022787632 -0.07146854 -0.02675674 0.016114857
-0.024461351 -0.043169376 -0.032509588 0.010629151 0.017842729 -0.04349919 0.017444525 -0.027479222
-0.013426814 -0.01888501 -0.006390034 -0.037549183 -0.08473878 0.012430333 -0.14291075 -0.026261212
0.0045092665 -0.04947642 -0.11548632 0.03519749 -0.06795727 -0.006210324 0.03211856 -0.061558984
-0.004794728 -0.0016099557 -0.24353446 -0.0056617507 0.023073152 -0.008395346 -0.006595361 0.01165165
-0.047219526 -0.001536282 -0.00016675156 -0.020208156 0.009149971 -0.105937935 -0.011540488 -0.016449627
-0.016979365 0.062699474 0.015340817 -0.035110254 -0.10918115 -0.050827794 -0.044804227 -0.04637566
0.03111092 -0.01144586 -0.12567414 -0.0036579168 -0.050793946 -0.04021971 0.003841717 -0.12357136
0.0071687563 0.059053723 -0.011534507 -0.012366187 -0.005343302 -0.00012738333 -0.04626643 0.0034089745
-0.09177367 -0.05657565 -0.03943998 0.00906114 0.025481427 -0.065641314 -0.054020893 -0.018460087

net.6.weight f4 [128, 256]
00000000: d80d 843d 4b2e 8dbb c781 2c3d c3a5 873c
00000010: 3546 a1bc 6198 94bd d24f 743d 9303 463d
00000020: 48a8 a93c d493 513d 3390 393d fb59 073d
00000030: 8bb2 99bb 1e82 9e3c acba 57bd 71a5 113d
00000040: b7e1 823c f914 2abd 37ca a7bb 98b8 233d
00000050: ba1f 8ebc e025 2fbd 60dc 0f3d 28a6 363d
00000060: b2c5 a4bb d908 253d 2a52 97bc 1789 433d
00000070: 493e 2ebd a37c b1bc e9ca 693d 96b8 273c
00000080: d29b 163d 9605 733e c0c7 33be 0abf 5dbd
00000090: 7a03 68bd 4459 abbc 34ea f93d 4fa8 22bc
000000a0: a473 ac3d c2d5 a33d e8f5 2f3c 1b62 453d
000000b0: 7afd febc 1426 debd f056 513c 5373 27bc
000000c0: cca2 503c 0016 35bd c552 78bd 1f66 aabc
000000d0: 5d6e 1abd 81ae 3c3d 38fb fd3a 0692 b1bc
000000e0: 2f0b 8d3d 43b9 f1bd a6fd d5bc 88d8 16bc
000000f0: d7e7 acbc 7121 183c 13d7 f1bc c3f1 38bc
00000100: e107 01be 4648 0bbd 1529 c73c da2e 103d
00000110: 7cfd e6bb bed8 99bc a935 153d 11d7 7a3b
00000120: ce3b 43bd 1aab 3f3d fc7f ddbc 1f3a 5fbd
00000130: 27d4 62bd cc0e b4bd 6ab4 28bc 1dc0 4ebc
00000140: c6c4 4d3c 799c 223d 88a5 ce3c 819c 1e3d
00000150: ff28 7abd c9a5 033d 55ac 2c3d e691 753d
00000160: 08eb aa3c 596f fcbd dd02 d6bc d228 6d3d
00000170: d9ab febc f0c9 b2bd 193d 593c 7fe8 4fbc
00000180: 760d eebc b462 dcbb f676 9dbb def0 cd3b
00000190: 46eb a6bd 0f2f 6cbd 675b 62bd 4656 e03b
000001a0: cafe 773b de07 39bd a128 483c becd 953d
000001b0: 1638 d9bd 4bd1 1a3a 6970 ccbd 3f1f 72bc
000001c0: 8c15 c13a 6b21 6abd 7714 533d 4984 96bc
000001d0: 710c 803c 3727 ff3c f9ec fb3d 2f68 82bc
000001e0: 6fc9 413d 91b0 243c 5af8 a6bb dc87 06bd
000001f0: b578 8dbc 071e b13c 339b a83b fb37 bcba
00000200: ccd4 103d 1022 bfbd d900 18bd a415 67bd
00000210: 554a fd3c dda3 78bd 7b83 303d 6e99 473b
00000220: 71af 8bbd 56fb 3d3c b740 de3c 382e f5bc
00000230: 1a12 783d de7a 8b3b 91aa 463c 76a8 70bd
00000240: 53e6 3cbd 41f5 b73c 7512 983d a9b1 a23d
00000250: ca0f 4eba 629c 843c 3dad c1bc be8c d93c
00000260: 61b4 e5bc 28e8 a7ba fb83 26be 3716 283d
00000270: 83c4 013d 96c4 5dbc 756b 2abb 5498 cb3b
00000280: dfea 0e3b 9783 dbbc 1b64 01bd 25d6 37bd
00000290: 8585 bebd 3fda 29be 11bb d0bc 65aa 35bd
000002a0: d6e3 1bbd 7385 11bd 05ee 3abc 8e6e e9bc
000002b0: ce0a 76bc 3362 c6bc c580 063d 3569 e43c
000002c0: 436c c83b a3f0 6e3c dd08 f3bb e45d 4bbd
000002d0: 963d 5d3c 559c 823c fdf0 a2bc 5c39 613d
000002e0: d10f 00bd 1241 603c 5d29 203d 7dd8 6c3c
000002f0: f539 b0bb 2eca dbbd 0d45 7cbc 6a0a 86bc
00000300: 055b 81bd ec0f 25bc c932 fdbb 20de 2f3d
00000310: a527 1dbd 5ae7 853c 3a25 e83b 6c08 30bd
00000320: 7f65 80bc 5e39 2c3c 8b48 323c e0dd b53c
00000330: 4cd0 a8ba 73b8 ec3c 263c 693c 4816 34bd
00000340: dd4d 853d 6be3 80bb 00bb c4bd 5545 063c
00000350: df30 c8bc 4256 39bd f950 8cbc 0575 7b3c
00000360: 77fc 8dbc 4771 04bd b220 493d 9df8 583c
00000370: deb0 aabc 6ae1 5abd 9308 e4bc d08f 8abd
00000380: 8b0c d9bd d471 353d a44b 4e3c c600 cabb
00000390: 30db cbbd f58e 9fbc c134 703d abd8 3d3d
000003a0: 3c45 77bd 027e d63c 4796 8fbd c4ff 563d
000003b0: 0eef 99bd bb65 a93d 826f 46bd c96d 163d
000003c0: 4483 92bd acc8 46bd f5d7 d6bb 3f62 05bd
000003d0: 2183 ff3c ea99 1cbd aad5 42bc c1ad 72bc
000003e0: 5fcc a4bd ba38 a83b 81e4 d7bd 8f1a 1fbd
000003f0: f2e5 033b 8c35 613c 4f41 493d 6af5 833d
0.06447953 -0.004308497 0.042115953 0.016558534 -0.019686798 -0.072556265 0.059646435 0.048343252
0.020710126 0.05116637 0.045303535 0.033044796 -0.0046904734 0.019349154 -0.05266826 0.035558168
0.01597677 -0.041523907 -0.0051205414 0.039970964 -0.017349113 -0.04276073 0.035122275 0.044592053
-0.00502845 0.04029164 -0.018471796 0.04773816 -0.04253987 -0.021665877 0.057078276 0.01023688
0.036769696 0.237326 -0.17556667 -0.054137267 -0.05664394 -0.020916589 0.12202874 -0.009927823
0.08420494 0.079997554 0.010739781 0.048189264 -0.031126726 -0.108471066 0.012777075 -0.0102203665
0.012734126 -0.044210434 -0.06062581 -0.020800648 -0.037702907 0.046064857 0.0019377237 -0.021676075
0.06886899 -0.11802914 -0.026121926 -0.0092068985 -0.021106644 0.009285317 -0.0295215 -0.011288109
-0.12600662 -0.034004472 0.024311582 0.03520093 -0.0070492607 -0.018780109 0.036428127 0.0038275162
-0.047664456 0.046794035 -0.027038567 -0.054498788 -0.055378105 -0.08791885 -0.01029692 -0.012619046
0.0125591215 0.039700005 0.025225416 0.038723473 -0.061074253 0.032140527 0.042156536 0.059953593
0.020864025 -0.123259254 -0.026124412 0.057900257 -0.031087803 -0.08729923 0.013259196 -0.012689709
-0.029059153 -0.0067256335 -0.004805441 0.006284817 -0.081503436 -0.057662066 -0.05526295 0.006846222
0.0037841075 -0.04517352 0.012216718 0.07314633 -0.10606401 0.0005905821 -0.09982378 -0.014777957
0.0014731153 -0.057160776 0.05153319 -0.018373625 0.015630933 0.031146629 0.12301058 -0.01591882
0.047311243 0.010051862 -0.005095524 -0.03284441 -0.017269472 0.021620763 0.0051454543 -0.0014359945
0.03535919 -0.09332669 -0.037110183 -0.056417122 0.030919233 -0.060703147 0.04309414 0.0030456441
-0.06820572 0.011595568 0.027130468 -0.029929265 0.060564138 0.0042565903 0.012125627 -0.058754407
-0.04611809 0.022455813 0.074253954 0.07944042 -0.0007860629 0.01618785 -0.023642177 0.026556369
-0.028040113 -0.0012810277 -0.16261284 0.04103681 0.03168155 -0.013535639 -0.002600399 0.0062132273
0.0021807475 -0.026796145 -0.03158961 -0.04488196 -0.093028106 -0.1658716 -0.025479825 -0.044351954
-0.03805908 -0.035527658 -0.011409287 -0.0284951 -0.0150172245 -0.024216747 0.032837648 0.027882198
0.0061164214 0.014583739 -0.007416828 -0.049650088 0.013503453 0.015943686 -0.019890303 0.054986343
-0.031265084 0.013687389 0.039101947 0.014455912 -0.0053780028 -0.10731922 -0.015397322 -0.016362388
-0.06316189 -0.010074597 -0.0077270013 0.042936444 -0.038367886 0.016345669 0.007084516 -0.04297678
-0.015673397 0.010511724 0.010881553 0.022200525 -0.001287946 0.028896546 0.014235532 -0.04396656
0.06508992 -0.0039333603 -0.0960598 0.008195241 -0.024437366 -0.045248277 -0.017128455 0.015347724
-0.017332299 -0.032334592 0.049103446 0.013242868 -0.02083629 -0.053437628 -0.02783612 -0.06765711
-0.105980955 0.044298008 0.012591276 -0.006164643 -0.09953916 -0.019477347 0.05864406 0.04634921
-0.06036876 0.026183132 -0.07011085 0.05249001 -0.07516299 0.08271357 -0.048446186 0.036725793
-0.07153943 -0.04853122 -0.006556506 -0.032564398 0.031190457 -0.03823272 -0.011891762 -0.014811934
-0.08046793 0.0051337155 -0.105416305 -0.038843688 0.0020126072 0.013745677 0.04913455 0.064432934

net.6.bias f4 [128]
00000000: d70a 58bd aece 3dbc 5fdc 8339 7ecd 7bbd
00000010: 5dbe b1bb 536f ab3d b146 1b3b aa5c 0cbe
00000020: 696d 01bc 3693 08bc 8ed3 983d 4ed3 c63c
00000030: 36c2 97bd f738 4b3d 1e78 3dbd ce53 95bd
00000040: 3905 1f3d d44b 70bd 48f6 80be 19eb 45bc
00000050: c58e 5b3d ff1d 02be b084 92bd c9a5 a8bd
00000060: 248b 68bd fa68 26be 7f0f 343d 2cbc a83d
00000070: 8919 f7bc c989 8abd 9166 643d d9ab 123d
00000080: 6a9b a6bd 9c84 43be f8be d6bb 280f 5a3d
00000090: 0431 a63c 55f2 a4bc 64ea a4bd e4f5 36bb
000000a0: 4fdb afbc fd09 34bc 7212 8e3d b80a 31ba
000000b0: 310a 563c 62fc 253d ac47 773d 15d6 e43b
000000c0: e68b c8bc 1713 393d 15e1 293d 9078 a8bc
000000d0: 4df3 39bd 4ee7 11bd 578f 72bc 13f9 67bd
000000e0: b39e fc3c 5b24 b43b 47b2 c13c b56b 12bc
000000f0: c835 88bd 7326 30be 5f45 67bd f59e d03c
00000100: dee3 f73c b72d 193d 7da3 14bb 5081 b4bc
00000110: 0fa8 ef3a b01a 863a df80 b63a 89ee 0ebc
00000120: 1aaf 983c 4e5e 31bd 6f4a 4bbd 5b98 433c
00000130: 5646 403d fac6 99bd 543c 70bc d1d4 f73c
00000140: d73d 373d 8a82 10bd 9ddd 3bbe 5bba 8cbc
00000150: 4934 00bd 8ae9 a03d 73ee 9b3d ded2 2abb
00000160: 1e43 793d bcaa 3ebc 90f0 7dbe 57db b73d
00000170: 5664 b5bc c170 833d ee6a a9bb 0e23 0bbd
00000180: 1397 61bc b684 afbc 0f24 573d e34b 38bd
00000190: a315 fdbc f3f8 85bc 7ca7 2bbe f4d1 923d
000001a0: 626d cbbd 0058 c63c 073c 303d 4d72 923c
000001b0: 0d46 c2bc fda8 92bd b43f 3bbd 92dc d0bd
000001c0: 1728 dc3c 8ebd 2d3d 9603 553d ab6a 5abd
000001d0: 81fe 033c 12a6 84bd f164 94bd cdaa 4bbb
000001e0: ae33 073d f025 d8bd 0360 4c3d c6e3 993d
000001f0: aca1 643c ca3b 383d 7829 22bd 2c91 dcbc
-0.052744713 -0.011584921 0.00025150456 -0.06147527 -0.0054243044 0.08370843 0.0023693258 -0.13707224
-0.007899621 -0.008335879 0.07462226 0.02427068 -0.0741009 0.049614873 -0.04625713 -0.07291375
0.03882334 -0.058666065 -0.25187898 -0.012079977 0.053602953 -0.12706755 -0.071542144 -0.08234746
-0.05677332 -0.16250983 0.04396009 0.08239016 -0.030163543 -0.06764562 0.055761877 0.035808418
-0.08135112 -0.19093555 -0.006553527 0.05323711 0.020287044 -0.020135084 -0.08052519 -0.0027917558
-0.02146688 -0.0109887095 0.06937112 -0.00067536114 0.013063953 0.040523894 0.060371086 0.0069835284
-0.024480771 0.04518422 0.04147442 -0.020565301 -0.045398045 -0.03562098 -0.014804683 -0.05663402
0.030837392 0.005497498 0.02364458 -0.008936812 -0.06650883 -0.17202167 -0.05646264 0.025466422
0.030260023 0.037397113 -0.0022680454 -0.022034317 0.0018284338 0.0010231342 0.0013923905 -0.008723863
0.018638182 -0.043302827 -0.049631532 0.01193818 0.046942078 -0.07508655 -0.014662821 0.030252846
0.04473671 -0.03528074 -0.18346258 -0.017178705 -0.031299863 0.07857044 0.0761384 -0.0026065628
0.060855024 -0.011637386 -0.24798799 0.08977383 -0.02214257 0.064179905 -0.0051702177 -0.033968978
-0.013768929 -0.021425586 0.052524623 -0.044994246 -0.030894106 -0.01635406 -0.16763109 0.07168952
-0.099329725 0.024211884 0.043025997 0.017876768 -0.023715043 -0.07161138 -0.04571505 -0.101983204
0.026874585 0.0424171 0.052005373 -0.053324383 0.008056284 -0.06476988 -0.072458155 -0.0031077147
0.03300827 -0.10554111 0.04989625 0.075141475 0.013954561 0.044978894 -0.03959033 -0.026924692

net.9.weight f4 [7, 128]
00000000: 728e 103c aa16 1b3c 0a0d 1c3c 7d2e 203c
00000010: 54b3 0b3c 170e 00bc 68a0 6fbb 3c7e 393c
00000020: 708d 4cbc e7a2 843b 9adb 06bc 7552 5fbc
00000030: ccd3 403b 35b2 4bbc e89d 163c e341 963b
00000040: 5400 96bc 59a2 053b ac96 183d d038 d437
00000050: c771 5abc a4a7 9bbb acb0 f43b 79c3 553b
00000060: 2e72 623b 7c2a e43b 5e7c 36bc d0cf 36bc
00000070: 27bc f83b 8984 c93a be55 05bc f065 8cbc
00000080: a8fb 283c 62ec f03a dc25 8fbc 7784 8dbc
00000090: 5ff5 083c 4cb1 003b 95d3 e73b 7630 88bc
000000a0: 35e0 853a 3b03 0c3c d717 69bc 6e15 203c
000000b0: 91f4 5cbc a233 94bc 04ad 78bc 3e4b 59b9
000000c0: 6ebf 333c cbd4 ad3a cd70 84bc 916d ed3b
000000d0: bffb 10bc 8b38 2a3c 47c8 143c 5b45 2cbb
000000e0: 4bc8 57bc 42c7 9abc e835 76bc 1fce 76bc
000000f0: a606 353c 8e6a 383c d0b4 343c 38dd 3fbc
00000100: 2158 81ba d339 a6bc e2a1 7dbc 96f6 733a
00000110: d68e 0fbb b2f4 1fbc 6344 6bbc 9d71 4bbc
00000120: c803 b8bb 33f9 5dbb 7e1c 9a3b 14dd 12bc
00000130: e9f0 95bc 674e a03b 7f82 0c3c a30f 7abc
00000140: c179 86bc 9978 203c 8656 cf3b 8844 e53a
00000150: e56a c33b a1d1 4abb 0343 22bc 95f8 2f3c
00000160: 3959 7dbc 4c3c b9bc 8c68 2c3d 03aa 97bc
00000170: 6386 053c f720 86bc f37f 093c 9893 17bb
00000180: 05a5 1f3c 8a14 783a e78f 6abc 0cd3 4dba
00000190: dbd3 a2bc 31e7 203c 6f99 0a3c ffde 47bc
000001a0: 4aeb ca3b d388 81bc 94f5 59bc 1147 3fbc
000001b0: fda9 0c3c afad aa3a e000 42ba a41b f43b
000001c0: f713 a8bc 4ffb 18bc bca5 55bc aab1 153b
000001d0: 6677 08bb 8ea4 c839 0eb4 a73a cc57 09b9
000001e0: 2c86 8cbc c3d9 1d3c 4487 81bc c9d8 4fbc
000001f0: 92da 5bbc 1d0e 23bc f697 0e3c d364 8c3b
00000200: 0fd6 1e3d d6f7 82bb d5ea 863a e53d e73c
00000210: 1858 373a dd32 013c a997 dd3b 28f8 ff3d
00000220: 06d5 413c ac06 e4bb 7871 0f3c 01dc 46bc
00000230: 908c 16be 2958 6f3c 13b8 19bc 4220 adbc
00000240: 2105 973c b67e 693d b8f1 4cbd a419 22bd
00000250: 63cb f73b 34b4 73bc e4e1 1abd 6eea 24bd
00000260: 0275 e63d a8a2 3c3c 0362 6b3c ab78 033c
00000270: 3d74 413d 8ab0 37bd 3776 ac3b 87b9 203b
00000280: 47d4 183d 4af2 ccbc 1337 a63a a469 8e3c
00000290: 44a4 b93b 7102 b7bc c6b1 333c 7515 953c
000002a0: 2ea4 c439 4213 483c ef8a 7c3c 66f6 7b3c
000002b0: f56c 233c aa62 173c f3c0 803c 9a0f 2f3d
000002c0: d431 50bb 0d08 42bc 0fc7 263c 28fd f4bb
000002d0: 7c4f 3ebb 08ce d33c 0591 43bb 873f b1bc
000002e0: 95cb d03b 82d0 753b 34ca e43b 6a1a d63a
000002f0: 457c 523d 4f9e 47bd db1b 963b e1a8 993c
00000300: 08fb 6dbc 91a5 0aba 2076 10bb 47d8 01bd
00000310: 1b72 75bc 8473 f7bb 3bc7 303c ce40 5a3c
00000320: cf0e 0f3d 12a4 a5bb 0dcf 75bc 8a1e 083c
00000330: 8805 66b8 c0fd 7bbd be6c dc3a d4cb adbb
00000340: 8a77 f83b 270e c33c 9e9d fe3c 22fd 183e
00000350: 5ad3 31bd e9e7 363b f6c4 b93b 74a8 0b3c
00000360: 8943 7a3c 9f19 013c a767 f6bc 3d2d 0d3a
00000370: f4e1 f73c 5407 4d3c d822 63bc 39aa 243d
00000380: b06b d63c ec00 2abd e5b4 513c 9a48 78bd
00000390: 57d0 36bd d4bb fb3b 43f5 723c 230b d13c
000003a0: 24ed 7e3d fe59 863a 8020 c33c 0cb1 323c
000003b0: 4c10 19bb ea9e be3c 82f6 f63b 30cd 053d
000003c0: d9be 8e3c 5fdb bdba 3a63 833c 38ca c1b9
000003d0: 99a4 28bd d73c 06bd aa40 853c c5f2 4f3d
000003e0: cf7e 7c3b 8dee b73c c36f 093c 0222 403c
000003f0: 9e7b 413c e7b2 833c 08f3 2ebb 573c 91bd
0.008823024 0.009465853 0.009524593 0.009776709 0.008526642 -0.007815859 -0.0036564115 0.0113216005
-0.012484893 0.00404774 -0.008231068 -0.013630499 0.0029423116 -0.012432625 0.009192921 0.004585491
-0.018310703 0.0020390956 0.037253067 2.5298825e-05 -0.013332791 -0.004750209 0.00746735 0.0032617731
0.003455292 0.0069630723 -0.01113805 -0.011157945 0.007590789 0.0015374582 -0.008138118 -0.017138451
0.010313906 0.0018380994 -0.017474107 -0.017275078 0.008359282 0.0019636927 0.007074783 -0.01662467
0.0010213914 0.008545692 -0.014226875 0.009770734 -0.013486044 -0.018091027 -0.015177969 -0.00020722763
0.010970933 0.001326227 -0.016167069 0.0072457273 -0.008849083 0.010389457 0.009080953 -0.0026286456
-0.013170312 -0.018893842 -0.015027501 -0.015063792 0.011048948 0.011255873 0.011029437 -0.0117104575
-0.0009868183 -0.020291245 -0.01548049 0.00093064585 -0.0021905205 -0.00976293 -0.014359566 -0.012417224
-0.005615685 -0.0033870458 0.0047031036 -0.008963842 -0.018303351 0.004892159 0.008576035 -0.015262517
-0.016415479 0.009794378 0.006327453 0.0017491737 0.0059636706 -0.0030947702 -0.009903672 0.010740419
-0.015463167 -0.02261176 0.04209189 -0.018513685 0.008149716 -0.01637314 0.008392322 -0.0023128744
0.009743934 0.000946351 -0.014316536 -0.0007851578 -0.019876411 0.009820745 0.008459433 -0.0121991625
0.0061925994 -0.015812313 -0.013303179 -0.011674658 0.00858545 0.0013021732 -0.0007400643 0.007449584
-0.020517332 -0.00933726 -0.013040002 0.0022841492 -0.002082312 0.00038269575 0.0012794749 -0.00013098045
-0.017153822 0.009634438 -0.01581157 -0.012685963 -0.01341881 -0.009952095 0.0087032225 0.00428448
0.03877836 -0.0039968295 0.0010293374 0.028227756 0.0006994023 0.007885662 0.006762464 0.12498504
0.011830574 -0.006958803 0.00875508 -0.012137414 -0.14702058 0.014608421 -0.009382266 -0.021133546
0.018435063 0.057005607 -0.05003521 -0.039575234 0.0075620874 -0.014874507 -0.037813082 -0.040262632
0.11252786 0.01151339 0.0143666295 0.008024375 0.047229994 -0.044846095 0.0052631157 0.0024524645
0.03731182 -0.025017876 0.0012681208 0.017384358 0.005665334 -0.022340031 0.010967677 0.018198708
0.00037506357 0.012211623 0.015413984 0.01537857 0.009974708 0.009239832 0.015717005 0.04273949
-0.003176798 -0.01184274 0.010179295 -0.0074764676 -0.0029039076 0.02585508 -0.0029841077 -0.021636738
0.006371925 0.0037508314 0.0069821123 0.0016334776 0.051388044 -0.04873496 0.0045809573 0.018757286
-0.014525183 -0.00052889535 -0.0022043064 -0.0317004 -0.014980818 -0.0075516123 0.010789688 0.013321115
0.034926232 -0.005054959 -0.015002978 0.008308062 -5.4841425e-05 -0.06152129 0.0016817076 -0.005303839
0.0075826095 0.02381046 0.031081017 0.14940313 -0.04341445 0.0027909225 0.0056692315 0.008524049
0.015274891 0.007879644 -0.030078722 0.0005385464 0.03025911 0.012513954 -0.013863288 0.0402014
0.026174396 -0.041504785 0.012799476 -0.060616113 -0.044632282 0.007682303 0.014828983 0.025518006
0.062237874 0.0010250208 0.023819208 0.010906469 -0.002335566 0.023269136 0.0075367102 0.032666385
0.017424988 -0.0014484933 0.016038526 -0.00036962493 -0.041172598 -0.032772865 0.016266186 0.050768632
0.0038527732 0.022452617 0.0083884625 0.011726858 0.011809258 0.016076518 -0.002669515 -0.07091587

net.9.bias f4 [7]
00000000: 6cab dc3d 5fd4 d0bc 4d27 83bc c514 ebbd
00000010: 6396 96bc 9e63 023e 3b03 0fbe
0.10774884 -0.025491891 -0.016009951 -0.11478571 -0.018382257 0.12733313 -0.13966076
