script/tabpfn_sabr_step8_stacking.pth (torch, 685015 bytes, 8 tensors)

head.0.weight f4 [512, 9]
0	0x3dee82b0	0.116460204
1	0xbe50866c	-0.20363778
2	0x3d8c20d3	0.06842198
3	0xbcb79b54	-0.022412933
4	0x3d54f51a	0.05199156
5	0x3eb727c3	0.35772523
6	0xbea12776	-0.3147542
7	0xbde8feaa	-0.11376698
8	0x3e21eba6	0.15812549
9	0xbd224950	-0.039620697
10	0x3d9a4226	0.07532148
11	0x3d8d05f7	0.06885903
12	0x3d60a86d	0.054848123
13	0xbd9c0e20	-0.07619882
14	0x3df32f17	0.11874216
15	0xbe489255	-0.19587071
16	0x3a38b137	0.000704545
17	0xbeda91e9	-0.42689446
18	0x3e1f988c	0.15585536
19	0x3d3cf5c4	0.046132818
20	0xbe02720f	-0.12738822
21	0x3eb74321	0.35793403
22	0x3e19737b	0.14985459
23	0xbdace45f	-0.08441996
24	0x3ccfbc2e	0.025358286
25	0x3d9c82d1	0.07642139
26	0x3ef304e9	0.47464684
27	0xbe1e72b5	-0.15473445
28	0xbd3505c1	-0.04419494
29	0xbd92697a	-0.07149024
30	0x3e0d0a27	0.13773404
31	0xbd98a2b9	-0.07452912
32	0x3e163110	0.14667153
33	0xbe2556ea	-0.16146436
34	0x3e261225	0.16217859
35	0xbdcf55b5	-0.10123769
36	0x3e06ba2f	0.13156961
37	0xbd451519	-0.048115823
38	0x3e1c0f6d	0.1524026
39	0xbd790209	-0.060792957
40	0xbdad2006	-0.084533736
41	0x3e9c2b95	0.30502
42	0xbe4485ab	-0.19191615
43	0xbe8899d6	-0.26679868
44	0xbed02bc0	-0.4065838
45	0x3dc0ea6e	0.09419714
46	0xbdee78cb	-0.11644133
47	0xbdb9b3ab	-0.09067472
48	0x3e9cd5b6	0.30631799
49	0xbd08fc86	-0.03344395
50	0x3de4e1e7	0.111759
51	0xbdd8f0ec	-0.10592827
52	0xbe2e1f6b	-0.17004173
53	0x3e04f16c	0.1298272
54	0x3e184095	0.14868386
55	0x3db22dd8	0.0870015
56	0x3d5038c3	0.050835382
57	0x3e8a321d	0.26991358
58	0xbdb29e8e	-0.08721648
59	0xbe2b5abd	-0.16733833
60	0x3e8aaf92	0.27087075
61	0x3dd114d6	0.10209052
62	0x3e521b54	0.20518237
63	0xbbcd3670	-0.006262593
64	0x3e058d69	0.13042225
65	0xbd9be150	-0.07611334
66	0xbe6f356e	-0.23360226
67	0x3e5a2682	0.21303752
68	0x3e4d6637	0.20058523
69	0xbe905954	-0.28193152
70	0xbd52a472	-0.05142636
71	0xbef40ad9	-0.47664526
72	0xbd8e485f	-0.069473974
73	0xbd884668	-0.06654054
74	0x3e5db17c	0.21649736
75	0xbc8dbce2	-0.01730198
76	0x3e8802ca	0.26564628
77	0xbdee9721	-0.11649919
78	0x3ecf01b2	0.4043098
79	0x3e21abe2	0.15788224
80	0x3e6797aa	0.22616449
81	0xbe054571	-0.13014771
82	0x3d002ee1	0.031294707
83	0xbdf28758	-0.11842221
84	0x3cb07bf9	0.02154349
85	0xbe112ccb	-0.14177243
86	0xbd73b146	-0.059495233
87	0x3cbd70a6	0.023125004
88	0x3e3660de	0.1781039
89	0x3e7719d0	0.2413094
90	0x3d214815	0.039375383
91	0xbe02c268	-0.12769473
92	0xbce06a2c	-0.027394377
93	0xbe61b74a	-0.22042575
94	0xbe99a540	-0.30008888
95	0x3d4765b3	0.048680972
96	0x3cab7883	0.020931488
97	0x3dd32b58	0.103110015
98	0xbe93feb8	-0.28905272
99	0x3bd5ab08	0.0065206327
100	0x3d4f611c	0.05062972
101	0xbd33e96a	-0.043923773
102	0xbddd7e84	-0.108151466
103	0x3e818be0	0.2530203
104	0x3df42abe	0.11922215
105	0xbe2bd7b8	-0.16781509
106	0x3d341e97	0.043974485
107	0xbeb2d180	-0.3492546
108	0x3e5458a2	0.20736936
109	0x3d965468	0.07340318
110	0xbd724591	-0.059148375
111	0x3e8b1dd0	0.27171183
112	0x3d991f4a	0.07476671
113	0xbe39891e	-0.18118712
114	0x3e7729fd	0.24137111
115	0x3e360f87	0.1777936
116	0x3e07bcb5	0.1325558
117	0xbd63c006	-0.05560305
118	0xbd5e4a23	-0.05426992
119	0xbdb0797b	-0.086169206
120	0x3e496a5d	0.1966948
121	0x3e8b1876	0.271671
122	0x3d89b77b	0.06724449
123	0xbc5a5151	-0.013325051
124	0xbe4ef581	-0.2021084
125	0x3eda56e6	0.42644423
126	0xbd3d8e30	-0.04627818
127	0x3da5a830	0.0808872
128	0x3c22fbe4	0.009947751
129	0xba0e9e9a	-0.00054405036
130	0xbde3ffec	-0.111327976
131	0x3eecbc1d	0.4623727
132	0xbea6ea11	-0.32600453
133	0xbeb3bacb	-0.3510345
134	0xbdc7e89b	-0.09761163
135	0xbc02cb72	-0.007983075
136	0x3e2a2456	0.16615424
137	0xbda661f0	-0.08124149
138	0x3e68fc41	0.22752477
139	0xbdfa3109	-0.12216384
140	0xbe54f8cd	-0.20798035
141	0xbd57e3fa	-0.05270765
142	0xbb73435c	-0.0037119007
143	0x3eb44c83	0.35214624
144	0x3db35879	0.08757109
145	0xbc8d9187	-0.017281307
146	0xbe150f21	-0.14556552
147	0x3e41c225	0.18921717
148	0x3e717953	0.23581438
149	0xbd7007d0	-0.0586012
150	0xbda0e1ea	-0.0785559
151	0x3e45c4d0	0.1931336
152	0x3ccb76d7	0.02483694
153	0xbdfcd203	-0.12344744
154	0x3d1cfc4a	0.03832654
155	0xbe5e2e54	-0.2169736
156	0xbed8a680	-0.4231453
157	0x3d3ce253	0.046114277
158	0x3e16baf5	0.14719756
159	0xbe7cf934	-0.24704438
160	0x3d7e097f	0.062020775
161	0xbea07382	-0.31338125
162	0xbe57f7d3	-0.21090631
163	0xbda4edb3	-0.0805315
164	0x3d4bdc13	0.049770426
165	0x3ec7f4fd	0.390541
166	0x3d28245f	0.04105031
167	0xbdfe4af0	-0.12416637
168	0x3e46d5c2	0.1941748
169	0xbc873f0d	-0.016509557
170	0xbe30e8a5	-0.17276247
171	0x3d906d0c	0.07052049
172	0x3d91d4e8	0.07120687
173	0xbd86359f	-0.06553196
174	0xbe2eeb1a	-0.17081872
175	0x3c9dadb1	0.019247862
176	0x3e19efd4	0.15032893
177	0xbe834392	-0.2563749
178	0xbb89147e	-0.004183351
179	0xbeae9fef	-0.34106395
180	0x3d8f85ee	0.07007967
181	0xbde3d61e	-0.11124824
182	0xbc00f440	-0.007870734
183	0xbe829a9d	-0.25508586
184	0xbd71039b	-0.05884133
185	0xbe5ae569	-0.21376576
186	0x3e0c6fa1	0.13714458
187	0xbdf78f78	-0.12087911
188	0xbe96b19a	-0.29432374
189	0x3de5546d	0.111977436
190	0x3e1b816f	0.15186094
191	0x3e8ffd81	0.28123096
192	0x3e81165d	0.25212374
193	0xbd2d8870	-0.042366445
194	0x3e6f1e26	0.23351344
195	0x3ea64697	0.3247573
196	0x3eb2357a	0.34806424
197	0xbe330273	-0.17481403
198	0xbdbea443	-0.09308674
199	0xbd4e54a9	-0.050373707
200	0xbc0e01a8	-0.008667387
201	0xbe420492	-0.18947056
202	0xbd7da8c8	-0.06192854
203	0xbe862802	-0.262024
204	0x3e92c209	0.28663662
205	0xbe96bf02	-0.29442602
206	0x3ea38ba2	0.3194247
207	0x3d335cc2	0.043789633
208	0xbccd97a4	-0.025096722
209	0xbc91bfc6	-0.01779164
210	0x3e19dd06	0.1502572
211	0xbe4f78db	-0.20260946
212	0xbd2f9049	-0.04286221
213	0x3cd1fc75	0.025633076
214	0x3d94bde9	0.07262785
215	0x3e9d12f5	0.30678526
216	0xbda69115	-0.08133141
217	0x3dce8445	0.10083822
218	0xbd472e81	-0.048628334
219	0xbe000bab	-0.12504451
220	0x3d9963bf	0.07489728
221	0x3dc40d87	0.09572893
222	0x3e80d6f5	0.25164
223	0x3e08d3b2	0.13362005
224	0x3e983c39	0.29733446
225	0xbc83b236	-0.016076189
226	0x3e4d3ed2	0.20043495
227	0x3e91231d	0.28347102
228	0x3e6745f2	0.22585276
229	0x3de5be1e	0.112179026
230	0xbded91ce	-0.11600076
231	0x3f0a54c3	0.54035586
232	0x3e66ece7	0.22551309
233	0xbd5be635	-0.05368634
234	0xbdbb2c88	-0.09139353
235	0xbd357213	-0.044298243
236	0xbde6bc8c	-0.11266431
237	0x3e2c0c2c	0.16801518
238	0x3df96531	0.12177504
239	0xbe89f295	-0.26942888
240	0xbd8aa172	-0.067690745
241	0x3e99ef31	0.300653
242	0xbc9ba4cc	-0.01899948
243	0x3d6c395d	0.057671893
244	0x3cfeabed	0.03108784
245	0xbe17d53d	-0.14827438
246	0x3e7c09e7	0.24613152
247	0x3e4ff69f	0.20308922
248	0xbe15f20e	-0.14643118
249	0x3e60c697	0.21950756
250	0xbdb1a4b6	-0.08673994
251	0x3e54e632	0.20790938
252	0xbc141550	-0.009038284
253	0x3db46128	0.088075936
254	0x3de3863f	0.1110959
255	0x3e8d90b5	0.27649465

head.0.bias f4 [512]
0	0xbe8359b6	-0.25654382
1	0x3d1135f9	0.035451863
2	0xbe36b619	-0.17842902
3	0xbd06d91b	-0.03292189
4	0x3dca0edb	0.09866115
5	0xbe8fe33f	-0.28103063
6	0xbe59c6fb	-0.21267311
7	0x3dfe10ef	0.124055736
8	0x3d237231	0.039903823
9	0x3e37bb17	0.17942463
10	0xbe16cdf4	-0.14727002
11	0x3e98678d	0.29766503
12	0xbdabb25a	-0.08383627
13	0x3d6d2092	0.05789239
14	0xbd490274	-0.049074605
15	0xbc749c9e	-0.014929919
16	0x3d6e4951	0.05817539
17	0xbe4e4b2d	-0.20145865
18	0xbe404473	-0.18776111
19	0x3d4eac1a	0.050457098
20	0x3dcf0f34	0.10110322
21	0xbe402ca0	-0.18767023
22	0x3dead3e5	0.11466197
23	0xbe87bfca	-0.2651351
24	0xbd081388	-0.03322175
25	0xbdd94f19	-0.1061079
26	0xbd96b238	-0.07358211
27	0x3e854cbc	0.26035106
28	0xbe099bcf	-0.13438343
29	0xbe320fbd	-0.17388816
30	0xbe7955b2	-0.24349096
31	0x3d3ff621	0.046865586
32	0x3cfb0bc2	0.030645255
33	0x3dde84e2	0.10865189
34	0x3bd0f8fe	0.0063773384
35	0xbe5c128d	-0.21491452
36	0xbd3fea93	-0.046854567
37	0xbe228642	-0.15871528
38	0x3e09f438	0.13472068
39	0xbe82a1f4	-0.25514185
40	0x3e28fa32	0.16501692
41	0xbe5e26aa	-0.21694437
42	0xbe00a4c1	-0.12562849
43	0xbcf6043e	-0.03003132
44	0xbde8f94d	-0.11375675
45	0xbe2be2d7	-0.16785751
46	0xbea51f2f	-0.32250354
47	0xbe0bca04	-0.13651282
48	0xbe99f99c	-0.3007325
49	0xbe138405	-0.1440583
50	0x3e05a9d0	0.1305306
51	0x3d974213	0.073856495
52	0x3afc7c70	0.001926316
53	0xbe35fe40	-0.1777277
54	0xbe961874	-0.2931553
55	0xbe76e4c0	-0.24110699
56	0xbe19f916	-0.15036425
57	0xbec48e0e	-0.3838963
58	0x3dc4ee88	0.09615809
59	0xbd8f946a	-0.070107296
60	0xbda32552	-0.07966103
61	0x3e0fb5ed	0.14034243
62	0x3dd6c15f	0.10486101
63	0x3d6b833e	0.05749821
64	0xbdd667d5	-0.10469023
65	0x3e1c3383	0.15254025
66	0x3e009777	0.12557779
67	0xbcdf8414	-0.02728466
68	0xbb9776be	-0.0046223095
69	0x3e0d8234	0.138192
70	0x3df5a653	0.119946145
71	0xbea3cc31	-0.31991723
72	0xbe128873	-0.14309864
73	0x3e6682a2	0.2251077
74	0x3e559e0f	0.20861076
75	0xbe0bc9a9	-0.13651146
76	0xbd8c95ba	-0.068644956
77	0x3e4053c1	0.1878195
78	0x3d613f83	0.05499221
79	0x3da289cf	0.07936441
80	0x3d93fabd	0.07225559
81	0x3dc3d8fa	0.09562869
82	0xbdc5bb16	-0.096548244
83	0xbd7deb5b	-0.06199203
84	0x3da38645	0.07984594
85	0xbebd892b	-0.37018713
86	0x3e4e97ba	0.20175067
87	0x3e2446db	0.16042654
88	0xbe1cdd6d	-0.15318842
89	0x3e87a17b	0.26490387
90	0xbe3e27f8	-0.18569934
91	0x3e7bba80	0.24582863
92	0xbe07a1ab	-0.13245265
93	0xbcb7b65d	-0.022425825
94	0x3e679c7f	0.22618292
95	0xbbfa03b6	-0.007629837
96	0x3c129019	0.008945488
97	0x3e304519	0.17213859
98	0xbdb5db15	-0.08879677
99	0xbdaccc8c	-0.08437452
100	0xbea50792	-0.32232338
101	0x3def7cb6	0.116937086
102	0xbe0ccf13	-0.13750868
103	0x3cb193b7	0.021676881
104	0x3e2420e2	0.16028169
105	0xbdb7a2de	-0.08966611
106	0xbd3e1fe8	-0.046417147
107	0xbdf36b70	-0.118857265
108	0xbd8aa742	-0.06770183
109	0x3d5f9e8d	0.054594565
110	0x3d98d58f	0.07462608
111	0xbe7fa182	-0.24963954
112	0x3ba18624	0.004929321
113	0x3e8071c8	0.25086808
114	0xbe55fcc3	-0.20897202
115	0x3d85b766	0.06529121
116	0xbe474eb8	-0.19463623
117	0xbd4d8b1c	-0.050181493
118	0xbe942715	-0.28936067
119	0xbdf4d7ae	-0.119552
120	0xbe4a09bf	-0.1973028
121	0xbe620364	-0.22071606
122	0x3c419e2b	0.011817495
123	0xbe51eddb	-0.20500891
124	0xbea31316	-0.318505
125	0xbdebbae4	-0.11510256
126	0x3cffccb2	0.031225536
127	0x3e40300f	0.18768333
128	0x3d7d4a80	0.061838627
129	0xbe2cecfc	-0.16887277
130	0xbe7293f6	-0.23689255
131	0x3e28cce4	0.1648441
132	0x3e05f28b	0.13080804
133	0xbcc4ba12	-0.024014506
134	0xbe42b6df	-0.19015072
135	0x3e218230	0.15772319
136	0xbe07f742	-0.13277915
137	0xbe06a0f4	-0.13147336
138	0x3e3007a8	0.1719042
139	0xbe0a9079	-0.13531674
140	0x3a412e0e	0.00073692284
141	0xbe854687	-0.2603037
142	0x3e4f7f78	0.20263469
143	0xbc4ab5b2	-0.012372421
144	0xbe017c32	-0.12645033
145	0xbe155725	-0.14584024
146	0x3cbb22f3	0.022843814
147	0xbe1994bd	-0.14998145
148	0x3c1f7597	0.009732625
149	0x3cd7d13c	0.026344888
150	0x3db1c2d9	0.08679742
151	0xbe2b1e34	-0.1671074
152	0x3dde93d4	0.1086804
153	0xbc4cde94	-0.012504239
154	0xbe5b642c	-0.21424931
155	0xbda56647	-0.080761485
156	0xbe544df8	-0.20732868
157	0x3e50f957	0.20407616
158	0xbc9b8848	-0.018985882
159	0xbdac6f8e	-0.08419715
160	0x3e2cb2f4	0.1686514
161	0xbe6221bd	-0.22083183
162	0x3d5d73ec	0.05406563
163	0x3d127875	0.035759408
164	0xbe281227	-0.16413175
165	0xbe1c52c2	-0.15265945
166	0xbd9fab5a	-0.077963546
167	0xbe34bdc9	-0.17650522
168	0x3ddb251e	0.10700439
169	0x3a5b921d	0.00083759596
170	0x3e9544de	0.29154104
171	0xbdcaf648	-0.09910256
172	0xbea348f2	-0.3189159
173	0xbd49e184	-0.049287334
174	0x3a13b61a	0.000563474
175	0x3de43f70	0.11144912
176	0xbe2d8cc6	-0.16948232
177	0xbde0414f	-0.109499566
178	0x3bd3dc72	0.006465488
179	0x3e7d40fe	0.24731824
180	0xbdcf159c	-0.101115435
181	0xbe1f6818	-0.15567052
182	0x3db5c71a	0.08875866
183	0xbe8208dc	-0.25397384
184	0x3d6e3222	0.05815328
185	0xbbff7ff6	-0.0077972366
186	0x3e6de674	0.23232442
187	0xbe56779d	-0.20944066
188	0x3ea9e1bf	0.33180043
189	0x3ce2f2e0	0.027703702
190	0xbe9a0e7e	-0.30089182
191	0xbd9e5938	-0.07731861
192	0xbcf2c289	-0.029633777
193	0x3e181005	0.14849861
194	0xbdee3435	-0.116310515
195	0x3dd24103	0.10266306
196	0x3e029db2	0.12755468
197	0x3e70c74a	0.23513523
198	0x3db52d0d	0.088464834
199	0xbe24bc17	-0.16087376
200	0xbd4dab3d	-0.050212134
201	0x3e6c6ea2	0.23089078
202	0x3e1c509d	0.15265127
203	0x3d92aa3a	0.071613744
204	0xbe79113f	-0.24322985
205	0x3e3d7142	0.18500236
206	0xbe5b5a9d	-0.21421285
207	0xbc9e0be8	-0.019292787
208	0xbd57db34	-0.052699283
209	0x3d2e0027	0.042480614
210	0x3e65edf8	0.22454059
211	0x3e5d4660	0.21608877
212	0xbe2b14a3	-0.16707091
213	0xbe4f3378	-0.20234478
214	0x3d587d70	0.052854
215	0xbe634e52	-0.22197846
216	0xbd88200f	-0.0664674
217	0xbde80661	-0.11329342
218	0x3c8e409b	0.01736479
219	0xbcdbaf4a	-0.026816983
220	0xbe429f11	-0.19005992
221	0xbe2d09cf	-0.16898273
222	0xbe139f3a	-0.14416209
223	0x3d979c5d	0.07402871
224	0xbeb0bcd6	-0.3451907
225	0x3cabc1f8	0.020966515
226	0x3d93f54f	0.07224523
227	0xbdfcc8ea	-0.12343009
228	0x3d85b3f4	0.06528464
229	0xbc1e2979	-0.009653443
230	0xbdb02a7b	-0.086018525
231	0xbdd89f61	-0.10577274
232	0x3d97662a	0.07392533
233	0xbd78b7ce	-0.060722165
234	0x3e4a0de3	0.1973186
235	0xbdf1229d	-0.1177418
236	0x3cea3e99	0.028594302
237	0xbe4b831e	-0.19874236
238	0xbe1f1e35	-0.15538867
239	0xbd93354b	-0.07187899
240	0x3d27ffb8	0.041015357
241	0xbceb8e62	-0.028754417
242	0x3e3a2267	0.18177186
243	0xbe7e31a0	-0.24823618
244	0xbe0edd8e	-0.13951704
245	0xbe9452f1	-0.2896953
246	0x3e641449	0.22273363
247	0x3da41a47	0.080128245
248	0xbe89c076	-0.2690465
249	0x3e8387f5	0.25689664
250	0x3e53d167	0.2068535
251	0x3e393d62	0.18089822
252	0xbd5b327a	-0.053514935
253	0x3e4366a9	0.1908213
254	0x3d1ba3bc	0.037997946
255	0xbd6ab5b7	-0.057302203

head.3.weight f4 [256, 512]
0	0xbc1c18ce	-0.009527398
1	0xbc0e9097	-0.008701465
2	0xbd2c9ec2	-0.04214359
3	0xbd9fe451	-0.0780722
4	0xbc972a34	-0.018452741
5	0xbc299f9d	-0.010352996
6	0xbd664deb	-0.056226652
7	0x3bbfcc91	0.0058532436
8	0x3c827b81	0.015928032
9	0xbd445606	-0.0479336
10	0xbbdfeb1f	-0.0068334485
11	0xbc93b663	-0.018031305
12	0x3acef37a	0.0015789114
13	0x3cc0829f	0.023499785
14	0xbd12c1f7	-0.03582951
15	0x3d0a9e9a	0.03384266
16	0xbdd400b9	-0.103517
17	0x3b30266c	0.002687837
18	0x3cb70182	0.022339586
19	0xbcd4c07e	-0.025970694
20	0x3c91e568	0.017809585
21	0xbcaf7e6c	-0.021422587
22	0xbccdb78d	-0.025111938
23	0xbc598c9d	-0.013278154
24	0x3c06af40	0.008220494
25	0x3d003343	0.031298887
26	0xbdd1b778	-0.10240072
27	0x3c8390c2	0.016060237
28	0xbbb7fe1b	-0.0056150085
29	0xbd723ae2	-0.059138186
30	0x3ca421ab	0.020035585
31	0xbcf6d63c	-0.030131452
32	0xbbd41ef8	-0.0064734183
33	0xbd4acbbb	-0.0495107
34	0xbb9fcb33	-0.004876518
35	0x3d19b34f	0.037524518
36	0xbd3fbc24	-0.046810284
37	0xbbba788e	-0.005690641
38	0x3d158fcc	0.03651409
39	0x3d3ac078	0.04559371
40	0xbcfb1658	-0.030650303
41	0xbc08b108	-0.008342989
42	0xbcf1280e	-0.029438045
43	0xbd6f14d4	-0.058369473
44	0xbdd51c75	-0.104058184
45	0xbcc864bc	-0.024462096
46	0xbbe57895	-0.0070029
47	0xbc949185	-0.018135795
48	0xbd85d58c	-0.065348715
49	0xbb8b287d	-0.00424677
50	0x3c98ea2f	0.018666355
51	0x3d26de3c	0.040739283
52	0xbb9e282e	-0.004826567
53	0xbc220a87	-0.009890205
54	0x3c16b4d9	0.009198391
55	0x3cd2cbf5	0.02573202
56	0x3d25395b	0.0403379
57	0xbd148b84	-0.036265865
58	0xbd00fdd3	-0.031492066
59	0xbcb72c87	-0.0223601
60	0x3bd897e6	0.0066099046
61	0xbb1f93ea	-0.0024349638
62	0xbc8d6089	-0.017257946
63	0x3b470818	0.0030369814
64	0x3c4b95ca	0.012425849
65	0xbd3e3a2c	-0.046442196
66	0xbbb3f1c9	-0.0054914695
67	0x3d2dd42a	0.042438664
68	0xbc3b5f46	-0.011436289
69	0xbd5d49fa	-0.054025628
70	0x3c684b8b	0.014178167
71	0x3dcec017	0.10095232
72	0x3d219905	0.03945257
73	0x3c187b21	0.0093067
74	0xbd4bf7f6	-0.04979702
75	0xbcf9c647	-0.030490054
76	0xbd00517b	-0.031327706
77	0xbd810c0a	-0.063011244
78	0x3d073d82	0.033017643
79	0x3d014afd	0.031565655
80	0x3c23f0ea	0.010006169
81	0xbc32303c	-0.010875758
82	0xbd568eb9	-0.052382205
83	0xba98a574	-0.0011645989
84	0xbcea781d	-0.028621728
85	0xbd7809c0	-0.060556173
86	0xbd296682	-0.041357525
87	0xbd54e06e	-0.051971845
88	0x3c839f13	0.016067063
89	0x3d1fa314	0.038973883
90	0xbc881757	-0.016612692
91	0xbd2ed11b	-0.042679887
92	0x3b6d051e	0.003616638
93	0x3cadf2b2	0.02123389
94	0xbd1261fc	-0.035737976
95	0x3cbb2d6d	0.02284881
96	0x3d3f8e9d	0.046766866
97	0xbcab7e80	-0.020934343
98	0xbd5f0e2c	-0.054456875
99	0x3c34b919	0.011030459
100	0x3d6d231a	0.057894804
101	0x3a436941	0.0007454344
102	0x3d993f51	0.0748278
103	0xbcad8078	-0.021179423
104	0xbcbd0d79	-0.023077713
105	0x3d0c0834	0.03418751
106	0x3c0f8c1d	0.008761433
107	0xbce90d59	-0.028448747
108	0xbabe1d68	-0.0014504613
109	0xbc271440	-0.010197699
110	0xbcf2352a	-0.029566366
111	0xbd0d4023	-0.034484994
112	0x3ccaf5af	0.024775354
113	0x3c935c8d	0.017988468
114	0xbcfd33b4	-0.030908443
115	0xbd330bc6	-0.0437124
116	0x3b8b2ed6	0.0042475266
117	0xbaef2755	-0.0018245975
118	0xbd441ddc	-0.04788004
119	0x3cd65f61	0.026168527
120	0xbcae4a9f	-0.021275816
121	0x3ccfcc16	0.02536587
122	0x3bbd6f5d	0.005781098
123	0x3c59cc04	0.01329327
124	0xbcfee344	-0.031114228
125	0xbd12ce6c	-0.03584139
126	0xbd68bb9d	-0.056819547
127	0x3d84c853	0.06483521
128	0xbd118e52	-0.035536118
129	0xbd8856cc	-0.0665718
130	0xbd967323	-0.07346179
131	0xbd0c77ba	-0.034293868
132	0x3c93351c	0.01796966
133	0xbc0c04d4	-0.008546073
134	0x3d1be148	0.03805664
135	0x3cd3247a	0.02577423
136	0x3d452f7d	0.04814099
137	0xbc60cd9e	-0.013720898
138	0x39e10777	0.00042920906
139	0xbc25b451	-0.010113792
140	0x3d40bc18	0.04705438
141	0xbd1f4217	-0.038881388
142	0x3c32769c	0.0108925365
143	0xbdbce994	-0.09224239
144	0x3c9c75e0	0.019099176
145	0xbd1145cc	-0.035466954
146	0x3c8f7f87	0.017516864
147	0xbd27e33c	-0.040988192
148	0x3a94b7e0	0.0011346303
149	0x3bbd19ae	0.0057708835
150	0xba9706d4	-0.0011522421
151	0xbd40245d	-0.04690968
152	0x3d18707d	0.037216652
153	0xbce654ac	-0.028116547
154	0xbd439cff	-0.047757145
155	0x3ce3057a	0.027712572
156	0xbd782276	-0.06057974
157	0xbd21c459	-0.039493892
158	0x3d11cfbd	0.035598505
159	0x3ce2a108	0.027664676
160	0x3b11ca4b	0.002224582
161	0xbd1c6f3f	-0.03819203
162	0x3bef95b2	0.0073115462
163	0xbcae3dfe	-0.021269795
164	0xbc37fcc8	-0.011229701
165	0xbc411d76	-0.011786809
166	0x3cbd5eea	0.023116548
167	0xbd3c4654	-0.045965508
168	0xbd254769	-0.040351305
169	0x3cfbf824	0.030757971
170	0xbb1d844a	-0.002403515
171	0xbc33051a	-0.010926509
172	0x3d271397	0.040790167
173	0xbcaf132f	-0.021371452
174	0x3d18d897	0.03731593
175	0xbb76f7be	-0.0037684287
176	0xbc92c337	-0.017915351
177	0xbc62b4fc	-0.013837095
178	0xbc1f12fa	-0.009709114
179	0x3d4190c5	0.047257204
180	0x3bbfd036	0.005853678
181	0x3d1732ae	0.036913566
182	0xbc17f3eb	-0.009274463
183	0x3cb096f7	0.02155636
184	0x3b9f434e	0.0048603183
185	0xbcbb73e5	-0.022882411
186	0x3cf4428f	0.029816894
187	0x3cb05a6e	0.021527495
188	0x3cfc98e1	0.030834617
189	0xbd089bfe	-0.03335189
190	0xbd396601	-0.045263294
191	0x3b778ce5	0.0037773189
192	0xbcbc0da8	-0.02295573
193	0xbd0496d1	-0.032370392
194	0xbda3dae7	-0.08000737
195	0x3c9035b4	0.017603733
196	0xbc0388a4	-0.008028183
197	0x3c4b879f	0.012422471
198	0xbd24e93a	-0.040261485
199	0xba859218	-0.0010190634
200	0xbb3aa718	-0.0028480943
201	0xbd0c3e52	-0.03423912
202	0xbd66a2c4	-0.05630757
203	0x3ca5f0d7	0.020256443
204	0x3d9a4450	0.07532561
205	0x3bad4b23	0.005288498
206	0xbcb0ea64	-0.021596141
207	0x3cbd7c09	0.023130434
208	0x3b8e4644	0.0043418724
209	0x3b8d842a	0.0043187337
210	0xbb97183e	-0.004611044
211	0xbd1b89c0	-0.037973166
212	0x3beb34f9	0.0071779457
213	0x3ce17b9d	0.027524764
214	0x3d792eb5	0.06083556
215	0x3c8b145e	0.016977485
216	0xbd3dec0e	-0.046367697
217	0x3ba0c654	0.004906455
218	0x3d380296	0.04492434
219	0x3c8b6942	0.017017964
220	0xbd86f8bb	-0.0659041
221	0xbd1f9c59	-0.038967464
222	0x3c861b8d	0.01637056
223	0x3b78bb74	0.0037953528
224	0x3cb96f87	0.022636188
225	0xbc2c7e53	-0.010528165
226	0x3c5d5ba2	0.0135106165
227	0xbbed26ef	-0.0072373073
228	0xbd05812d	-0.032593895
229	0xbd5b987d	-0.05361222
230	0xbbb1038e	-0.005402035
231	0xbd4a19a4	-0.04934086
232	0x3cda594c	0.026653908
233	0xbe0bf647	-0.13668166
234	0xbd804901	-0.062639244
235	0xbd92d1e2	-0.07168938
236	0xbd1a7ccf	-0.037716683
237	0xbcfe2118	-0.03102164
238	0xbd9f0bd0	-0.07765925
239	0xbcb55dec	-0.022139512
240	0x3c88270d	0.016620183
241	0x3aebfc23	0.001800422
242	0xbc8b3762	-0.016994182
243	0xbd402e19	-0.046918962
244	0xbc87fb61	-0.016599359
245	0xbae4eb18	-0.0017465083
246	0x3bb67e4e	0.005569256
247	0x3d8ac986	0.06776719
248	0x3d344ec0	0.044020414
249	0x3cf2eef8	0.029654965
250	0x3cab61e8	0.020920709
251	0x3d329663	0.04360045
252	0xbc5d5fa3	-0.013511571
253	0xbca48181	-0.020081284
254	0xbd281e92	-0.04104478
255	0x380d140c	3.363569e-05

head.3.bias f4 [256]
0	0x3c937bfb	0.018003454
1	0x3cd6621e	0.026169833
2	0xbc6389ca	-0.013887832
3	0xbcce3e57	-0.02517621
4	0xbd3f796a	-0.04674665
5	0x3bc4d1f0	0.006006472
6	0xbc88244f	-0.016618876
7	0xbba7e879	-0.0051241484
8	0xbcdb9c1b	-0.026807835
9	0xbd026956	-0.031838737
10	0xbb840f00	-0.0040301085
11	0x3c207d03	0.00979543
12	0xbccd6d25	-0.025076458
13	0x3cbafb22	0.022824828
14	0xbe44205d	-0.1915297
15	0xbd2a947b	-0.04164551
16	0xbce617bf	-0.028087495
17	0x3bc6f857	0.006072085
18	0xbdd08d33	-0.101831816
19	0xbd0472ef	-0.03233617
20	0xbd05bbf9	-0.032649968
21	0x3c61d475	0.013783564
22	0x3c4391a6	0.011936581
23	0xbc9df9de	-0.019284185
24	0x3bb77436	0.00559857
25	0xbc5cebe8	-0.013483979
26	0xbd3529e4	-0.044229403
27	0xbd1fbdaf	-0.038999256
28	0xbc826cf5	-0.015921095
29	0xb7715d18	-1.43863945e-05
30	0x3c3fb572	0.011700975
31	0x3c7bcc70	0.015368566
32	0x3cc059d7	0.023480339
33	0x3b8cb80f	0.0042944024
34	0x3acbde7e	0.0015553979
35	0x3c05cd48	0.008166619
36	0xbc18ac97	-0.009318492
37	0xbe0a5e40	-0.13512516
38	0xbc5c94a6	-0.013463175
39	0x3c94bfba	0.018157829
40	0xbc7b6bf8	-0.015345566
41	0x3cc50a50	0.024052769
42	0xbe116789	-0.14199652
43	0xbe1379a0	-0.14401865
44	0xbd699b06	-0.057032607
45	0xbb3cd205	-0.0028811705
46	0xbc35a720	-0.011087209
47	0xbcbc6029	-0.022995071
48	0xbd576352	-0.052584954
49	0xbd02bd9a	-0.0319191
50	0xbc4af3aa	-0.012387196
51	0xbd0e839c	-0.03479348
52	0xbd1691a0	-0.036759973
53	0xbd2761d3	-0.040864777
54	0x3cd695b0	0.026194423
55	0x3c7ebb7d	0.01554763
56	0xbd0989f5	-0.03357883
57	0xbd3313f3	-0.043720197
58	0xbd24aef6	-0.04020592
59	0xbd200434	-0.03906651
60	0xbd0a7acd	-0.03380852
61	0x3b512d40	0.003191784
62	0x3c2b081b	0.010438944
63	0x3c9febca	0.019521613
64	0xbd536e1a	-0.051618673
65	0x3ce062eb	0.027390918
66	0x3c547536	0.012967398
67	0xbd627caf	-0.05529469
68	0x3cbfc7b8	0.023410663
69	0x3cad966a	0.021189887
70	0xbd37ba9f	-0.04485571
71	0x3c170e7f	0.009219765
72	0x3c7cfe05	0.015441422
73	0xbcbfde94	-0.023421563
74	0xbcb6ad68	-0.022299483
75	0xbd688a94	-0.056772783
76	0xbcb935e7	-0.02260871
77	0x3cc68ba9	0.024236517
78	0xba06a0d7	-0.00051356613
79	0xbd0703c2	-0.032962568
80	0x3c0bf9fd	0.008543489
81	0xbc818404	-0.01581002
82	0xbcd9cfc9	-0.026588337
83	0xbd04cee6	-0.032423876
84	0x3c823819	0.01589589
85	0x3c172bf3	0.009226787
86	0xbd474174	-0.048646405
87	0xbd223239	-0.039598677
88	0x3cbdf5dd	0.023188526
89	0x3cdc50b5	0.026893953
90	0xbd216edf	-0.039412376
91	0x3ca76aad	0.02043661
92	0xbc4b2b1a	-0.012400413
93	0xbd51aae5	-0.05118837
94	0x3b9f27cc	0.004857039
95	0xbcf20c51	-0.029546889
96	0xbd85d0bc	-0.065339535
97	0xbbc2ea2e	-0.0059483266
98	0xbc68faf7	-0.014219991
99	0xbd0a025c	-0.033693656
100	0xbcdf7562	-0.027277652
101	0x3c63749c	0.013882782
102	0xbd326020	-0.043548703
103	0xbc077aa5	-0.008268987
104	0x3b879298	0.0041373484
105	0x3b71be76	0.0036887205
106	0x3b802f6c	0.003911903
107	0xbd5aea78	-0.053446263
108	0x3c7989cb	0.015230606
109	0xbd9bb8cd	-0.07603607
110	0xbdcf18cc	-0.101121515
111	0xbcb6c5d2	-0.022311125
112	0x3c5f863d	0.013642845
113	0x3bd5086f	0.0065012495
114	0xbd444022	-0.047912724
115	0x3c8b6eb9	0.01702057
116	0xbd751787	-0.05983689
117	0xbb1bd0f6	-0.0023775673
118	0xbd44bad1	-0.048029725
119	0xbcf86a6b	-0.030324182
120	0x3d0bc03f	0.034118887
121	0x3ce5e99a	0.028065491
122	0xbd1456bf	-0.03621554
123	0x3d05bcd0	0.03265077
124	0x3cb6dfb0	0.02232346
125	0xbd114752	-0.035468407
126	0x3c5eaf09	0.013591536
127	0xbcf10ef0	-0.029426068
128	0xbc52f95f	-0.0128768375
129	0xbcdc20ce	-0.026871111
130	0x3c9176ce	0.017756846
131	0x3b3def20	0.002898164
132	0x3cd59ed3	0.02607671
133	0x3d051402	0.032489784
134	0xbc0aac18	-0.008463882
135	0xbc1c8bb9	-0.009554797
136	0x3d068f75	0.032851655
137	0xbc2c8050	-0.010528639
138	0xbc61aaad	-0.013773602
139	0xbd1f5e20	-0.038908124
140	0xbd11597c	-0.03548573
141	0xbd159206	-0.036516212
142	0x3bad0529	0.005280156
143	0x3cb78071	0.022400113
144	0xbc8edc18	-0.017438933
145	0xbc9e18fb	-0.019299021
146	0x3c036711	0.008020178
147	0xbd25d2c6	-0.040484212
148	0xbd386071	-0.04501385
149	0x3c9336ed	0.017970527
150	0x3cf1326a	0.029442985
151	0xbd3fff02	-0.046874054
152	0x3cc40f70	0.023933142
153	0x3a12fc6c	0.0005607072
154	0xbd06e38d	-0.032931853
155	0xbdee3061	-0.11630321
156	0xbd4c62fd	-0.04989909
157	0xbc93e3b2	-0.01805291
158	0xbce3348b	-0.027735015
159	0xbc0b667d	-0.008508322
160	0x3c80b60f	0.015711812
161	0xbd49fe37	-0.049314704
162	0xbcf354eb	-0.029703578
163	0xbd10c8e0	-0.03534782
164	0xbc66dc87	-0.014090664
165	0x3bebe385	0.0071987533
166	0xbb2d1998	-0.002641296
167	0xbaa2f9a7	-0.0012434021
168	0xbca333bc	-0.01992213
169	0x3c8e6858	0.01738374
170	0x3d035c8c	0.03207068
171	0xbc038003	-0.008026126
172	0xbd0519d3	-0.03249533
173	0xbd4c62e5	-0.049899
174	0x3beea3a3	0.0072826906
175	0xbb646485	-0.0034849953
176	0xbb44630b	-0.002996626
177	0xbd564e86	-0.05232098
178	0xbc697e6b	-0.014251332
179	0xbd0bfef5	-0.034178693
180	0xbca8d0ed	-0.020607436
181	0x3bca2ae8	0.0061696656
182	0xbc58259f	-0.013192563
183	0xbcf22a1b	-0.029561093
184	0x3c81f6ac	0.015864693
185	0xbd5a120b	-0.053239863
186	0x3c64b42d	0.013958973
187	0xbcfab16e	-0.030602183
188	0x3b6ee4ae	0.0036452222
189	0xbb903de1	-0.004401908
190	0x3d03d32c	0.03218381
191	0x3b16613e	0.0022946144
192	0xbd300d8a	-0.04298166
193	0xbd0fc80f	-0.0351029
194	0x3bd702ac	0.006561598
195	0x3bf82c88	0.007573668
196	0xbcdc12a8	-0.026864365
197	0xbc75289e	-0.014963297
198	0xbd341348	-0.0439637
199	0x3cbbdce0	0.02293247
200	0xbb5bb944	-0.0033527175
201	0x3c83cbf8	0.01608847
202	0xbcb8a304	-0.02253867
203	0x3c351085	0.011051302
204	0xbd64a749	-0.055823598
205	0x3d01edb2	0.031720825
206	0xbd09a3f6	-0.03360363
207	0x3c194cc1	0.009356678
208	0xbd1707ff	-0.03687286
209	0xbcbb34b9	-0.022852289
210	0xbd31e298	-0.043428987
211	0xbc8b79da	-0.017025877
212	0x3ae85433	0.0017725289
213	0xbd27e1ce	-0.04098683
214	0xbc8db39b	-0.017297557
215	0x3ba943cb	0.0051655523
216	0xbc9b2943	-0.018940574
217	0x3ca81af6	0.020520668
218	0xbc07a6b7	-0.008279494
219	0xbd484592	-0.048894472
220	0xbd261b31	-0.040553275
221	0xbc26a6a6	-0.010171568
222	0xbb63af83	-0.0034742064
223	0x3d237b02	0.03991223
224	0x3c23ba94	0.009993214
225	0xbcede18c	-0.029038213
226	0xbd39fc2c	-0.045406505
227	0xbcfeeacd	-0.031117821
228	0xbc3dcd30	-0.011584565
229	0xbd1dc1fa	-0.03851507
230	0x3c59aa0b	0.01328517
231	0x3b885cce	0.004161454
232	0xbd09b906	-0.033623718
233	0xbc1b22dd	-0.009468761
234	0xbd1e92bd	-0.03871416
235	0x3cd93a40	0.026517034
236	0xbcff71fe	-0.031182285
237	0x3c7da7a9	0.015481868
238	0xbbec70bc	-0.0072155874
239	0xbbc02bf8	-0.0058646165
240	0x3bb902d6	0.00564609
241	0x3d38c495	0.04510935
242	0xbdc7059c	-0.09717867
243	0xbbcba266	-0.0062144278
244	0xbadca156	-0.001683275
245	0xbd02f0d9	-0.03196797
246	0xbc15eac4	-0.009150211
247	0xbc0db94c	-0.008650135
248	0xbe359c14	-0.1773532
249	0x3cd70a9a	0.026250172
250	0xbd150c55	-0.036388714
251	0x3b72bad5	0.003703763
252	0xbc8768ca	-0.01652946
253	0x3cb5e933	0.022205925
254	0x3be8b371	0.007101469
255	0x3cf2d727	0.029643608

head.6.weight f4 [128, 256]
0	0x3cfb77c7	0.030696763
1	0xbc76f48f	-0.015072956
2	0x3cb2e46b	0.021837434
3	0xbc6fb7a5	-0.014631187
4	0x3d33c283	0.043886673
5	0x3d5938ff	0.05303287
6	0xbd3628f3	-0.044472646
7	0x3d05959e	0.03261339
8	0xbd67f03e	-0.056625597
9	0xbd2a00eb	-0.04150478
10	0xbd5d168a	-0.053976573
11	0xbcd1992e	-0.025585737
12	0x3c66e16a	0.014091829
13	0x3d245658	0.040121406
14	0xbb2c5683	-0.0026296682
15	0xbd042ca6	-0.032269143
16	0xbd86da48	-0.065846026
17	0x3cecdf77	0.02891515
18	0x3ceb013a	0.028687108
19	0x3c5b256e	0.013375623
20	0xbcff5bb7	-0.031171663
21	0x3a8f82c9	0.0010949011
22	0xbc0dfff8	-0.008666985
23	0xbc0542a6	-0.008133566
24	0xbcd6739f	-0.02617818
25	0xbd1ebc79	-0.03875396
26	0x3b10556e	0.0022023576
27	0x3c68a0fd	0.014198539
28	0x3cec355f	0.028834043
29	0x3c6a630d	0.014305842
30	0xbce9c2c4	-0.028535254
31	0xbd8e47c7	-0.06947284
32	0x3d6534ff	0.055958744
33	0xbc6e0e71	-0.01452981
34	0xbc686598	-0.014184378
35	0xbd0e8687	-0.034796264
36	0x3d3c639c	0.045993432
37	0xbd24c038	-0.040222377
38	0x3bda6bf7	0.0066657024
39	0x3ae9e936	0.0017845992
40	0x3c35b558	0.011090599
41	0x3b7d4f42	0.0038651978
42	0xbbf39161	-0.007433102
43	0xbccca6f6	-0.024981957
44	0xbce0a48d	-0.027422214
45	0xbd33506e	-0.043777876
46	0x3ccb731a	0.024835158
47	0x3d16fef8	0.03686425
48	0x3ccf2a1c	0.025288634
49	0xbd3c2a74	-0.045938924
50	0xbd25da4e	-0.040491395
51	0x3cc95034	0.024574377
52	0x3c541cf4	0.012946356
53	0x3c95d902	0.018291954
54	0xbd0530c9	-0.03251723
55	0xbca964f7	-0.020678027
56	0x3d5efe71	0.054441873
57	0xbce1ed32	-0.027578924
58	0x3c4e5c39	0.01259523
59	0x3c5b9277	0.013401619
60	0xbc833642	-0.016017083
61	0xbb5e3639	-0.003390683
62	0xbd1ab24e	-0.0377677
63	0xbbd133c9	-0.006384347
64	0xbca34a5e	-0.019932922
65	0x3cde4055	0.027130285
66	0xbb9ba096	-0.004749368
67	0x3d58a32e	0.052889995
68	0x3d77dee9	0.060515318
69	0x3d06d3e5	0.032916922
70	0xba76ab3f	-0.0009409673
71	0xbce60b9d	-0.02808171
72	0xbccfcc6c	-0.02536603
73	0xbd014755	-0.03156217
74	0x3c940d98	0.018072888
75	0x3d0155cb	0.03157596
76	0x3d2c22af	0.042025264
77	0xbcd23aa2	-0.025662724
78	0xbd92f4d7	-0.07175606
79	0x3c922248	0.017838612
80	0x3d431db0	0.047635734
81	0x3c923daf	0.017851679
82	0xbd10efaf	-0.03538483
83	0xbbc99f0b	-0.0061529926
84	0xbc24fbae	-0.010069771
85	0x3c18df34	0.0093305595
86	0x3d2a5ecf	0.041594323
87	0x3d11b1b7	0.035569873
88	0x3c5cdace	0.0134799015
89	0xbb41de98	-0.002958214
90	0xbc288edf	-0.010287969
91	0x3cb995a3	0.02265436
92	0x3ca12a44	0.019673474
93	0x3d057e3f	0.0325911
94	0x3c0d05e9	0.008607366
95	0xbd11697f	-0.035501
96	0x3c8e7876	0.017391425
97	0xbcde92da	-0.027169634
98	0x3ba1e9e6	0.004941213
99	0xbc482e55	-0.012218078
100	0x3c8b608f	0.017013816
101	0x3cf7f26b	0.030266961
102	0xbcd00ad5	-0.02539579
103	0x3d2b3283	0.04179622
104	0x3d67b241	0.05656648
105	0x3cb5ba01	0.02218342
106	0xbd1a2010	-0.037628233
107	0xbc0ebde4	-0.008712266
108	0x3b335b2d	0.0027367577
109	0x3c98b785	0.018642196
110	0xbcaf9151	-0.021431597
111	0xbcbca08b	-0.023025772
112	0xbcde25d2	-0.027117644
113	0xbd0d0065	-0.034424204
114	0xbb76b391	-0.003764365
115	0x3c2c4792	0.010515111
116	0x3d626c80	0.055279255
117	0x3b844fa4	0.004037814
118	0x3d27ed36	0.040997706
119	0x3d3debcb	0.046367448
120	0xbbed1440	-0.00723508
121	0xbbd0f0c8	-0.0063763596
122	0xbc71f28d	-0.014767301
123	0xbc873622	-0.016505305
124	0x3c7c4caf	0.015399142
125	0xbcd6a8ba	-0.026203502
126	0xbd605913	-0.054772448
127	0x3c667fb7	0.0140685355
128	0x3c13823e	0.00900322
129	0xbd2b3702	-0.041800506
130	0xbc2d1fd5	-0.010566671
131	0xbd629c00	-0.055324554
132	0x3caf439b	0.021394541
133	0xbd002d65	-0.03129329
134	0xbb75ea4f	-0.0037523692
135	0x3cb14155	0.021637598
136	0x3c3a2999	0.011362457
137	0x3cb95691	0.022624286
138	0xbd82583d	-0.06364486
139	0xbd27b05a	-0.040939666
140	0x3cc37fe3	0.023864692
141	0xbb55582a	-0.003255377
142	0xbd8627f3	-0.065505885
143	0x3c10a3df	0.008828132
144	0xbce1cd78	-0.027563795
145	0x3c5100ed	0.012756568
146	0x3c6b9ff0	0.014381394
147	0x3c0d85d4	0.008637864
148	0x3d5848b3	0.052803706
149	0x3ccd4df4	0.025061585
150	0xbd77c5c9	-0.060491357
151	0x3c148f47	0.009067363
152	0x3d0045b9	0.031316493
153	0x3b4af494	0.0030968534
154	0xbbd2db02	-0.006434799
155	0xbc8eee39	-0.017447578
156	0xbd32f52b	-0.04369084
157	0xbcea928d	-0.028634334
158	0x3c8a058b	0.016848346
159	0xbc56bfba	-0.013107235
160	0x3c75c0ac	0.01499955
161	0xbbb0420a	-0.005378966
162	0x3d215735	0.039389808
163	0x3ca90e19	0.020636605
164	0xbcdf18e9	-0.027233558
165	0x3d85acb0	0.06527078
166	0x3c57536b	0.013142447
167	0x3cc3b73d	0.023891086
168	0xbb6bc376	-0.0035974658
169	0xbce4b03a	-0.027916063
170	0xbd93c2c9	-0.07214887
171	0xbd21aa38	-0.039468974
172	0x3c70fb18	0.014708303
173	0x3d87ac7f	0.06624698
174	0xbd37eddb	-0.04490457
175	0xbd455b74	-0.04818292
176	0x3d553b74	0.052058652
177	0xbce7c825	-0.028293679
178	0x3c3432e4	0.010998461
179	0xbc575952	-0.013143854
180	0x3d1a6341	0.037692312
181	0x3cb535ea	0.022120435
182	0xbcc207ff	-0.023685453
183	0x3d141776	0.036155187
184	0xbd1a6756	-0.037696205
185	0xbb4c1f11	-0.0031146447
186	0xbd01ff0a	-0.031737365
187	0xbc988d33	-0.018622017
188	0xbcf8cd4e	-0.030371334
189	0x3c06e4f8	0.008233301
190	0x3d3ed918	0.046593755
191	0xbc354ea7	-0.011066115
192	0x3c1c1be8	0.009528138
193	0xbc9c5248	-0.019082204
194	0xbd8f80d9	-0.070069976
195	0x3cc39f4b	0.023879668
196	0xbcd883cf	-0.026430039
197	0x3ca6e757	0.020373983
198	0xbbc896be	-0.0061214855
199	0xbd400014	-0.046875075
200	0xbd5a59ae	-0.05330818
201	0xbd298e43	-0.041395437
202	0x3ca67ab2	0.020322178
203	0x3d25a9e6	0.04044523
204	0x3d1d6d38	0.038434237
205	0xbd8d8cc6	-0.06911616
206	0x3cb0cc54	0.021581806
207	0xbc2fc8db	-0.01072904
208	0xbb23174e	-0.0024885717
209	0xbb81b29f	-0.003958061
210	0xbc9a6867	-0.018848611
211	0x3cb31f43	0.021865493
212	0x3ab8351b	0.0014053913
213	0x3d206c06	0.03916552
214	0xbb9efcb6	-0.004851903
215	0x3c8a0a19	0.016850518
216	0x3c819065	0.015815923
217	0xbba16794	-0.0049256776
218	0x3cac025e	0.020997223
219	0x3bd6d941	0.0065566604
220	0xbc89f7d7	-0.016841812
221	0x3d049a5f	0.032373782
222	0xbd552b78	-0.05204341
223	0x3cb32600	0.021868706
224	0x3bea99b9	0.0071594384
225	0xbd52bfa1	-0.051452283
226	0x3d075a44	0.03304507
227	0xbcabcc6f	-0.020971505
228	0xbaceab90	-0.0015767682
229	0xbd12f4f0	-0.03587812
230	0x3c4fbcc5	0.0126792835
231	0xbd373fcb	-0.044738572
232	0xbb2719c5	-0.0025497538
233	0xbd1f78f6	-0.038933717
234	0xbc5652a9	-0.013081231
235	0xbca58eab	-0.020209631
236	0xbcc40df7	-0.02393244
237	0x3d90d1bd	0.070712544
238	0xbd2ade42	-0.041715868
239	0xbd888444	-0.06665853
240	0x3c86f38e	0.016473558
241	0x3d1bf938	0.03807947
242	0x3b74044b	0.0037234004
243	0xbce6af19	-0.028159665
244	0x3d59a097	0.053131666
245	0x3d2903ad	0.04126327
246	0x3d187977	0.037225213
247	0x3d5805e2	0.052739985
248	0xbcee20c7	-0.029068364
249	0x3cb04aa0	0.021519959
250	0xbcf6dec0	-0.030135512
251	0xbccc3953	-0.024929678
252	0xbcc6b178	-0.024254546
253	0xbc82a5b9	-0.015948163
254	0x3d1a0577	0.037602868
255	0x3c676a07	0.0141244

head.6.bias f4 [128]
0	0xbde44c76	-0.11147396
1	0xbc9d7b4b	-0.01922383
2	0x3d0a0546	0.033696435
3	0x3d1bac91	0.03800637
4	0xbc3f20b1	-0.011665509
5	0x3d332764	0.043738738
6	0xbe3cc840	-0.18435764
7	0x3dbd9128	0.09256202
8	0xbe62cdde	-0.22148845
9	0xbdf4e6ff	-0.119581215
10	0xbdd94363	-0.10608556
11	0x3da301a6	0.07959299
12	0x3d455348	0.048175126
13	0xbdd4f294	-0.103978306
14	0xbd1efb82	-0.038814075
15	0xbd7bd499	-0.061482046
16	0xbd57255a	-0.052525856
17	0xbda3d482	-0.07999517
18	0xbd4331ff	-0.047655102
19	0x3d5305b5	0.051519115
20	0xbd7ae08c	-0.0612493
21	0x3d5e106d	0.054214884
22	0xbd594d91	-0.05305249
23	0xbdfab032	-0.12240638
24	0x3cc6d33c	0.024270646
25	0x3d549313	0.051898073
26	0xbd74f0ff	-0.059800144
27	0xbd3ff80a	-0.046867408
28	0xbd8a35a3	-0.06748512
29	0xbdc46b17	-0.09590738
30	0xbdf42d06	-0.1192265
31	0xbda4ebeb	-0.0805281
32	0xbdf4eaa2	-0.11958815
33	0xbd033d4e	-0.032040887
34	0x3db17e0b	0.08666619
35	0xbde51ae6	-0.11186771
36	0xbde09808	-0.10966498
37	0x3d8e9de0	0.06963706
38	0x3d5f0468	0.05444756
39	0xbdd99992	-0.10624994
40	0xbc8a2e74	-0.016867854
41	0x3da0ee35	0.078579344
42	0x3d7b3271	0.0613274
43	0x3d282b6a	0.041057028
44	0x3dab4cde	0.08364271
45	0xbec29d5f	-0.3801069
46	0x3cfb70eb	0.030693492
47	0xbd871880	-0.0659647
48	0x3d8f7ddd	0.070064284
49	0xbddecd10	-0.10878956
50	0xbdd000ee	-0.10156427
51	0xbc858606	-0.016299259
52	0xbe10cd5a	-0.14140835
53	0x3c4d9964	0.012548778
54	0xbd799140	-0.060929537
55	0xbe09f95f	-0.13474034
56	0x3da88ec3	0.08230355
57	0xbe08cbcc	-0.13358992
58	0x3d8c1214	0.06839386
59	0xbcc47c2e	-0.023984995
60	0x3b5aa2e4	0.003336125
61	0x3bf5dfe8	0.0075034983
62	0xbd1e172f	-0.03859633
63	0xbcf0047a	-0.02929901
64	0x3d834a58	0.06410664
65	0x3d81cb0f	0.063375585
66	0x3daa37bf	0.08311414
67	0xbdf02e38	-0.117275655
68	0x3baddd81	0.0053059463
69	0xbe07ab27	-0.13248883
70	0x3d8d9ffe	0.06915282
71	0xbd9f01cc	-0.077640146
72	0xbd0ef167	-0.034898188
73	0x3d4d9c41	0.050197843
74	0xbd89e35f	-0.06732821
75	0xbdb9f01d	-0.09079001
76	0x3d94b6f1	0.07261456
77	0xbdb839cf	-0.08995401
78	0xbe061ffa	-0.13098136
79	0xbdf5e4f5	-0.12006561
80	0xbdde6038	-0.10858196
81	0xbb07d07f	-0.0020723639
82	0xbd3f7b49	-0.046748433
83	0x3da8dcc6	0.08245234
84	0xbb357d39	-0.0027693047
85	0xbcb5eb29	-0.02220686
86	0xbe022e1f	-0.12712906
87	0xbc8e4f7b	-0.017371884
88	0xbdc745a7	-0.09730082
89	0xbba11b99	-0.00491662
90	0xbd068e0f	-0.03285032
91	0x3c8fd7db	0.017558983
92	0xbda4127c	-0.08011338
93	0xbde03c86	-0.10949044
94	0xbdf51166	-0.11966209
95	0x3dbdc408	0.092659056
96	0xbadb5d49	-0.0016736175
97	0xbbf4e2d5	-0.0074733295
98	0x3db47622	0.088115945
99	0xbd6144e7	-0.05499735
100	0x3da64b58	0.081198394
101	0xbdaf9793	-0.08573832
102	0x3daa01d8	0.08301133
103	0x3d58ad4b	0.05289964
104	0xbcffc50d	-0.03122189
105	0xbe049ae7	-0.12949716
106	0xbdb1e67b	-0.08686539
107	0xbce2bf4c	-0.027679108
108	0x3dbc03ae	0.09180389
109	0xbd81043d	-0.062996365
110	0x3da87261	0.08224941
111	0xbd625cd9	-0.055264328
112	0x3d8e1002	0.06936647
113	0xbd4690dd	-0.048477996
114	0xbd0442cb	-0.03229026
115	0x3c783443	0.015149179
116	0xbb3a5176	-0.0028429902
117	0xbce79aab	-0.028271994
118	0xbdf91743	-0.1216264
119	0x3cae8c7d	0.021307224
120	0xbd98bb3d	-0.07457588
121	0x3d0a014c	0.033692643
122	0x3b2f700c	0.0026769666
123	0x3d74cd9d	0.0597664
124	0x3c8fbcf9	0.017546164
125	0x3d20a611	0.039220873
126	0x3cdbcfb7	0.026832445
127	0xbde8ecb7	-0.11373275

head.9.weight f4 [7, 128]
0	0xbc43db90	-0.011954203
1	0x3b005315	0.001958077
2	0x3c075bfe	0.008261679
3	0x3c089328	0.008335866
4	0x3b1dca9e	0.0024077068
5	0x3c1e2a95	0.009653707
6	0xbc193942	-0.00935203
7	0x3c20d40d	0.009816182
8	0xbbc77c3f	-0.0060878093
9	0xbc37855e	-0.011201231
10	0xbc15514a	-0.009113619
11	0x3a577dab	0.0008220325
12	0xb931be4f	-0.00016950931
13	0xbc0e6062	-0.008689972
14	0xbc17a344	-0.009255234
15	0xbc2310db	-0.009952749
16	0xbc291bd4	-0.010321576
17	0xbc19c775	-0.009385933
18	0xbc581aaa	-0.013189951
19	0x3c1a9280	0.009434342
20	0xbc186150	-0.009300545
21	0x3be6c9bd	0.007043092
22	0xbbf6b713	-0.0075291484
23	0xbc3a2585	-0.011361484
24	0x3a2bcdec	0.0006553817
25	0x3bf56aeb	0.0074895523
26	0xbc225194	-0.009907145
27	0xbc222453	-0.009896356
28	0x3992d75c	0.00028007745
29	0xbc2f33a1	-0.010693462
30	0xbc0f158d	-0.008733165
31	0xbc1057a2	-0.008809956
32	0xbc4ab213	-0.012371558
33	0x3bfdb68c	0.0077427085
34	0x3c18edbc	0.009334024
35	0xbc14830f	-0.00906445
36	0xbc3f22c0	-0.011666
37	0x3c0868e3	0.008325788
38	0x3bb2d6bc	0.0054577272
39	0x3c2cd0cf	0.010547831
40	0x3c33ce21	0.010974438
41	0xba7c6f47	-0.0009629619
42	0x39043006	0.00012606391
43	0xb9899190	-0.0002623913
44	0x3c1faecc	0.009746265
45	0xbb8a8981	-0.0042278175
46	0xbb3ba901	-0.002863467
47	0xbc2619c8	-0.010137983
48	0x3bf10c26	0.0073561845
49	0xbc1460c8	-0.009056278
50	0xbb0c36dc	-0.0021395003
51	0x3a8d1aa7	0.0010765389
52	0xbc0d030c	-0.008606683
53	0xbb43c021	-0.0029869156
54	0xb8ac8983	-8.227213e-05
55	0xbbe5968f	-0.0070064734
56	0x3c02a9f1	0.0079750875
57	0xbb9ca87a	-0.004780826
58	0xbaf53e0e	-0.001871051
59	0x3c09af26	0.008403575
60	0x3c1a7a69	0.009428599
61	0xba44d9fa	-0.00075092877
62	0xbc09132d	-0.008366388
63	0xbc309d8e	-0.010779751
64	0x3c139f12	0.009010093
65	0x3c1adb7c	0.009451743
66	0x3c0c1ff4	0.00855254
67	0xbc2c08e2	-0.010500165
68	0x3bd74f47	0.00657073
69	0xbbcd01e2	-0.006256328
70	0x3c3325b4	0.010934282
71	0xbc05b4a8	-0.008160748
72	0x3b6be9fd	0.0035997622
73	0x3bfc3dec	0.0076978114
74	0xba1d614f	-0.0006003575
75	0xbc40b554	-0.011761982
76	0x3c0aca32	0.008471059
77	0xbc17c371	-0.009262905
78	0xbbb186fe	-0.0054177037
79	0xbc18cfa0	-0.009326845
80	0xbc1dfcaf	-0.009642764
81	0x3b894f2f	0.0041903476
82	0xbc3c6a1d	-0.011499909
83	0x3c0c3a53	0.008558827
84	0x3c1353bf	0.008992135
85	0xbc2e3ec3	-0.010635081
86	0xbc105a2e	-0.008810563
87	0x3bcdcb31	0.006280326
88	0xba83fdcd	-0.0010070145
89	0x3c213696	0.009839674
90	0xbac1a95b	-0.0014775203
91	0x3c21c92b	0.009874622
92	0xbc16246e	-0.009163959
93	0xbc39c9b0	-0.01133959
94	0xbc4af7ed	-0.012388212
95	0x3c0420ea	0.008064488
96	0x3b93243e	0.0044904044
97	0x3bfbf970	0.0076896474
98	0x3c083964	0.008314464
99	0xbc35a210	-0.011086002
100	0x3c164b0b	0.009173165
101	0xbc28e55b	-0.010308589
102	0x3c394f3c	0.011310395
103	0xba318164	-0.0006771295
104	0xb9f81993	-0.000473213
105	0xbbfc893d	-0.0077067898
106	0xbc2a6940	-0.01040107
107	0xba66802b	-0.0008792902
108	0x3c0c23de	0.008553473
109	0xbc35ede1	-0.011104078
110	0x3c2806b8	0.010255508
111	0xbc37b589	-0.011212715
112	0x3c2bdf92	0.010490315
113	0xbc10131e	-0.00879362
114	0xbc378a9d	-0.011202482
115	0x3bdd477d	0.006752907
116	0x3c0a7a03	0.008451941
117	0x3ad5e9f8	0.0016320338
118	0xbbd7995a	-0.00657956
119	0xbab6833f	-0.0013924612
120	0xbc091754	-0.008367378
121	0x3c0596bc	0.008153614
122	0x3bea6872	0.007153564
123	0x3bd7a9a7	0.0065815034
124	0xba161f07	-0.00057266693
125	0x3c103901	0.008802653
126	0x3c18f520	0.009335786
127	0xbc36675f	-0.011133044
128	0xbc0f0600	-0.008729458
129	0x3dafc8ce	0.08583222
130	0xbc174615	-0.009233017
131	0xbc9c0232	-0.019044016
132	0xbdac8532	-0.084238425
133	0x3cd21970	0.025646895
134	0x3c4e65ba	0.012597496
135	0x3c0ef681	0.008725763
136	0x3be7c8ce	0.0070734983
137	0xbb6c168b	-0.003602418
138	0x3b9b627a	0.004741964
139	0xbe1353ec	-0.14387482
140	0xbe709426	-0.23494014
141	0x3caf1212	0.021370921
142	0x3c5adf04	0.013358835
143	0xbba97712	-0.005171665
144	0x3b80e18c	0.0039331373
145	0x3bf3c27b	0.0074389554
146	0xbc2ace61	-0.010425181
147	0x3c6e4681	0.014543177
148	0xb9e69f15	-0.00043987544
149	0x3cf2bad1	0.029630097
150	0x3b461806	0.0030226721
151	0xbc2612cf	-0.01013632
152	0x3db9dacc	0.09074935
153	0x3c8468b2	0.016163204
154	0x3bfdb11c	0.0077420603
155	0x3bf1af6a	0.0073756473
156	0x3d58a584	0.052892223
157	0x3c0589ab	0.008150498
158	0xbc0f6ba7	-0.008753694
159	0xbb26d37e	-0.002545565
160	0x3bbb2874	0.0057116095
161	0x3d8536f5	0.06504623
162	0x3d2446c4	0.04010655
163	0x3b814c24	0.0039458442
164	0xbc17653a	-0.009240443
165	0xbb161a37	-0.002290381
166	0x3d9763ea	0.07392104
167	0xbb5eac2e	-0.0033977139
168	0xbaaab41a	-0.0013023645
169	0x3d49c813	0.04926307
170	0x3ec0bcbc	0.37643993
171	0xbd182519	-0.037144754
172	0x3be05b27	0.0068468037
173	0xbbad99c9	-0.0052978736
174	0xbe017c51	-0.12645079
175	0xbca0170a	-0.019542236
176	0x3db27b8e	0.087149724
177	0xbb26e9d6	-0.0025468967
178	0xbda0b925	-0.078478135
179	0xbd0790b5	-0.033096988
180	0x3c3129e6	0.010813212
181	0xbdb93a84	-0.09044364
182	0xba0e7288	-0.00054339366
183	0x3d009400	0.031391144
184	0x3c0b7b3d	0.008513269
185	0xbab105f2	-0.00135058
186	0xbeb72595	-0.3577086
187	0xbba2aeaf	-0.0049646716
188	0x3a7677da	0.00094020145
189	0xbd86aa55	-0.06575457
190	0x3c88d070	0.016700953
191	0xbbf46c6b	-0.0074592135
192	0x3cfa3eb7	0.030547483
193	0x3d1f6520	0.0389148
194	0x3a66a2a2	0.0008798038
195	0xbb57856e	-0.0032885927
196	0x3c64a74e	0.013955904
197	0xbc01d6a9	-0.007924714
198	0x3c906706	0.01762725
199	0x3ab05ccf	0.0013455393
200	0x3de22663	0.11042478
201	0x3d06bc32	0.03289432
202	0xbcbc4429	-0.02298172
203	0x3cb1fb1b	0.021726182
204	0xbb0ad108	-0.0021181721
205	0xbcb10240	-0.021607518
206	0x3bcd7dad	0.0062710852
207	0x3ba95831	0.005167984
208	0x3bfe1ed1	0.0077551384
209	0x3ccfa1cf	0.025345711
210	0x3a61a97e	0.0008608325
211	0xbb8809f1	-0.0041515757
212	0xbc45dd4c	-0.012076687
213	0xbd1bbbc6	-0.03802087
214	0xbc0263d5	-0.007958372
215	0x3cdc9898	0.026928231
216	0x3d75fdc3	0.06005646
217	0x3afb68e9	0.0019181046
218	0x3c124845	0.008928363
219	0xbb8b4eb8	-0.0042513274
220	0x3a2f7682	0.0006693379
221	0x3b1c7170	0.0023871325
222	0xbc7a05f2	-0.015260207
223	0x39a927d2	0.0003226386
224	0x3e37b81a	0.17941323
225	0xbc8bb525	-0.01705415
226	0x3b2c394c	0.0026279269
227	0xbac98167	-0.0015373648
228	0x3cc2e5ba	0.023791183
229	0xbb1e5590	-0.0024159886
230	0x3c6406e5	0.013917659
231	0xbdee966e	-0.11649786
232	0xbc28cf5f	-0.010303347
233	0x3b53e628	0.0032333229
234	0x3bfb5d7c	0.0076710563
235	0x3da1d06f	0.07901084
236	0x3db16eb3	0.08663692
237	0x3ba92ab4	0.0051625613
238	0xbc823cc9	-0.015898125
239	0x3c9f5ce5	0.019453475
240	0x3c95127f	0.018197296
241	0x3c6d6f23	0.014491829
242	0x3b1a99b5	0.0023590152
243	0x3d645028	0.055740505
244	0x3c9c59e8	0.01908584
245	0x3ddedb07	0.1088162
246	0x3cc19ab8	0.023633346
247	0xbdf3937a	-0.11893363
248	0x3cd935ce	0.026514914
249	0xbb7694d0	-0.003762532
250	0x3cbfcb04	0.023412235
251	0x3cae8a23	0.021306103
252	0x3e9b33eb	0.30313048
253	0x3c9212ca	0.017831225
254	0xbc13753d	-0.00900012
255	0x3a69adbc	0.0008914133

head.9.bias f4 [7]
0	0x3e85f543	0.26163682
1	0xbe2c7d46	-0.16844663
2	0xbdbd2b8c	-0.092368215
3	0xbf2592e7	-0.6467728
4	0xbdc0964a	-0.09403665
5	0x3f3ad8a5	0.72986823
6	0xbf32a5b7	-0.6978411
