script/tabpfn_sabr_step9_causal_final.pth (torch, 685071 bytes, 8 tensors)

head.0.weight f4 [512, 9]
000000 d7 dc 3b 3e 48 d0 d1 3d d1 d5 ae bd 05 67 51 3c
       0.18345962 0.102448046 -0.08536876 0.012780909
000010 f6 55 58 bd c5 41 10 3e 36 02 aa 3e ed 43 1c 3e
       -0.052816354 0.14087589 0.33204812 0.15260287
000020 19 4b 1a 3e 9c d8 82 be 83 f8 83 be e9 c6 81 3e
       0.1506771 -0.25555885 -0.25775537 0.2534707
000030 dc 2c 4d 3e 2c 6d cb 3d 07 a7 9a bd 91 31 7a 3d
       0.20036644 0.09932932 -0.07551389 0.061082426
000040 79 51 a6 3e 3e 30 ae bd e6 86 96 3e a2 1b 46 3e
       0.32484034 -0.08505295 0.29399794 0.19346479
000050 c7 1d 45 3e c9 4f 99 be ad 83 67 be 9e 51 9a 3e
       0.1924964 -0.29943684 -0.22608824 0.30140394
000060 35 c4 53 bc 3f 19 de 3d bb 89 22 be c4 0e 66 3e
       -0.012925197 0.10844659 -0.15872853 0.2246657
000070 14 5d 20 be af ea 7c 3e f1 1f 98 be f5 12 4a bd
       -0.15660506 0.246989 -0.2971187 -0.049334485
000080 b3 be 41 be d4 ad 4c 3c a6 bc 94 3d f5 b7 06 3e
       -0.18920402 0.012492616 0.07262544 0.13156112
000090 4b 24 f2 bc c5 4a 69 3e 03 30 13 3e 85 1d 78 be
       -0.029558321 0.22782429 0.14373784 -0.24230011
0000a0 f4 03 92 3e a3 e4 85 3e 93 60 9b be 41 4e 73 3e
       0.2851864 0.26150998 -0.30347118 0.2376032
0000b0 3e 91 b1 3e 4d 47 16 be 5a 41 91 3d 38 a5 dd 3d
       0.34681123 -0.14675637 0.07092543 0.108225286
0000c0 62 a0 1b be 6b 83 63 3e 78 9c 18 3e d3 99 63 3e
       -0.151979 0.222181 0.14903438 0.22226648
0000d0 da b0 a7 3e 09 de 44 be af 65 83 bd 41 57 0e be
       0.32752115 -0.19225325 -0.06415879 -0.13900472
0000e0 80 40 c8 3d 73 d3 29 bc a7 5f a7 bd db eb b7 bd
       0.097779274 -0.010365355 -0.08172541 -0.08980533
0000f0 7a 77 d1 bd e0 bc 4e 3e 1c 68 2d 3e c6 c6 43 bd
       -0.102278665 0.20189238 0.16934246 -0.047796987
000100 e3 3f b8 3d d8 38 79 be 47 69 98 3e 5c 51 42 be
       0.089965604 -0.2433809 0.2976782 -0.18976349
000110 b2 25 b2 bd 36 c7 d7 bc d6 89 9a 3e aa 25 90 be
       -0.08698596 -0.026340108 0.30183285 -0.28153735
000120 70 77 12 bc ba cc e0 bc de 01 5d be c3 21 69 bd
       -0.008939609 -0.027441371 -0.21582744 -0.056916963
000130 3e ce 14 3e 3d 4b 72 3e 58 f6 89 be 62 44 73 be
       0.145318 0.23661514 -0.26945758 -0.23756555
000140 50 82 a1 3e e5 c2 bb 3c 6e 90 09 be d1 04 27 3d
       0.31544733 0.022920081 -0.13434002 0.040776078
000150 f9 fc 3d 3e b7 4e 92 be 8d b4 18 3e 98 da 33 3e
       0.18553533 -0.2857568 0.14912625 0.17563856
000160 82 0b 80 be d0 17 49 3e 57 6d 2f be d0 fa 90 3e
       -0.2500878 0.1963799 -0.17131554 0.28316355
000170 50 56 28 3e 05 c3 ba 3c 12 6f 81 3e de 61 24 be
       0.16439176 0.02279807 0.25280052 -0.16052958
000180 e9 63 9e 3e ff b6 31 bd 95 6b 89 3e ff 45 11 bd
       0.309356 -0.04338741 0.2683989 -0.035467144
000190 08 60 ca 3d 09 49 03 3e e6 77 5c 3e c8 12 d2 bd
       0.09881598 0.1282083 0.21530113 -0.102574885
0001a0 4a e5 7c bd b7 aa 61 bd d6 06 94 3d f4 c8 6c 3d
       -0.061742105 -0.055094447 0.07227866 0.05780883
0001b0 74 ff 97 be 94 90 c6 3c bc 90 f3 3c f8 58 61 3e
       -0.29687083 0.024238862 0.0297321 0.22006595
0001c0 a3 38 84 3e 40 ae 01 3d 9b f7 c4 bd c2 b4 8a be
       0.2582446 0.03166032 -0.096175395 -0.27091032
0001d0 79 1e 98 be da 2d 88 3e fb 77 ad bd 8b eb 8c 3c
       -0.2971075 0.26597482 -0.0847015 0.01720216
0001e0 c1 3f 45 3e 18 07 a2 be 50 8d 44 3d 08 d5 29 3d
       0.19262601 -0.31646037 0.04798633 0.041462928
0001f0 4f cd a8 be 86 76 89 3e 83 0d 8b be 13 4e 5e be
       -0.32969138 0.2684824 -0.27158746 -0.2170947
000200 51 cc 52 3c ea 7a 56 3e 26 d7 f9 bd 27 60 23 3e
       0.012866096 0.20945325 -0.121992394 0.15954648
000210 59 80 4d be 9c fe 83 3e 41 58 71 bd 9e 0e e7 3d
       -0.20068492 0.2578019 -0.058922056 0.11282085
000220 8d e0 41 be a8 c4 2c 3e 3d 08 14 3d d7 ee 2e be
       -0.18933316 0.16871893 0.03614067 -0.17083298
000230 b7 57 cd bd 19 f1 0b 3e 68 72 73 3a 63 1f 3f 3e
       -0.10026496 0.1366619 0.0009286762 0.18664317
000240 23 f2 83 be 00 95 90 bd 44 b2 23 3e 3a 94 2a be
       -0.25770673 -0.070596695 0.15985972 -0.16658106
000250 f4 1a 13 be af d9 a8 3d ca 75 1b be 66 32 5a 3d
       -0.1436575 0.08244645 -0.15181652 0.05327072
000260 5d a1 f7 bd 4d 04 65 be 76 fa 02 bd 8c 1a f7 3d
       -0.120913245 -0.22364922 -0.03197714 0.1206561
000270 56 64 16 be cd 9e 88 3e 3e 86 11 3e d8 4e 79 3e
       -0.14686713 0.26683655 0.14211366 0.24346483
000280 b1 41 78 3e a0 9a 90 3e d1 f7 18 be 39 3b 5f 3e
       0.2424381 0.2824297 -0.14938284 0.21799935
000290 94 b5 28 3e 6e 5c 94 be a1 5e 6c 3e c6 77 71 bd
       0.16475517 -0.28976768 0.23082973 -0.058952115
0002a0 8d 1b 8d 3e 36 bf 97 be be 49 13 be 91 b4 2d bd
       0.27560082 -0.2963807 -0.14383599 -0.04240853
0002b0 7d 4d a7 3e 63 16 e6 3c 43 2f 72 3e d3 9c ed bd
       0.32676306 0.028086847 0.23650841 -0.116021775
0002c0 2f 97 a2 be 8b 42 28 bd 36 e0 a9 3e 55 3f 4a 3e
       -0.3175597 -0.041079085 0.33178872 0.19750722
0002d0 4f 8b 9e be f6 8f 48 be 30 6e 52 3e 4d 2f 34 be
       -0.3096566 -0.19586167 0.20549846 -0.17596169
0002e0 59 35 82 3e 9e 41 da bd 6c c3 41 be ac bc a8 be
       0.25431326 -0.10657047 -0.18922204 -0.32956445
0002f0 4a 34 f9 3d 55 72 05 3e cd ff 6a 3e 0c d2 e2 3d
       0.121681765 0.13031895 0.22949143 0.110752195
000300 f6 89 14 3e 41 2b 79 be 71 25 7c be 57 5a 65 3e
       0.14505753 -0.24332906 -0.24623658 0.22397743
000310 05 0a de bd f6 be 2d be 73 40 58 3e 32 e3 58 be
       -0.10841755 -0.16967377 0.21118335 -0.21180418
000320 d0 97 89 be 99 6b e8 3d 20 69 42 3e 11 32 86 3e
       -0.26873636 0.113486476 0.18985415 0.26210073
000330 2a 0e 07 3e a1 9b 86 3e fd 20 28 be a2 41 1c 3e
       0.13188997 0.2629061 -0.16418834 0.15259412
000340 02 63 a5 bd 41 77 85 3d b9 31 99 be 89 28 27 be
       -0.08075525 0.065168865 -0.29920748 -0.16324057
000350 29 fc 8b 3e dc 48 c5 bd a3 1c a3 bd 02 70 ed 3c
       0.2734082 -0.096330374 -0.079644464 0.028984074
000360 ad 85 15 be 76 fc 68 3e 7b 23 59 3e b6 82 95 be
       -0.14601775 0.22752556 0.21204941 -0.29201287
000370 42 3a 0d 3e ac ba 1c bd cb 73 c2 3d 84 e7 a6 bd
       0.13791755 -0.03826396 0.09494742 -0.08149627
000380 87 46 89 3c 4a e1 81 be 2f 1d 7c 3e eb 3f 4f 3e
       0.016757263 -0.25367194 0.24620508 0.20239227
000390 4e e2 ff bc 98 14 29 3d 2c 09 ae bd ef e1 7e 3e
       -0.03123584 0.041279405 -0.08497843 0.24890874
0003a0 3e 99 43 3d 19 46 23 3e 3b 8e 11 be d9 75 23 be
       0.047753565 0.15944709 -0.14214413 -0.15962924
0003b0 c6 b3 c6 3d 9b f8 94 bb 6e 8a a9 bd 0b cf 44 be
       0.09702258 -0.0045462376 -0.082783565 -0.19219606
0003c0 98 91 3a bd 74 cf 94 be d3 f9 4b 3e 6a f3 20 bd
       -0.045549005 -0.29064524 0.19919519 -0.039294638
0003d0 32 d9 26 be 66 23 91 3e 35 b6 cf 3d db 4d 94 3e
       -0.16293791 0.2834732 0.10142175 0.2896565
0003e0 00 27 2f 3e e7 59 b8 ba a1 35 7a 3e 05 af 3a 3e
       0.17104721 -0.0014064879 0.2443452 0.18230827
0003f0 bb 1f 3b be 27 04 cd 3d a5 82 75 3e 6d bb 31 be
       -0.18273823 0.100105576 0.23975618 -0.17356654

head.0.bias f4 [512]
000000 46 e4 5f bc 2a 7c 90 be d2 fa 7f 3e 3e 8f a6 3d
       -0.0136652645 -0.2821973 0.24998024 0.0813279
000010 a5 37 9f 3c 55 50 02 3e 0c 88 95 be c1 7f 8a bd
       0.019435713 0.12725957 -0.29205358 -0.067626484
000020 70 47 04 bd a6 07 c3 bc 19 16 1b 3e 89 34 8d be
       -0.03229469 -0.023807358 0.15145148 -0.27579144
000030 74 bb 00 be d6 47 15 bd 67 95 b3 3a 23 03 80 be
       -0.12571508 -0.03644546 0.0013701142 -0.25002393
000040 67 04 95 3e 2d cf 86 3e 4b 09 08 bd 17 84 95 3e
       0.2910492 0.26329938 -0.033211987 0.2920234
000050 dd 70 7d 3e 74 78 5e 3d 1d be 08 3e db 75 04 bd
       0.24750085 0.05431409 0.13353772 -0.03233896
000060 de 24 d2 bd d0 fb 97 3e e8 a9 83 3e 1b 51 3f 3e
       -0.10260938 0.29684305 0.25715566 0.18683283
000070 8b e0 7e 3e ca 83 00 be 32 35 1a be a5 9e 5d be
       0.24890344 -0.12550274 -0.15059355 -0.2164255
000080 08 0d 15 bc 64 4b 85 bc 20 b5 38 3e b1 f5 85 3b
       -0.009097345 -0.0162713 0.18037844 0.0040881266
000090 95 e6 1a be 7b 87 c1 3c 9e be 92 bd 2b 4f 3b bd
       -0.15127023 0.023624172 -0.071652636 -0.045729797
0000a0 01 9e 50 3e 88 67 66 be ab 7f e3 bd b2 06 9e bd
       0.20372774 -0.22500432 -0.11108335 -0.07716121
0000b0 a5 bb e1 3d af e5 93 3d 9c 6a 5b 3e 08 03 97 be
       0.110221185 0.07221543 0.21427387 -0.294945
0000c0 f7 68 94 be e6 90 c9 3d f2 e9 b5 bd 76 9f a1 3e
       -0.28986332 0.0984209 -0.08882512 0.31566972
0000d0 c4 92 67 be 21 31 9c be 02 2a 35 be 90 b0 f5 bc
       -0.2261458 -0.30506232 -0.17691806 -0.029991418
0000e0 88 f7 34 be 53 6e 1d 3e 06 8b ec 3d 20 e7 52 3e
       -0.1767255 0.15374117 0.11549954 0.2059598
0000f0 f6 99 06 3e 13 cd d4 3d 33 03 f5 3d 8e 3e f7 3d
       0.13144669 0.10390677 0.11963501 0.12072478
000100 14 f2 7e 3e 0b e8 4b bd e0 55 a8 3e 0d 50 3a be
       0.24897033 -0.04978184 0.32878017 -0.181946
000110 f1 a8 93 3e 19 13 10 3e 5f 9c 9b 3e e9 d1 e8 bd
       0.2883983 0.14069785 0.3039274 -0.11368162
000120 41 a2 8b 3d 34 3e 59 3c 9a 85 fd bd c4 bb f5 3d
       0.06818057 0.013259459 -0.12378998 0.11998704
000130 87 8b 04 3e 0b 60 d6 bd 6d 02 85 3e a8 f9 a6 be
       0.1294385 -0.104675375 0.25978413 -0.32612348
000140 96 ca 2a 3d 8f 6f 54 be d1 9b 95 3e 99 4c 4d be
       0.041697107 -0.20745681 0.2922044 -0.20048751
000150 32 a5 09 be 89 23 9a 3d dd f6 a8 3e 8b 83 94 3e
       -0.13441923 0.07526309 0.33000842 0.2900661
000160 03 ed 24 be a7 ff 9b 3d e1 5f d4 3d c2 fe 41 be
       -0.16106038 0.07617121 0.1036985 -0.18944839
000170 61 b6 26 3e 69 0c 27 3e c3 91 b8 3d 33 d0 9b be
       0.1628051 0.16313328 0.09012177 -0.3043228
000180 36 e4 43 bd fd 66 96 3e f7 40 12 bd 05 a9 a2 bd
       -0.04782506 0.2937545 -0.035706487 -0.07942394
000190 d4 a3 59 be f4 3f 8d bd ac 4d 2f be bc ac c4 bd
       -0.21253902 -0.06896964 -0.17119473 -0.09603259
0001a0 5b b0 52 3e c7 0f d2 bd 79 b6 7c 3e e8 49 de 3c
       0.20575087 -0.102569155 0.24678983 0.02713485
0001b0 6c 84 90 bd 6e 95 d0 3d 37 5d 8e 3e 16 0d b0 3d
       -0.070565075 0.101847515 0.27805492 0.08596246
0001c0 c4 b8 2b 3e 5a 9f 72 3e bd 2f 7e be e9 ed 0a 3e
       0.16769701 0.236936 -0.24822898 0.13567318
0001d0 27 9e 0b be cd 49 25 be b6 76 8d be ef 54 15 3e
       -0.13634549 -0.16141434 -0.27629632 0.14583181
0001e0 e7 ec 80 be 96 1a 2f 3e 7d 6a 09 3e 17 a2 1f bd
       -0.25180742 0.17099985 0.13419528 -0.03897294
0001f0 0b 9e 93 be 82 a4 5a 3d 85 ef 48 be 19 1d 28 bd
       -0.28831515 0.053379543 -0.1962262 -0.041043375
000200 32 37 8c bd 5f 79 e9 bc e1 f1 30 bd e9 fb 5a be
       -0.06846465 -0.028500257 -0.043199424 -0.21385159
000210 73 40 cd bd d3 a4 fe bd dd 16 37 be 99 c2 60 3e
       -0.10022058 -0.124337815 -0.17879815 0.21949233
000220 ff 72 de 3d 87 0f 82 be 13 65 ab 3d ee 78 9b bd
       0.108617775 -0.2540247 0.08368888 -0.07591425
000230 88 b2 0c 3e 79 f7 1d be e0 a7 0a be 4d 7e 90 3e
       0.1373998 -0.15426435 -0.13540602 0.2822136
000240 9c 16 21 3c b3 c9 6a 3e f5 2b f1 3c 27 80 87 3e
       0.009832051 0.22928505 0.029439906 0.2646496
000250 2a 06 06 be db 32 8a be 17 f7 3b be 57 0c 97 be
       -0.13088289 -0.26991925 -0.18355976 -0.29501602
000260 9a a0 8f be 82 5b 48 3e 2d d1 35 3e 3c d1 ec 3d
       -0.28052217 0.19566157 0.17755575 0.11563346
000270 ad cb 3b 3e 35 de 94 be 80 40 14 3e 93 d6 e2 bd
       0.18339415 -0.2907578 0.1447773 -0.11076083
000280 a7 84 38 3e 2a 3d 09 3e 82 4b b2 bd 20 5d 90 3e
       0.18019353 0.13402238 -0.08705808 0.2819605
000290 ca 92 7f 3c f2 21 02 3e f6 74 26 bd d6 68 d0 3d
       0.015598962 0.12708262 -0.040638886 0.10176246
0002a0 12 44 43 be 97 df 34 be 2e 9b 82 3e 3c 4f 72 3d
       -0.19068936 -0.17663418 0.25509018 0.059157595
0002b0 b0 51 c7 bd 15 86 6c be b4 62 3f 3e d3 b9 98 be
       -0.097323775 -0.23098023 0.18689996 -0.29829273
0002c0 97 70 89 be 31 63 d5 bd c3 6a 1d 3e 18 b8 88 3c
       -0.26843712 -0.1041931 0.15372758 0.016689345
0002d0 66 84 77 3e 91 9a 9e 3e 44 aa 49 be 4f 32 f1 bc
       0.241716 0.309773 -0.19693857 -0.029442934
0002e0 2c a6 18 be cd 0f b9 3c a7 2b 12 3e df 9f a6 3d
       -0.1490714 0.022590542 0.14274465 0.08135962
0002f0 6c ef b2 3d 6d 21 88 bd 4f f9 f2 3d a8 0a 57 be
       0.08737072 -0.066470005 0.11863958 -0.21000159
000300 92 64 3c be a4 c4 44 3d 00 d1 85 3e d7 e6 61 bd
       -0.1839774 0.048039094 0.26136017 -0.055151787
000310 34 4c 66 be cb 2f 2b be a2 bd ee bd 31 ad 8a 3d
       -0.22490007 -0.1671745 -0.11657263 0.06771315
000320 89 37 58 be bc b1 7d 3e ba 03 9b 3d fa d7 0c 3e
       -0.21114935 0.24774832 0.0756907 0.13754264
000330 b8 ec c0 3d 6a 1a f7 bd f7 fb 87 be 9d 4c b7 bc
       0.094201505 -0.12065585 -0.2655942 -0.0223754
000340 3a 3b 09 be 99 f7 a8 3d 95 e9 b7 3d 17 e9 43 bc
       -0.134015 0.082503505 0.08980099 -0.011957428
000350 7f 5a 46 be fc b6 49 3e 16 1d 89 bd 9e 66 39 be
       -0.19370459 0.19698709 -0.06695001 -0.18105552
000360 98 f5 f4 3d ef ab a4 3e ff 49 87 3e 3f a9 c8 bc
       0.11960906 0.32162425 0.26423642 -0.024494765
000370 1e 0c 05 3e 9c 44 d0 3b c1 5c 84 3e d9 aa 63 3d
       0.12992904 0.006355835 0.25852016 0.055582855
000380 b4 61 01 3e c8 0b f2 3c 21 b2 57 be 71 89 af bd
       0.12634927 0.029546633 -0.21064045 -0.08571137
000390 17 b5 7e 3e 9b 4d e9 bd 2b 3c 3f 3d 92 6b f2 3d
       0.24873768 -0.11391755 0.04668824 0.11836924
0003a0 f7 64 eb bd 5c 7a aa 3d 53 01 8b be c1 a3 eb bd
       -0.11493867 0.083241194 -0.27149448 -0.11505843
0003b0 cf 1e cb 3d 85 d9 85 3e 59 b7 36 3e 8c c4 02 be
       0.09917986 0.26142517 0.17843379 -0.12770289
0003c0 c6 61 88 3e 9d 71 c6 3d 7e db 13 3e fa c8 32 3e
       0.26637095 0.09689639 0.14439198 0.17459479
0003d0 60 57 0c be 08 24 80 3e b2 30 17 be 9a 8c 0b 3e
       -0.13705206 0.2502749 -0.1476467 0.13627854
0003e0 7f 54 64 be 02 5c 87 be eb 42 87 3e 0a 1b 93 be
       -0.22297858 -0.26437384 0.26418242 -0.28731567
0003f0 08 44 9c 3e f2 de fd 3d 41 8d 7a be 24 c6 0b 3c
       0.30520654 0.12396039 -0.24467947 0.008531127

head.3.weight f4 [256, 512]
000000 7b 8b 4a 3d 02 9b b2 3c 03 b7 d9 3b 0f 1f ad 3c
       0.049449425 0.02180243 0.006644131 0.021132974
000010 c8 4f 82 3b d0 bf 0f bd 36 40 b4 bc 2d fa 16 bc
       0.003976796 -0.035095036 -0.022003274 -0.00921492
000020 67 0d e8 bc 75 af 4b 3b 64 aa ea ba d7 7b c2 bc
       -0.028326703 0.0031079922 -0.0017903564 -0.023740692
000030 7d 14 fe bc 40 39 e3 bb 10 46 fc 3c f9 40 55 3c
       -0.031015629 -0.006934315 0.030795127 0.013015979
000040 ae bc 0e 3d be 00 05 bd c2 66 6a bc a1 10 9d 3c
       0.034847908 -0.03247141 -0.014306726 0.019172968
000050 47 54 06 ba ce eb c9 3c dd 84 07 3d 36 f7 de 3c
       -0.00051242526 0.024648573 0.033085693 0.027217489
000060 9c 2a 28 bd f3 40 bb 3c 41 73 ac 3c 28 50 1d 3d
       -0.04105626 0.022858119 0.021051051 0.03840652
000070 44 f5 36 3c b8 bb aa bc d5 4b 5a 3c ae 13 86 3c
       0.011166874 -0.020841464 0.013323744 0.016366806
000080 b3 9f 8d bc 21 b9 6a 3c 8c 33 9e ba d0 be e7 ba
       -0.017288065 0.014326365 -0.0012069806 -0.0017680768
000090 75 a1 33 3d b6 aa 9b 39 ef 5a 40 bd c4 4a 23 bd
       0.04385515 0.00029691093 -0.04696172 -0.039866224
0000a0 d4 66 e4 3c de 6a d3 3c 79 30 31 bd c0 85 e3 3b
       0.027881064 0.025807794 -0.043259118 0.0069434345
0000b0 44 45 ec bc d3 ef 4d 3d 76 28 1d 3d d2 59 34 3d
       -0.028841622 0.050277542 0.038368665 0.04403097
0000c0 67 c1 f4 bc e6 c7 b1 3b 9f d0 1f bc 72 fc 81 bc
       -0.029877378 0.005425441 -0.009754329 -0.015867446
0000d0 47 f8 30 3d 95 03 47 3c 12 58 e3 3b c5 09 9f 3c
       0.043205526 0.01214685 0.006937989 0.019413838
0000e0 3d 2e 36 3b ab 25 eb 3c 56 27 37 bc 3c 2c 76 ba
       0.0027798556 0.028704485 -0.011178812 -0.00093907467
0000f0 43 29 41 b9 29 3b 0c 3d 0f 17 94 bc ff f0 b3 3c
       -0.00018421285 0.034236107 -0.018077401 0.021965502
000100 28 f2 2d bd 6d 8b 76 bb 0d 4e e0 bc b1 71 22 bd
       -0.042467266 -0.0037619725 -0.027380968 -0.039659206
000110 3f 73 5f bc cc 4e ff 3c 3f e9 86 bc d2 f8 1a bc
       -0.013638317 0.031165503 -0.016468642 -0.009458737
000120 09 97 bc bb 1a 8d 86 bc 9b 3a 59 bc 37 2e 2e bb
       -0.0057553095 -0.016424704 -0.013258602 -0.002657784
000130 1f 31 10 bd 24 40 9b bc 6a 09 f7 3c de 9f 4f bd
       -0.035203096 -0.018951483 0.030155856 -0.05068957
000140 b4 ad c6 3c 7a bb 83 bb 13 83 83 bc 1d 75 21 bd
       0.02425275 -0.0040201517 -0.016053712 -0.03941833
000150 2e aa 1c 3c 6b 2e 38 3d 00 36 bb bc 8c 5a 1d bd
       0.009562058 0.044966143 -0.022852898 -0.03841643
000160 a0 cd 18 bc 40 ce 6d 3c a4 0a f3 bc 69 16 7e 3c
       -0.009326369 0.014514506 -0.02966816 0.015508273
000170 d6 98 f6 bc 60 f7 2a bc 66 b0 2b 3c 97 a5 03 bd
       -0.030102175 -0.010434955 0.010479068 -0.03214034
000180 e9 f9 d8 bc da 1c 03 3d 12 a9 c9 bc 10 51 16 3c
       -0.026486354 0.032009937 -0.024616752 0.0091746
000190 bd 89 06 bc 62 a2 d5 bc fd 19 39 bd 57 93 86 3c
       -0.00821155 -0.026078407 -0.0451908 0.016427679
0001a0 d6 42 e8 bb 55 2c 2b bd 24 a4 05 3d 9b df d6 bc
       -0.0070880456 -0.041790325 0.03262724 -0.02622967
0001b0 50 4f 09 3b 18 46 f8 3c 4e 18 4e 3c 86 c1 6e 39
       0.0020951815 0.03030686 0.012579037 0.00022769542
0001c0 3e bf 57 bc fc 3f 2b 3d f0 30 31 3d 8e 74 fd bc
       -0.013168154 0.041809067 0.04325956 -0.030939367
0001d0 dc 53 03 bd cc 3a cf bc d4 c6 4f 3b 9d 22 75 3d
       -0.032062396 -0.025296591 0.0031704204 0.059847463
0001e0 8c 94 3a bb ee 58 df bc ce 09 df bc 2e a0 8f bb
       -0.0028469888 -0.027264085 -0.027226355 -0.0043831086
0001f0 d1 b2 df 3c 64 f5 fe 3c 29 11 87 39 e1 25 16 3d
       0.027306946 0.03112287 0.00025761992 0.036657218
000200 25 f6 b7 bb 02 7a d3 bc 00 d9 2c 3d cc bd 46 3b
       -0.0056140595 -0.025815014 0.042199135 0.003032553
000210 8d ca 38 3d 50 18 fb 38 a1 4e a0 3b 48 00 90 3c
       0.045115042 0.00011973141 0.004892186 0.01757826
000220 de 55 09 bd 23 9a 19 bd 14 3a 14 bc 4f 0d fe 3c
       -0.033529155 -0.03750051 -0.00904705 0.031012205
000230 ff 9e b5 b9 eb 12 09 3d 9c d7 60 bb 59 9a b3 bc
       -0.00034641472 0.033465307 -0.00343082 -0.021924185
000240 99 ff 83 bb 4e 2f 3d bd 0e cd 5b 3c e2 dd 34 bd
       -0.0040282723 -0.04618769 0.013415588 -0.044156916
000250 71 ae 02 bc 17 3d b8 3c b4 92 5c 3c 98 b7 ff 3c
       -0.00797616 0.022490067 0.013462711 0.031215474
000260 6f 21 0c bc 0f 5c 4b bc f1 75 6c bd db dc 61 bc
       -0.008552893 -0.012412085 -0.057729665 -0.013785566
000270 75 6b 9e bc a4 fb fb bc 64 1c af bc d5 83 ad bc
       -0.019338349 -0.03075964 -0.021375842 -0.021181026
000280 c0 75 ff 3c 17 67 db bc 87 df 29 3b e8 c0 0e bd
       0.031184077 -0.026782556 0.0025920586 -0.03485194
000290 79 fd 15 3b 60 e2 a7 bc 55 86 29 3d 58 47 f0 3c
       0.0022886677 -0.020493686 0.041387875 0.029330894
0002a0 d7 37 22 3d e5 c2 aa 3b c6 07 78 3c 7c 23 ee 3c
       0.039604034 0.0052112215 0.015138572 0.029069655
0002b0 76 74 41 bc 3f 07 4f 3c 84 4d c4 bc 50 47 29 3d
       -0.011807552 0.012636005 -0.023962744 0.041327775
0002c0 7f d5 ea 3c 1f b1 6a bc 76 8b f1 bb 41 9b 4d 39
       0.028666256 -0.0143244555 -0.0073713614 0.0001960816
0002d0 d5 a8 05 bc 9d 83 0f 3d cd 77 ac bb 38 73 19 3d
       -0.0081579285 0.035037626 -0.005263305 0.037463397
0002e0 67 12 d6 bc 43 2d ba 3c ae 00 61 bc 8d b8 1e 3d
       -0.026131822 0.02272666 -0.013733072 0.03875022
0002f0 6b 3f fd 3c 37 be bb 3c c7 e6 1e bc a5 75 01 3d
       0.03091403 0.02291785 -0.009698576 0.031606335
000300 e8 26 f4 3a 1d ed 9b 3c 8c 42 e6 3c 69 c9 d4 3c
       0.0018627318 0.019033963 0.028107904 0.025974946
000310 f5 10 20 3d 73 fa 81 3c c7 a0 ce 3c 1a 7a 95 3c
       0.03907867 0.015866494 0.025223149 0.0182467
000320 b2 0a 7f 3c 65 80 c6 bc ce f0 21 37 d1 b2 c9 bc
       0.015566515 -0.024231145 9.6524145e-06 -0.0246214
000330 bf 57 ba bc d5 25 25 3d 3b f6 12 bd 4d fc ad 3c
       -0.022746919 0.040319283 -0.035879355 0.02123847
000340 66 f8 11 bc ee 8f b1 3c 53 52 06 bd 26 e0 3c bd
       -0.00890932 0.021675076 -0.032793354 -0.046112202
000350 5c 6b 13 bd 28 4c 9c bc 91 53 fd bc 2f 00 a7 3c
       -0.035991058 -0.019079283 -0.030923637 0.02038583
000360 e8 46 dc bb b5 8f 13 3d be 84 5f 3c be 14 42 3c
       -0.00672232 0.03602572 0.013642488 0.011845766
000370 d7 27 2b 3d f3 df 8c bd 67 55 be bc 77 47 56 3c
       0.04178604 -0.068786524 -0.023234082 0.013078562
000380 6c 2e fd 3c 67 04 4c bd 55 77 bf 3c e3 28 69 bc
       0.030905925 -0.049808886 0.023372332 -0.01423094
000390 94 42 d9 bc e5 74 ff bb 8e 48 62 3c 22 23 80 bc
       -0.026521005 -0.0077959173 0.013811244 -0.015641753
0003a0 e0 df ec 3c ba 3d 6c 3c 58 dc 23 3d a9 c1 ff 3c
       0.028915346 0.014419014 0.040005058 0.031220274
0003b0 99 3a 0f bd f4 34 b6 bc 7c 0b 68 3c 88 86 5c bc
       -0.034967992 -0.022242047 0.014162894 -0.013459809
0003c0 52 69 0d 3c c1 39 b6 bb 5b e0 f2 3c d1 ce 72 bc
       0.008631067 -0.005561084 0.029647997 -0.014819817
0003d0 13 95 0d bd 45 e9 46 3b 8a df 2e bc 84 58 44 3d
       -0.034565996 0.0030351442 -0.010673413 0.047935978
0003e0 0b 6d 98 bb ab d4 27 3d 26 0b 18 bc 87 99 84 3c
       -0.004651671 0.0409743 -0.009280002 0.016186489
0003f0 6d 6b 92 3c 66 4e 0a 3c 8f e5 d3 3c 9b da 5e bc
       0.01787349 0.008441543 0.025866298 -0.013601924

head.3.bias f4 [256]
000000 60 14 c3 bb 64 e4 9a 3b a4 de 17 bb c6 5b 28 bd
       -0.0059533566 0.0047269333 -0.0023173476 -0.041103147
000010 0f 62 41 3d ba 98 b1 bc ed af 9f bc 82 58 12 bb
       0.047212657 -0.021679271 -0.019493068 -0.0022330587
000020 03 f2 20 3d 0f 33 1b 3b 60 db 72 3c 5b da be 3c
       0.0392933 0.0023681556 0.014822811 0.02329748
000030 72 ac fb bc 4d b9 1d bc 0a 27 f9 bb 76 8c 78 bc
       -0.030721877 -0.009626699 -0.007603531 -0.015170207
000040 c2 ad 14 3c 57 d3 15 bd a7 d1 c6 3c 38 8c 14 b9
       0.00907463 -0.036578503 0.024269892 -0.00014166615
000050 ae c9 19 3d c7 48 e3 bc 7f 49 f4 bc f8 f3 d4 3c
       0.037545852 -0.027744664 -0.029820202 0.02599524
000060 c9 0d bf bb 5f 02 c6 bb 96 53 2b 3d 5a 4c 89 3a
       -0.0058305007 -0.006042763 0.04182776 0.0010475025
000070 43 8d 34 bd 74 28 47 3d a2 6b 77 3c b9 ab 95 bc
       -0.04408003 0.048622563 0.015101345 -0.01827036
000080 cb 21 14 bd c0 44 11 3d f2 5e eb 3c b6 ac d0 bc
       -0.03616504 0.035465956 0.028731797 -0.02547298
000090 9d 10 98 bc 59 09 e5 3c 0f 5c f0 bc 47 6a ef 3b
       -0.01856261 0.027958559 -0.029340772 0.0073063704
0000a0 5b d4 b2 bc 83 26 64 bb 3d 49 38 bd b6 b4 23 3d
       -0.021829775 -0.0034812994 -0.04499172 0.03996726
0000b0 f2 86 48 3c 9c ad 3d 3b d0 28 5e bc d2 28 63 3b
       0.012239205 0.002894259 -0.013559535 0.0034661782
0000c0 e6 0c 5a bc 64 9e 07 bd f8 41 3f 3d 84 81 16 3d
       -0.013308739 -0.033110037 0.046693772 0.03674461
0000d0 f0 d0 1b 3c 1b 02 3c bc d4 2a a7 3b dd 85 2a 3d
       0.009510264 -0.011475111 0.005101541 0.04163157
0000e0 4c 37 eb bb ee 36 85 3c c9 77 8f 3c 94 7f 91 3c
       -0.0071782228 0.016261544 0.017513173 0.01776103
0000f0 df 94 e1 3c 48 cf 16 bd fc 7f d9 ba d8 1b f8 bc
       0.027536808 -0.036818773 -0.0016593928 -0.030286714
000100 b5 92 0e bd 89 4f 04 bd e2 e2 bc 3c b2 58 3d bb
       -0.03480788 -0.032302413 0.023057405 -0.0028891978
000110 8b 03 fe 3c bc 6c 5c 3b 60 bb c4 bc 86 8e fb bc
       0.031007549 0.0033634147 -0.024015129 -0.030707609
000120 eb 3c 2a 3d 51 1a 8d bb 8b 96 d0 3b 6c a5 45 bc
       0.041562002 -0.0043061157 0.0063656024 -0.012063365
000130 70 f3 ea 3b b5 ff 8b bb 11 8a 27 3d dd 27 98 3c
       0.0071701333 -0.004272426 0.040903155 0.018573696
000140 96 d5 48 bd 3a 53 fe 3c f0 83 1d 3d f5 2b ef bc
       -0.049031816 0.031045545 0.038455904 -0.029195765
000150 35 05 d5 3c 14 bd 08 3d 59 cd b0 3c 59 50 38 bd
       0.02600346 0.033383444 0.021582292 -0.0449985
000160 12 0c 09 bd c0 ec 15 3d e3 e6 f8 bc 76 53 07 3d
       -0.033458777 0.036602736 -0.030383533 0.03303858
000170 8e d4 36 3c 17 ae ae 3c fb 26 9f 3c 4d 69 4f 3c
       0.011159075 0.021323247 0.019427767 0.012659383
000180 5a 47 3c 3d bf 49 88 bc 14 93 ee bb 93 a8 37 bd
       0.045966484 -0.016636727 -0.0072807167 -0.0448385
000190 e8 14 85 bc df 3d b3 bc 42 e5 33 ba fe f4 b9 3c
       -0.01624532 -0.021880088 -0.000686247 0.02269983
0001a0 31 f1 76 3c f4 40 d8 3c 41 38 ba 3c 41 86 93 3c
       0.015072153 0.02639816 0.022731902 0.018008353
0001b0 e2 08 db 3c fb 43 a0 3c 95 4e 6f bc 54 14 3e bd
       0.026737634 0.019563666 -0.014606138 -0.046406105
0001c0 58 0d 11 bd 89 b4 24 bc f5 2a b7 3c 60 ba 4e bd
       -0.035413116 -0.010052809 0.02235935 -0.05047071
0001d0 85 0f db 3c 12 8e f5 bc 8a 32 52 3c 54 9a 80 3c
       0.026740799 -0.029974971 0.012829432 0.01569859
0001e0 b0 5b 89 bc 06 17 e4 bb 90 33 cb 3a 25 90 24 3d
       -0.016767353 -0.0069607524 0.0015503038 0.04017653
0001f0 b0 64 bb 3a 56 44 e1 3b 0b 51 05 3d f4 f8 1f bd
       0.0014296975 0.0068746014 0.03254799 -0.03905578
000200 49 5f ee bc 7c 2d 57 3c 6e 2a 03 3c 6f fd 0b bc
       -0.02909817 0.013133403 0.0080057215 -0.00854431
000210 5f 18 02 b9 3e d2 b1 3c 73 3c a0 3c 0a 7d 9a 3a
       -0.00012406845 0.021706697 0.019560074 0.0011786532
000220 86 6d dc 3b 56 1b 0c bd 16 15 bb 3c 03 de 87 bc
       0.0067269234 -0.034205757 0.022837203 -0.016585356
000230 a2 f1 c8 3b 97 13 4c bd 72 5d 81 3b 94 35 25 3d
       0.0061323205 -0.04982337 0.003947907 0.0403343
000240 f5 91 35 bd 91 94 f7 bb 3f 11 22 bd e6 68 03 3d
       -0.04432865 -0.0075555523 -0.03956723 0.03208246
000250 4b 5f a0 3c 8e 79 11 bd 8e 78 c5 3c cc fd 50 bb
       0.01957669 -0.035516314 0.024105337 -0.0031889556
000260 07 de a9 3b f4 81 ae bc 31 00 f1 3c 91 8a cc bc
       0.0051839384 -0.0213022 0.029419037 -0.024968417
000270 a0 21 17 bd 5f cf 8c 3b 69 cf 11 bd da 8b a3 bc
       -0.0368973 0.0042971815 -0.035598192 -0.019964147
000280 10 0e a3 bc 45 d6 6d bc 6c b8 01 ba 42 15 bd 3c
       -0.019904166 -0.014516418 -0.00049484405 0.023081426
000290 b5 77 55 bd d0 1b 02 3c 8b f9 48 bd 43 8d 13 3d
       -0.052116115 0.007941201 -0.049066108 0.03602339
0002a0 86 e2 20 bd 59 43 23 bd 66 73 1d 3d a0 e8 21 3d
       -0.03927853 -0.03985915 0.03844013 0.03952849
0002b0 6a c1 d1 3b ba 6b 2c bc 50 60 00 bd 56 a7 05 3d
       0.0064012306 -0.010523731 -0.03134185 0.032630287
0002c0 9e 26 07 3c df 3a 57 3b 2e f0 e4 3c bf 22 88 3c
       0.008248953 0.0032841486 0.027946558 0.01661813
0002d0 31 1c de bc a7 1c d5 bc c5 ab a0 3c 1b 2b a3 ba
       -0.027113052 -0.026014639 0.019613156 -0.001244876
0002e0 01 91 3e bd 17 d2 05 bd 16 52 b8 bc f9 01 c2 3c
       -0.046525005 -0.03267106 -0.02250008 0.023682581
0002f0 78 3f aa 3c 2a b0 ba 3c 20 1a 16 bd 59 8a 6c 3c
       0.020782217 0.02278908 -0.03664601 0.0144372815
000300 11 7c d4 3c 0e ec 2a 3d 81 b9 f0 bc ad 28 02 3d
       0.025938066 0.041729026 -0.02938533 0.031777073
000310 59 4d 70 bc 4f 68 f3 bc 1b 9e 35 bd 80 54 87 bc
       -0.014666879 -0.029712824 -0.044340234 -0.016519785
000320 32 4a 0c 3d 37 53 a2 3c 0c fd 14 3d cd 07 f4 3c
       0.034250446 0.01981507 0.036374137 0.029788876
000330 09 26 1d bb 21 48 fc bb 16 a2 a5 ba eb fd 0f 3d
       -0.002397897 -0.007699028 -0.0012636806 0.035154264
000340 a2 48 9b 3c 5e 8b b1 bc 98 f0 fb bc 84 b3 76 3b
       0.018955532 -0.0216729 -0.030754372 0.003764362
000350 fd 96 2c bd 36 73 2f bd d7 74 93 bc 27 d2 83 bc
       -0.04213618 -0.042834483 -0.01800005 -0.01609142
000360 cd be 29 3d f5 89 03 bd 57 cf e9 bc 55 47 62 3c
       0.041441727 -0.032113988 -0.02854125 0.013810952
000370 41 a5 bc bc b7 75 1f 3c 24 b6 fd 3c 0a dc 9e bc
       -0.023028018 0.009732655 0.03097064 -0.019392032
000380 14 0a f0 3c bf b0 db 3c f2 16 b4 bc a3 52 42 bd
       0.02930168 0.026817678 -0.021983597 -0.04744209
000390 99 93 4b bc 36 a8 d1 bb 6a 07 b2 3c 6a 44 fe bb
       -0.012425327 -0.006398226 0.02173205 -0.0077596204
0003a0 03 4b 06 bd 4e 2e c1 ba 93 9b 5c 3b 4d b0 da 3c
       -0.03278638 -0.0014738531 0.0033662065 0.026695395
0003b0 59 d0 46 bd 7f fb e6 bc 98 19 19 3d b3 64 8f bc
       -0.04853854 -0.028196095 0.037377924 -0.017504072
0003c0 db a2 6b bc 31 61 11 bd fc 47 88 3b 2b 19 a1 3b
       -0.0143820895 -0.03549308 0.004158972 0.0049163303
0003d0 c5 0f ef 3c 87 f2 a2 bb 68 fa 31 3c 53 36 09 bc
       0.029182324 -0.004972759 0.010862924 -0.008374768
0003e0 43 bd 42 bd aa 27 3d 3c 90 73 b2 3b 51 d7 28 bc
       -0.047543775 0.011545101 0.005445905 -0.010305242
0003f0 51 1d d2 ba ba 3b 90 3c 59 8a 19 39 f6 52 02 bc
       -0.0016030465 0.017606605 0.00014642756 -0.00795435

head.6.weight f4 [128, 256]
000000 06 3b 83 3d 15 ae 4f 3c c5 c4 ad ba 20 56 50 3d
       0.06407742 0.012675782 -0.0013257494 0.050863385
000010 33 7d 14 bd 5b c4 5c bd bc 79 58 bd 49 1b d2 bb
       -0.03625221 -0.053898197 -0.05285047 -0.006411944
000020 c9 76 5e bd 2c 3e 6c 3d f8 a5 28 bd f9 4c d0 3c
       -0.0543125 0.05767648 -0.041173905 0.025427328
000030 4a 45 3f 3d ff 8d f0 bc 38 92 1d 3b 61 80 96 3c
       0.04669694 -0.029364584 0.0024043452 0.018371763
000040 4c d8 5e 3d 03 41 7a bc 8c cc 49 3c 61 98 4f bd
       0.054405496 -0.015274289 0.012316834 -0.05068243
000050 46 f6 8a bb 5c 33 44 3d 97 38 3d 3d 13 83 27 bd
       -0.004240784 0.047900543 0.046196546 -0.040896486
000060 f6 9f b4 bc f6 83 45 bc ba 1f 21 3d bd a7 2c bd
       -0.022048932 -0.012055388 0.039336897 -0.042152155
000070 50 3b f2 bb 14 98 39 bd 0e 3c a8 bc 2d 53 43 3c
       -0.0073923245 -0.04531105 -0.020536449 0.011921686
000080 fe 7b 87 3d 9a b2 26 3d 46 f3 d9 bc ae 9b 1a bc
       0.066154465 0.04069767 -0.02660526 -0.009436531
000090 ee ce 22 3d 52 ee 3d bc e1 7f f6 3c 50 96 87 3c
       0.039748125 -0.0115924645 0.030090274 0.016551167
0000a0 76 8c a8 3c e9 f7 ab bb 20 1d ca bc b3 32 78 bd
       0.02057479 -0.005248059 -0.024672091 -0.060595226
0000b0 b5 33 df 38 80 7f 66 3d 30 b0 23 bc 64 4e c1 bb
       0.000106431 0.056273937 -0.009990737 -0.0058992375
0000c0 a9 11 33 3c 47 30 81 3c 2c 53 d2 bc 82 6e 16 3d
       0.0109295035 0.01577009 -0.025674425 0.036726482
0000d0 bd b9 b3 bb df 7f 98 3c 51 8e 8b 3c 65 ab 7d 3d
       -0.005484788 0.018615661 0.017035635 0.061931033
0000e0 c5 ad c2 bc d7 e5 30 3b 4f c0 87 3d 63 3c 87 bd
       -0.0237645 0.0026992464 0.06628477 -0.06603315
0000f0 9c e0 68 3d 1a e5 53 bd a9 e4 ff 3c 6e c2 4d bd
       0.05685483 -0.05173216 0.031236963 -0.05023425
000100 87 67 c2 3c a0 8a 2f bd c9 f1 43 3d b7 4b 6e bd
       0.023731006 -0.042856812 0.047838006 -0.058177676
000110 5e 1d ac 3b fa 35 b1 bc 94 f8 78 3c 27 bd 4b 3c
       0.0052525243 -0.021632183 0.015195984 0.012435234
000120 1b 61 03 3c ae a9 33 bd 0f 57 73 3b 74 b7 10 bd
       0.008018757 -0.04386299 0.0037130748 -0.035331205
000130 a4 39 4b bd 33 d1 6b bd 3f fc b2 bc 80 b5 89 bd
       -0.049615517 -0.057572555 -0.021848796 -0.067240715
000140 21 fd 2e 3d 0b 8f d1 bc f1 af af 3c 67 5e 39 3d
       0.04272187 -0.025580904 0.0214462 0.045256045
000150 c1 06 c2 bc 12 ee 1a bc 41 be e1 3b 8c bd ce 3c
       -0.023684861 -0.009456174 0.006889135 0.025236867
000160 16 4a fd 3c 05 93 3e bd b1 6c bc bc ec 5c da 3a
       0.030919116 -0.046526928 -0.023001047 0.0016659773
000170 5e ce 08 bd 32 5d 2b 3c 79 7a 36 bd 17 f4 04 3d
       -0.033399932 0.010459231 -0.044550393 0.032459345
000180 c8 b3 f9 bb de 32 ff bc 5a 63 54 3d b9 e9 47 3c
       -0.0076203085 -0.031152185 0.05185256 0.01220172
000190 50 7e cc 3c f6 e1 75 bd 41 31 1e 3d 43 ab 3b 3d
       0.024962574 -0.060029946 0.03862119 0.045817625
0001a0 96 d3 94 3b c0 1e 6c 3d 1d 4a cf ba 38 d3 4a bd
       0.0045418246 0.057646513 -0.0015814934 -0.04951784
0001b0 87 cd 67 3d b1 82 82 bd c3 6d 7e bd f4 89 4b 3d
       0.05659249 -0.06372584 -0.062116396 0.04969211
0001c0 60 8a b6 bb 3f d1 e4 bc 55 8f 44 bd 70 7a a5 3c
       -0.005570695 -0.027931808 -0.047988255 0.020199984
0001d0 66 74 66 bc 46 78 1d bc 41 13 39 bd d2 e3 2f 3d
       -0.0140658375 -0.009611195 -0.045184378 0.042941876
0001e0 64 7e 37 3d b7 f3 ba bc 0a c3 00 3c e5 dd 7a 3c
       0.04479827 -0.02282129 0.007859001 0.015311693
0001f0 17 2c 69 3d 2a 29 91 bc 21 14 8b 3c 5d 60 6b 3c
       0.056926813 -0.017719824 0.016977372 0.0143662365
000200 90 23 8d 3b 47 5f 73 bc 8b d9 85 3d 79 00 7b bd
       0.004307218 -0.014854259 0.06535634 -0.061279748
000210 93 20 6d bd a8 8d 5f 3d 43 71 9e bc 77 4d 45 bd
       -0.057892393 0.054578453 -0.019341117 -0.04816958
000220 7f 47 d3 bc 3e d0 15 3c 5e d5 3c bd e2 ce 0a bc
       -0.025790928 0.009143887 -0.04610192 -0.008472176
000230 10 3d 0c 3d a4 05 bb bc bf 22 aa 3c b4 40 0f 3d
       0.03423792 -0.022829838 0.020768521 0.034973815
000240 01 a5 88 3c e1 54 16 3c d2 3c 37 bd d4 4a ea 3c
       0.016680242 0.00917551 -0.044735737 0.028600134
000250 ef 49 68 3c 5a 6a 87 3c b7 04 e4 bc fd c4 19 3d
       0.014177783 0.016530205 -0.02783428 0.03754138
000260 d7 bb 7e 3c bf 6d 10 bd 41 39 8d 3c 89 a7 82 3d
       0.015547714 -0.035260912 0.017239215 0.06379611
000270 b3 d0 2c bd 29 5f 6c 3d 81 0f 25 bd 6d b2 3e bc
       -0.04219122 0.05770794 -0.04029799 -0.01163922
000280 75 bb 67 bd 8c f9 f3 3a 0e 29 50 bd ab a3 19 bd
       -0.056575257 0.00186138 -0.050820403 -0.0375096
000290 31 87 e2 bc ad ae 64 bd 0e bc 6e bd 45 e8 6e 3d
       -0.027652355 -0.055830646 -0.05828481 0.05832698
0002a0 cb f3 06 3a 94 51 b0 bc 87 0a 00 3d e7 4b df 3c
       0.00051480223 -0.021523274 0.03126004 0.027257873
0002b0 2f 6e 5d 3d d1 63 53 bd 8d 67 b2 3c 88 e3 22 bd
       0.054060157 -0.051608864 0.021777892 -0.039767772
0002c0 05 b3 5a bc 7d 22 48 bd b6 1b 5c bd 8c a9 2b bd
       -0.013348346 -0.048861016 -0.053737365 -0.04190974
0002d0 0c b5 41 3d b6 3d 2b bd 18 27 30 bd ef 46 11 bd
       0.0472918 -0.0418069 -0.043006033 -0.03546804
0002e0 92 ae 2f 3c 2d 22 11 3d 1d 6b 37 bd b4 19 85 3c
       0.010722773 0.035432983 -0.044779886 0.016247608
0002f0 70 bf f3 3c 04 05 1b 3d 54 01 25 bd ea f8 eb bc
       0.02975437 0.03784658 -0.04028447 -0.028805215
000300 12 85 ff 3b d6 bb 52 3d f5 1a 34 bd a3 9f 5d 3c
       0.0077978456 0.051448666 -0.04397102 0.01352683
000310 90 8c 60 bd b2 af 78 3d 46 ff 84 3c 50 63 34 3b
       -0.05482155 0.06071443 0.016235005 0.0027525015
000320 22 c8 11 3d 2d 61 67 bc 50 13 12 bd 30 6e 77 3c
       0.035591252 -0.01412229 -0.03566295 0.015101954
000330 95 ed 37 bd 5d 02 c6 bc 9b 3a 40 bc 5c 73 56 bd
       -0.04490431 -0.024171049 -0.011732723 -0.05235611
000340 54 57 f9 3c 52 79 69 bd d7 7a 70 3c e2 a0 bb bb
       0.03043715 -0.057000466 0.014677725 -0.005725966
000350 97 9e 68 bd c0 cb d9 bb 13 85 5b bc ce 69 1f bd
       -0.056791868 -0.0066466033 -0.013398427 -0.038919263
000360 67 48 66 3d a8 9c 49 bd 45 14 91 bc 8e 24 44 bd
       0.056221392 -0.049221665 -0.01770986 -0.047886424
000370 90 f4 5b bc cc 38 dc bc f5 80 14 3c 93 49 48 3d
       -0.013425007 -0.026882552 0.009063949 0.04889829
000380 d5 aa 2e bc c3 bc 5c 3b 0e ab 72 bd c2 d4 e5 3c
       -0.010660847 0.0033681847 -0.05924516 0.028055552
000390 2d 12 23 bb 85 d3 f8 bb 0c 84 19 bd 05 ca 2a bd
       -0.002488266 -0.0075935745 -0.037479445 -0.041696567
0003a0 d1 06 62 bd 24 91 60 3d 9d 69 1e 3d bc 31 77 bd
       -0.055182282 0.054825917 0.03867494 -0.060350165
0003b0 b2 5e 98 3c 1c 98 6d 3d d4 2e c7 3c 59 08 b5 bb
       0.018599842 0.05800639 0.024314322 -0.0055246768
0003c0 ca 07 50 bc 09 94 e8 3c 87 b3 18 bd 71 b9 42 3d
       -0.01269717 0.028390901 -0.037280586 0.047540132
0003d0 1f c7 31 bd 5f fe 76 bd d9 da 0e 3d 97 0f e6 3c
       -0.043402787 -0.06030118 0.03487668 0.028083606
0003e0 fd 0f 96 bc 3d 26 43 3d 56 f6 12 3b 28 f1 8b 3d
       -0.01831817 0.04764389 0.002242466 0.06833106
0003f0 71 04 17 3d a0 02 dd 3b 43 70 33 3c 67 2b 99 3d
       0.03686947 0.0067446977 0.010952058 0.074789815

head.6.bias f4 [128]
000000 85 31 4c 3d 72 f9 4a bc 90 09 7c 3d 40 b1 99 bc
       0.049851913 -0.012388574 0.061532557 -0.018761277
000010 05 15 46 3d 1e 65 39 3d 74 c1 84 bd 47 26 fb 3c
       0.04835989 0.04526245 -0.06482211 0.0306579
000020 53 79 04 bd af ea b1 3d 67 bb 59 3c ab f9 b8 3b
       -0.032342266 0.086873405 0.013289309 0.005644997
000030 30 b0 7f bd a1 a2 a2 bb 39 ba 04 3d fb 08 4c bd
       -0.062423885 -0.0049632345 0.03240416 -0.049813252
000040 44 22 15 bc 28 59 55 3d 1c a5 2d bd bd 04 d5 3c
       -0.009102408 0.05208698 -0.04239379 0.026003236
000050 cf 4f dd bc 9b 1f 68 bc 5e b6 84 bc 78 fe 8c bd
       -0.027015595 -0.014167692 -0.01620024 -0.068844736
000060 d9 96 39 bc 3e af 0b bc 68 88 07 3d ed dd 59 3d
       -0.011327469 -0.008525668 0.03308907 0.05319016
000070 6b 60 38 3d 6e 1c 6e bc 17 a8 4c 3c d9 f6 86 bd
       0.045013826 -0.014533145 0.012491248 -0.06590051
000080 36 0a 30 3b bb 9a 2d 3d f5 f3 09 bd 31 24 14 bb
       0.0026861555 0.04238389 -0.03367992 -0.002260458
000090 cf 39 38 bd 1a 91 b7 bd 29 8c 88 bd 6a 6b 35 3d
       -0.044977006 -0.08963223 -0.066673584 0.04429189
0000a0 a8 68 3c bd bf d6 52 3d 2d 24 bb 3c 6f 17 8c 3d
       -0.045998245 0.05147433 0.022844398 0.06840407
0000b0 f1 a7 5a bd 97 e6 aa bc 3b 12 43 3d 62 5f 96 bc
       -0.053382818 -0.020861907 0.047624808 -0.018356029
0000c0 db 3a 8f 3c 09 3d 0c 3c d5 40 2b bc 3e ae 9c bc
       0.01748412 0.008559474 -0.010452469 -0.019126054
0000d0 eb 4a 00 3d 1d 54 87 3d ae 6e 2b bc 54 56 58 3c
       0.031321447 0.0660784 -0.0104634 0.013204176
0000e0 40 ea b0 bc 99 b0 9a 3c e1 a4 92 bc 56 b3 ca 3c
       -0.021596074 0.018883036 -0.017900886 0.024743717
0000f0 b8 cd 45 3d 89 d4 23 bd 90 04 3b bd 39 17 4a bc
       0.04829189 -0.03999761 -0.045658648 -0.012334638
000100 71 57 95 bd 90 4b 99 bb 21 bb 59 bd 55 c6 82 bd
       -0.07292069 -0.004678197 -0.053156976 -0.06385485
000110 00 49 13 bd 9a 30 b9 3c 92 9b de b9 10 e6 c0 3c
       -0.03595829 0.022606183 -0.0004245905 0.023547202
000120 e2 00 70 3d 89 f1 5d bd 29 1b fe bc a1 19 f7 bc
       0.058594592 -0.054185424 -0.03101881 -0.030163588
000130 35 4a 93 bc d4 3d 34 bd 5d dd 95 bd 69 b3 d5 bb
       -0.01797972 -0.044004276 -0.07317612 -0.0065216315
000140 07 bb 5e 3d 1d cc 54 3d fb 5e 7a bc 5a b5 2e bd
       0.054377582 0.05195247 -0.015281434 -0.04265342
000150 79 c9 53 3c 1b 6f 1b 3d ad 9b 82 bd eb d6 6c bc
       0.012926453 0.037947755 -0.06377349 -0.014455537
000160 76 e0 34 3d 99 22 55 3c 01 8f a5 3d 0b 7d fe bc
       0.044159375 0.013008737 0.080839165 -0.031065485
000170 2a 83 6b 3d 11 f0 f9 bc 5d 13 fb 3a f2 d5 54 ba
       0.057498135 -0.03050998 0.0019155551 -0.00081190385
000180 70 bf 98 3c c8 5f c4 bb 62 dd b5 3b 05 7b 67 bd
       0.018645972 -0.0059928633 0.0055500725 -0.056513805
000190 80 5e e4 3c f3 76 6b 3d ca 18 8e 3d 27 b5 22 bd
       0.027877092 0.057486486 0.06938322 -0.03972354
0001a0 d0 2d 71 3d 71 27 01 3d 29 83 f1 3c 5b 15 34 3d
       0.05888158 0.031531755 0.029481487 0.04396568
0001b0 6b 2b ef 3c 13 68 03 bb 59 a3 12 bd c1 c3 2a bb
       0.029195508 -0.0020051047 -0.03580031 -0.002605662
0001c0 45 cf 59 3d 45 d7 78 bd 68 01 8c 3c 67 50 03 3d
       0.053176183 -0.060752172 0.017090514 0.0320591
0001d0 f6 37 0e 3d d0 35 7e bd 7e bb 40 bd 71 a7 c4 3a
       0.034721337 -0.06206304 -0.047053806 0.0015003515
0001e0 fd 6b 96 3b 03 5f cb bb ce a8 13 3d c2 bd c2 3c
       0.00459051 -0.0062063946 0.036049657 0.023772124
0001f0 8c d8 74 3c 51 a9 0b 3d 28 73 3a 3d 30 34 44 3d
       0.014944207 0.03409702 0.045519978 0.047901332

head.9.weight f4 [7, 128]
000000 8c 4b 86 3d b3 19 8c ba 18 ae 3d 3c 27 69 d8 bc
       0.06557378 -0.0010688811 0.011577152 -0.026417328
000010 fe 24 cf bc f1 c1 b0 3c ba af 9b bd fd 65 ce bb
       -0.025286194 0.021576853 -0.076018766 -0.006298779
000020 c4 ec 88 3d 5a 34 d2 3b 15 06 96 bb d8 29 26 3d
       0.066857845 0.006414932 -0.0045783618 0.04056725
000030 ce 59 11 bd b1 7c 8d 3d fd b4 a9 3c 1a 16 1b bd
       -0.035486035 0.069085486 0.020716185 -0.037862875
000040 71 e8 08 bd eb 95 34 3d e1 90 08 3d 08 2d 0f 3c
       -0.0334248 0.044088285 0.033341292 0.008738764
000050 16 b7 80 bd 85 30 d3 bc 77 c3 25 3d 05 86 8a bd
       -0.06284921 -0.025779972 0.040469613 -0.067638434
000060 fa 76 70 bd 30 70 80 bb 4c 96 18 3d 74 4b 47 3c
       -0.058707215 -0.003919624 0.03725271 0.0121639855
000070 7d bf 11 3d f9 37 0d 3b d6 9c 3c 3d fc e9 8a bc
       0.035583008 0.0021548255 0.046048008 -0.016957276
000080 76 7b 14 3d 70 7d a1 bb 36 88 41 3b 8e f6 e9 bb
       0.036250554 -0.0049282834 0.002953065 -0.0071399873
000090 0b 07 35 bd 0e fb 1b bc da e1 4e bd c1 ad 83 bd
       -0.04419617 -0.009520305 -0.050508358 -0.06429625
0000a0 4b 35 91 bc 13 fa 7f 3d 90 64 88 3b 0a e2 42 3d
       -0.017725607 0.06249435 0.0041623786 0.04757885
0000b0 d8 4f 94 3c b7 b5 da bc 67 0c 6f bd 5c e7 03 3d
       0.018104479 -0.026697977 -0.058361437 0.032203063
0000c0 15 75 4f 3d 09 9a 60 3d 72 30 2c 3c ac d1 8f bb
       0.050648768 0.0548344 0.010509597 -0.0043890085
0000d0 e2 ef 79 bd b2 59 2e 3d aa da 7a bd 1f db ad 3c
       -0.061019786 0.04256601 -0.06124369 0.02122265
0000e0 fb 8b 32 bd 8e b9 84 3d 20 ea 90 bd c5 ad ad 3b
       -0.043590527 0.06480704 -0.07075906 0.005300256
0000f0 f6 bf fc 3c a9 9b d9 bc ea cb da bb ef 10 ef 3c
       0.030853253 -0.026563482 -0.0066771405 0.02918288
000100 27 90 87 bd de f3 0e 3c e3 83 85 bc 13 3a c9 ba
       -0.06619292 0.008725135 -0.01629824 -0.001535239
000110 b1 15 a2 3c c6 42 80 3c bd d1 f5 bc 27 c4 72 3d
       0.019785734 0.01565684 -0.030007238 0.059269097
000120 2f e2 6a 3b aa 11 5b bd b9 89 4e bd 75 e1 d7 3c
       0.0035840382 -0.053483643 -0.05042431 0.026352623
000130 d5 83 9b bd 34 63 ca 38 6d 61 f0 bc 34 a9 19 bc
       -0.07593504 9.6505886e-05 -0.029343331 -0.00937872
000140 73 b4 e1 3b 73 5d 9b 3d 89 d0 86 bc 81 5b 34 bc
       0.0068879663 0.075861834 -0.01645686 -0.011008144
000150 c6 2a 97 3d cc 70 81 bd d6 f9 1d bc 34 c6 7d bc
       0.07381205 -0.063203424 -0.009642085 -0.01548915
000160 fa 9e 29 3b 83 6f 1b 3d d5 63 12 3c f6 59 4f bd
       0.002588211 0.037948143 0.008934935 -0.050622903
000170 42 77 81 3d 01 ba e2 bc b4 3c 9a bd 9c db a0 3d
       0.06321575 -0.027676584 -0.075311095 0.07854387
000180 1e 5b d1 3c 4d 61 43 3d 1d ac 92 bb 7b 21 dd 3b
       0.025556143 0.047700215 -0.004476084 0.006748376
000190 51 a3 a4 3d b2 05 0a 3d 17 2f 16 3b 20 89 24 3c
       0.08038963 0.033696838 0.0022916251 0.010042459
0001a0 00 6c 8e 3d 65 af b6 ba 37 7f 17 bc 30 8d 36 3c
       0.06954193 -0.001393777 -0.009246639 0.01114206
0001b0 eb 96 ef ba 38 b7 2f bd 85 47 69 3d 8e 87 89 3d
       -0.001827923 -0.04289934 0.056952972 0.06715308
0001c0 f4 75 90 3c 1d 60 84 bd 7d de 97 bd 47 1d 88 bc
       0.01763437 -0.06463645 -0.07415483 -0.016615523
0001d0 e3 22 be bc e3 ed c1 3b cc 30 85 3d 73 f2 e6 bc
       -0.023209995 0.005918251 0.06503448 -0.02819178
0001e0 a2 40 17 bd 55 40 00 ba 20 26 de 3c 5f bd 3c bd
       -0.036926873 -0.0004892399 0.027117789 -0.046079036
0001f0 d6 f7 05 3d 01 24 86 bd 13 28 02 3c 2c a4 84 3d
       0.032707058 -0.06549836 0.007944125 0.06476626
000200 04 16 54 3c 05 b7 20 be ee 8d 4c 3d 9e 49 08 3c
       0.012944702 -0.15694816 0.049940042 0.008318333
000210 25 58 7b bd 4b ca ab bd be 54 19 bd e0 ff f6 3d
       -0.061363358 -0.08388194 -0.037434332 0.12060523
000220 06 90 8f bb fe 0f 6a bd ea 21 c8 bd 8e c9 6e bd
       -0.0043811826 -0.057144158 -0.097720936 -0.058297686
000230 5f e5 93 bc fe f2 14 bc 88 59 0a bd 39 71 d4 bd
       -0.018053709 -0.009091137 -0.03377679 -0.10373158
000240 18 66 c0 3d e0 b5 a6 bd 57 35 d4 bc 11 41 b3 bd
       0.09394473 -0.08140159 -0.02590434 -0.08752645
000250 27 7e 6c bd b9 65 c8 bd 7c 2f 3b bd 10 69 30 3d
       -0.057737496 -0.09785027 -0.04569958 0.043068945
000260 c6 7f 9a 3d f7 91 53 bd 50 62 d8 3d 9c d3 91 3d
       0.07543902 -0.051652875 0.105656266 0.071204394
000270 f8 30 75 bc bf 06 a2 3d 29 d8 09 bc cb d7 a0 3d
       -0.014965288 0.07911443 -0.008413353 0.07853659
000280 65 a2 f1 3d 6b cd e2 bd 8f 13 1b 3d ce 4a 37 bd
       0.117985524 -0.110743366 0.03786045 -0.044749074
000290 49 38 0b bd f0 94 ab bd 24 2d 67 bd 3d 10 96 bc
       -0.033989225 -0.08378017 -0.056439534 -0.01831829
0002a0 05 58 79 bc ca b1 b8 bd 35 1b 7a 3d d9 ca 16 bd
       -0.015218739 -0.090182856 0.061061103 -0.036814544
0002b0 b9 cc 0a be b8 ae a3 3d 79 b0 fb bd 4c 38 9c bc
       -0.13554658 0.07992309 -0.12289519 -0.019069813
0002c0 c5 ba 7d 3d 29 a6 1c bb a2 6b d2 3d d0 dc 4e bc
       0.061945695 -0.002390275 0.102744356 -0.012625888
0002d0 ad b0 ab bd dc 88 56 3d c5 76 45 3d f6 0e 48 3d
       -0.083833076 0.052376613 0.04820897 0.048842393
0002e0 9a 1a 56 3c 3f 2c dd bd 08 ad 7d 3d c2 43 0a 3e
       0.013067866 -0.10799455 0.061932594 0.1350241
0002f0 a3 54 03 be 07 16 2c 3d f6 aa 2d bd 5a ab cf bc
       -0.12825255 0.042013194 -0.04239937 -0.025350261
000300 bd 91 54 bd 3d ee 09 3d 47 06 11 bc ec 72 a4 3d
       -0.0518968 0.033674467 -0.008851594 0.08029732
000310 66 36 e2 bd 1a b0 48 3d df 01 b3 bd a4 df 11 3e
       -0.11045532 0.04899607 -0.08740591 0.14245468
000320 78 5e 01 3a ce 4a d2 3d 45 83 60 3d 5d 21 2f bd
       0.00049350364 0.10268174 0.05481269 -0.042756427
000330 c0 50 bb 3d 4a 0c 3a 3e f6 8b fe 3c 29 1d 3d bd
       0.09146261 0.1816875 0.031072598 -0.046170387
000340 b2 63 9a 3c 1a 4a a1 3b 09 70 d0 3d d7 0d 5e 3d
       0.018846367 0.0049221637 0.10177619 0.054212417
000350 cd 2e ac 3d bd 75 b5 3c 45 19 88 bd ea 2a 9f 3d
       0.08407364 0.022150869 -0.06645445 0.07771857
000360 1f 26 02 3e 47 13 31 3d ef 74 48 3c 2b 14 a4 bd
       0.12709855 0.043231275 0.01223491 -0.08011659
000370 cd 0d ba bc cf a5 95 bc 62 a7 b8 bd 09 e0 a1 3c
       -0.022711659 -0.01826754 -0.09016301 0.019760149
000380 72 05 b3 3c de 2a 6f bc 66 87 13 3d 4e 1a 9b 3d
       0.021853182 -0.014597623 0.036017798 0.075733766
000390 d2 1c fc bc 88 78 b4 bc a5 86 16 3d fe e7 53 ba
       -0.030775461 -0.02203013 0.0367495 -0.0008083581
0003a0 27 33 b5 3d 5f 76 5f 3c ea 24 03 be 5d 38 71 3a
       0.08847647 0.013639062 -0.1280705 0.0009201819
0003b0 b3 5b a1 bd 3f 31 c5 3d b2 51 c3 bd 79 27 bb 3d
       -0.07878818 0.096285336 -0.095370665 0.09138388
0003c0 b8 5e 08 be f5 60 d8 3d 13 73 2f bd 95 04 ae bb
       -0.13317382 0.10565368 -0.042834353 -0.005310605
0003d0 d9 48 34 3d 54 18 cc 3c e6 00 55 bd 6f a1 12 3d
       0.044014785 0.024913944 -0.05200281 0.035798486
0003e0 3b 94 25 3d d3 ff 17 bd 9f 43 a8 3d 66 cc a7 bd
       0.040424567 -0.037109207 0.08216023 -0.08193283
0003f0 66 cc 1b 3d fe 14 68 3d a2 c5 e6 3d 09 ed 9e 3d
       0.038036726 0.056660645 0.11268164 0.077600546

head.9.bias f4 [7]
000000 af 6b 80 bc 8a a0 6c bd 9c 36 a1 3c 8b 85 0a be
       -0.015676348 -0.05777029 0.01967936 -0.13527505
000010 ea ab 89 bd 6d ad c9 3d fd c2 51 bd
       -0.06722243 0.098475315 -0.051211346
