script/tabpfn_step9_causal_final.pth (torch, 685065 bytes, 8 tensors)

head.0.weight f4 [512, 9]
0	0x3d0c1ecd	0.03420906
1	0xbdce1486	-0.10062508
2	0x3e586908	0.21133816
3	0x3e767fa2	0.24072126
4	0x3d787c62	0.060665496
5	0xbe3d8581	-0.18507959
6	0x3ecc22fc	0.3987044
7	0xbdd5d160	-0.10440326
8	0x3c8ee189	0.017441528
9	0x3d16c86b	0.036812227
10	0xbe04be49	-0.12963213
11	0x3e7512d9	0.23932971
12	0xbe9c7f6d	-0.30565968
13	0xbe9a3c9a	-0.3012436
14	0xbe820d56	-0.254008
15	0x3e582cd2	0.21110848
16	0x3e495eae	0.19665024
17	0x3dfa4ba6	0.1222146
18	0x3e3820a5	0.17981203
19	0xbd1a5f79	-0.037688706
20	0x3e9dd02c	0.30822885
21	0x3dc4c032	0.09606971
22	0xbe35b8dc	-0.177463
23	0xbd800673	-0.0625123
24	0x3e3be67a	0.18349639
25	0xbcb07b50	-0.021543175
26	0x3e2ff47d	0.17183109
27	0x3e4a1f06	0.19738397
28	0x3e103065	0.14080961
29	0xbe2d2f5f	-0.16912602
30	0x3dcc98a0	0.099900484
31	0xbe8247db	-0.25445446
32	0xbe3f02ad	-0.18653364
33	0x3e2e4c19	0.17021216
34	0x3e77ecad	0.24211378
35	0x3e977aac	0.2958578
36	0x3e0d464b	0.13796346
37	0x3d2fa84f	0.04288512
38	0x3e88e56c	0.26737535
39	0x3d38218a	0.04495386
40	0xbd953b6d	-0.07286725
41	0x3ea1d16c	0.3160509
42	0xbeb32bac	-0.34994256
43	0xbe129ea8	-0.14318335
44	0xbecbe1bc	-0.3982066
45	0x3e5a96f4	0.21346647
46	0xbe61aec9	-0.22039331
47	0xbd91116c	-0.07083401
48	0x3d59364c	0.053030297
49	0xbd990175	-0.07470981
50	0x3ddb1d27	0.1069892
51	0xbe1dfbc5	-0.15428074
52	0xbe5a984c	-0.21347159
53	0xbe226d07	-0.15861903
54	0xbb0921dd	-0.0020924725
55	0xbd7420bb	-0.059601527
56	0xbe0db24d	-0.13837548
57	0x3eb2749d	0.34854594
58	0x3e242f15	0.16033585
59	0xbe4972ef	-0.1967275
60	0xbe9fb9a9	-0.31196335
61	0xbe82b914	-0.25531828
62	0x3d93df2c	0.07220301
63	0x3d82c1dd	0.06384633
64	0xbdb7b732	-0.089704886
65	0x3e97a62d	0.2961897
66	0xbe724635	-0.23659594
67	0x3e812317	0.25222084
68	0x3e80cc55	0.25155893
69	0xbe360a29	-0.17777313
70	0xbebd0e70	-0.36925077
71	0x3e8a656e	0.2703051
72	0xbd1c85da	-0.03821359
73	0x3de4c7ea	0.11170943
74	0xbb45d9ed	-0.0030189708
75	0x3ea5ee6c	0.32408464
76	0xbe526825	-0.2054754
77	0xbde0f1dc	-0.10983631
78	0x3e2ab9e6	0.16672477
79	0x3eaaa550	0.33329248
80	0x3e98b17f	0.2982292
81	0x3c3ed73d	0.0116479965
82	0xbe5ed55b	-0.21761076
83	0xbe5e466d	-0.21706553
84	0x3e479887	0.19491778
85	0xbe447946	-0.19186887
86	0xbe458988	-0.19290745
87	0x3e1747e5	0.1477352
88	0x3e34a7e0	0.17642164
89	0x3ea38d27	0.31943628
90	0x3d8881c7	0.06665378
91	0xbe0a6713	-0.13515882
92	0x3c6b7897	0.014372013
93	0xbe7d0e89	-0.24712576
94	0xbe1647c2	-0.14675811
95	0xbeaf38c9	-0.3422301
96	0xbdbb5f6b	-0.09149059
97	0x3e9a82c2	0.30177885
98	0xbea1a794	-0.31573164
99	0x3d597f94	0.053100184
100	0xbda3b5af	-0.07993638
101	0xbd323960	-0.04351175
102	0xba9833fb	-0.0011612171
103	0xbcf58f85	-0.029975662
104	0x3e9b39fb	0.30317673
105	0x3e159b71	0.14610077
106	0xbe71616f	-0.23572324
107	0xbe95351a	-0.29142076
108	0xbe1c2416	-0.1524814
109	0xbe3907d9	-0.180694
110	0xbe3bd1e0	-0.1834178
111	0x3e9240e0	0.2856512
112	0x3e7481f3	0.23877697
113	0x3eb830db	0.35974774
114	0x3e0e5945	0.13901241
115	0xbc7f659e	-0.015588192
116	0xbeabf762	-0.33587176
117	0x3e669056	0.22515997
118	0x3e0ec072	0.139406
119	0x3dd3822a	0.10327561
120	0xbc327b23	-0.010893616
121	0xbe05ec57	-0.13078438
122	0xbe980075	-0.2968785
123	0x3ec90e14	0.39268553
124	0x3e5cd9db	0.2156748
125	0xbe949ae9	-0.29024437
126	0xbc79b028	-0.015239753
127	0x3e310055	0.17285283
128	0x3e662607	0.22475444
129	0xbb634c7e	-0.0034683044
130	0x3c36c127	0.01115445
131	0xbe7bf7a7	-0.2460619
132	0x3e56285e	0.20913836
133	0xbd8ce212	-0.06879057
134	0x3de21859	0.110398
135	0x3d59dc90	0.05318886
136	0xbe116595	-0.14198907
137	0xbe7122ba	-0.23548403
138	0x3ec87d8e	0.3915829
139	0x3db016a0	0.085980654
140	0xbe957dc7	-0.29197523
141	0xbeae8adb	-0.34090313
142	0xbe7418eb	-0.2383763
143	0xbd61e3f8	-0.05514905
144	0xbc5598df	-0.013036936
145	0xbe35cf0f	-0.17754768
146	0x3e711688	0.23543751
147	0xbd9f8d97	-0.07790678
148	0x3cb5d29d	0.022195155
149	0xbdd6ed37	-0.10494464
150	0xbe5abbf5	-0.21360762
151	0xbd97940b	-0.07401284
152	0x3e5e502a	0.21710268
153	0xbe824a62	-0.25447375
154	0x3e3cc72e	0.18435356
155	0x3e9e99a4	0.30976593
156	0x3e4b2654	0.1983884
157	0x3daaf395	0.08347241
158	0xbdc9a75e	-0.09846376
159	0x3eb4f473	0.3534275
160	0x3e58f4b1	0.21187092
161	0xbdd4d5e2	-0.103923574
162	0x3dc5e323	0.096624635
163	0xbe267925	-0.1625715
164	0x3c193fd0	0.009353593
165	0xbd0f4b4b	-0.034983914
166	0xbe5b5e5e	-0.21422717
167	0xbe62afc3	-0.2213736
168	0x3deb6a86	0.11494927
169	0x3d4b7164	0.049668685
170	0xbeac1c0e	-0.33615154
171	0x3dd7acc4	0.10530999
172	0xbe1b9c1e	-0.15196273
173	0x3c3e1b13	0.011603135
174	0xbe6b9ce1	-0.23009063
175	0xbe5fd6e6	-0.21859321
176	0xbe1c9734	-0.15292054
177	0x3d2a5b1a	0.041590787
178	0x3e62b48b	0.22139184
179	0xbe4029f4	-0.18766004
180	0xbc951aa8	-0.018201187
181	0xbe942d4e	-0.28940815
182	0x3e42bd6b	0.1901757
183	0x3eaced9b	0.3377503
184	0xbe690616	-0.22756228
185	0x3e93e628	0.28886533
186	0x3e4239c2	0.18967345
187	0xbeb58c40	-0.35458565
188	0x3eba3dbd	0.36375228
189	0x3d91cfff	0.0711975
190	0xbc9105ac	-0.0177029
191	0xbe165680	-0.14681435
192	0x3e07ccbe	0.13261697
193	0x3d85a42b	0.06525453
194	0xbdaf6e63	-0.085659765
195	0x3e98a696	0.29814595
196	0x3ea26fcc	0.3172592
197	0xbd4dcfdc	-0.05024706
198	0xbdbf788b	-0.093491636
199	0x3e0cb7b2	0.13741949
200	0xbe64c922	-0.22342351
201	0x3eaddaa5	0.33955875
202	0x3dea9e20	0.11455941
203	0xbeef8399	-0.4678009
204	0xbebeae65	-0.37242427
205	0xbe7fc3ef	-0.24977086
206	0xbe1697a2	-0.14706281
207	0xbc911051	-0.017707976
208	0xbd7d3812	-0.06182105
209	0xbe0cb0bc	-0.13739294
210	0x3cd73ef0	0.026275128
211	0xbe7c584b	-0.24643056
212	0xbe26a52e	-0.16273949
213	0xbe108a76	-0.14115319
214	0x3d8262db	0.063665114
215	0xbea2e583	-0.3181573
216	0xbd0a717c	-0.033799633
217	0x3e788286	0.2426854
218	0xbd17a298	-0.037020296
219	0x3da2975d	0.079390265
220	0x3d5ec860	0.05439031
221	0x3cc998f3	0.024609065
222	0x3eb33b30	0.35006094
223	0x3d755e41	0.05990434
224	0x3e5b9b37	0.21445929
225	0xbd714252	-0.05890114
226	0x3d5e4aff	0.05427074
227	0xbd75d9c7	-0.06002214
228	0xbdbcea29	-0.0922435
229	0x3e57ed6c	0.21086663
230	0xbd8d2cb7	-0.06893294
231	0x3ed479e5	0.41499248
232	0x3e825a4f	0.25459525
233	0xbda0eda4	-0.07857826
234	0xbe8131c2	-0.25233275
235	0xbe15d44d	-0.14631768
236	0xbd284549	-0.0410817
237	0x3dbb6e8b	0.09151944
238	0xbde33eb0	-0.11095941
239	0x3ea3eda2	0.32017237
240	0x3e2403db	0.16017096
241	0xbebbf076	-0.36706895
242	0xbd49ab13	-0.049235415
243	0x3e8e6d1b	0.27817616
244	0x3e620ea7	0.22075902
245	0x3e0e6bfe	0.13908383
246	0x3d65356d	0.055959154
247	0xbe691d9b	-0.227652
248	0x3e2c3f4a	0.16821018
249	0x3e3f565b	0.18685286
250	0x3ec94efb	0.3931807
251	0x3d3db138	0.046311587
252	0x3e2e5d58	0.17027795
253	0xbd01d24f	-0.031694707
254	0xbe7133f2	-0.23554972
255	0x3e347e70	0.17626357

head.0.bias f4 [512]
0	0xbdf4c72d	-0.11952052
1	0x3a6405e5	0.0008698388
2	0x3e03b726	0.12862834
3	0xbe9abdf4	-0.30223048
4	0x3e31e1e3	0.17371325
5	0x3d7de1b7	0.061982837
6	0x3d7407a6	0.059577607
7	0xbe5fe542	-0.21864799
8	0xbd4b3dc3	-0.049619447
9	0x3e357679	0.17720975
10	0x3e2bfe40	0.16796207
11	0x3d08a7f8	0.033363312
12	0xbe9936e6	-0.29924697
13	0x3e4d3432	0.20039442
14	0xbd3e56d4	-0.046469525
15	0x3e3880aa	0.18017831
16	0xbde0be5f	-0.109738104
17	0x3c10d65e	0.008840172
18	0xbe621a89	-0.22080435
19	0xbe9c3cee	-0.30515236
20	0xbe64f893	-0.22360449
21	0x3e5ed095	0.21759255
22	0xbd8939e7	-0.06700497
23	0xbe85f1d8	-0.26161075
24	0xbd58cf83	-0.052932274
25	0x3e4f1892	0.20224217
26	0xbe23d54c	-0.15999335
27	0xbd9197fd	-0.071090676
28	0x3e1318ef	0.1436498
29	0x3e031de9	0.12804379
30	0xbcf96e60	-0.030448139
31	0xbdeb624b	-0.11493357
32	0xba93e313	-0.0011282883
33	0xbe3e70b9	-0.18597688
34	0x3e1f5209	0.15558638
35	0x3de52346	0.111883685
36	0xbac9b849	-0.0015390004
37	0xbd3985ff	-0.045293804
38	0xbd543cae	-0.05181568
39	0x3e995974	0.2995106
40	0xbe0f871d	-0.14016385
41	0xbe9b088b	-0.30279955
42	0xbe0caf1c	-0.13738674
43	0xbd18860a	-0.037237205
44	0xbe8a0a0d	-0.26960793
45	0x3e836b64	0.2566787
46	0xbdaf4a85	-0.08559135
47	0xbe531316	-0.2061275
48	0x3e8ec208	0.2788241
49	0xbce24479	-0.027620541
50	0x3d216e0c	0.03941159
51	0xbdeab090	-0.11459458
52	0xbe266a37	-0.16251455
53	0x3df9a8f8	0.12190431
54	0x3e913975	0.2836415
55	0xbe6bf935	-0.23044284
56	0xbe7615a6	-0.24031696
57	0xbe17b66e	-0.14815685
58	0xbe517450	-0.20454526
59	0x3c920989	0.017826812
60	0xbe962b89	-0.2933009
61	0xbe295d4f	-0.165395
62	0x3e0375c3	0.12837891
63	0x3e71f549	0.23628725
64	0xbe6c5452	-0.2307904
65	0xbe4999a9	-0.19687523
66	0x3e93ebdc	0.28890884
67	0x3e1d2823	0.15347342
68	0x3e3d1342	0.18464378
69	0x3e50cf92	0.20391682
70	0x3e9705de	0.29496664
71	0x3e7f7ece	0.24950716
72	0x3e11faf7	0.14255892
73	0xbe505f34	-0.20348817
74	0x3e80073e	0.25005525
75	0xbe8e8390	-0.2783475
76	0x3e7a984c	0.24472159
77	0x3d9a8af6	0.07546036
78	0xbcc39e37	-0.023879154
79	0x3e892f04	0.26793683
80	0x3e8aa4ca	0.2707885
81	0x3e443262	0.19159845
82	0x3e2a133b	0.16608898
83	0xbea23fbe	-0.31689256
84	0xbdf6b54c	-0.120462984
85	0xbe32bacf	-0.17454074
86	0xbe5f6a64	-0.21817929
87	0x3e8c2df8	0.2737882
88	0x3dca25eb	0.098705135
89	0x3d02dd2b	0.031949203
90	0xbe81b67d	-0.2533454
91	0xbe045f1d	-0.12926908
92	0x3d3e34d9	0.04643712
93	0xbdf91f9c	-0.12164232
94	0x3e91d7ae	0.28484863
95	0xbe35a376	-0.17738137
96	0x3e13e59c	0.14443058
97	0xbe7984b5	-0.2436703
98	0x3e2ccf29	0.168759
99	0xbdedf4e6	-0.11618976
100	0x3e88f483	0.26749048
101	0xbddc2cb0	-0.10750711
102	0x3dcb7fc8	0.09936482
103	0xbe7fdde8	-0.24986994
104	0xbe666892	-0.22500828
105	0xbd0d7633	-0.03453655
106	0xbe880229	-0.26564148
107	0xbe3b08e2	-0.18265107
108	0x3e8488d7	0.2588565
109	0x3dc40ab3	0.09572353
110	0x3e71e042	0.23620704
111	0x3e01976e	0.12655422
112	0x3e76b141	0.24091054
113	0xbe6c3dfd	-0.23070522
114	0x3e7d8c60	0.2476058
115	0x3cefb5f2	0.029261563
116	0xbe1e4107	-0.15454493
117	0xbcc25ab9	-0.0237249
118	0xbe03d039	-0.128724
119	0xbe570df1	-0.21001412
120	0xbdbb3719	-0.091413684
121	0xbdf34a8c	-0.11879453
122	0x3dfed880	0.12443638
123	0xbe90ebaf	-0.28304812
124	0x3e1e5d8e	0.15465376
125	0xbe8bfe29	-0.27342346
126	0xbe881ad7	-0.26582977
127	0x3c5ea2fa	0.013588661
128	0x3dea0b10	0.11427891
129	0x3dda392a	0.106554344
130	0xbea70dba	-0.3262766
131	0x3e025a8d	0.12729855
132	0x3e86cead	0.26329556
133	0xbe9509e5	-0.2910911
134	0xbe703156	-0.2345632
135	0x3e344431	0.17604138
136	0xbd737d95	-0.059445936
137	0x3da953cd	0.08267937
138	0xbe48767c	-0.19576448
139	0x3b74166f	0.0037244817
140	0xbe5406e5	-0.20705755
141	0xbe1104ae	-0.14161941
142	0xbe1da370	-0.15394378
143	0xbe9997fa	-0.2999876
144	0x3e3cf4a2	0.18452695
145	0xbe463b7e	-0.19358632
146	0xbe9aeed1	-0.30260327
147	0x3e559e27	0.20861112
148	0xbe86441d	-0.2622384
149	0xbe5413fa	-0.20710745
150	0xbea3fe87	-0.32030126
151	0x3d482f11	0.04887301
152	0x3d995fd6	0.074889824
153	0xbdfba062	-0.1228645
154	0x3e8727ae	0.2639746
155	0xbc97e0fc	-0.018539898
156	0x3bb66c32	0.005567097
157	0xbe23454d	-0.15944405
158	0xbd5f718d	-0.05455165
159	0x3e3e9b2d	0.18613882
160	0xbe325f83	-0.17419247
161	0x3c5d5e4a	0.01351125
162	0x3e23f4a0	0.16011286
163	0x3e7729dd	0.24137063
164	0x3dd1a712	0.10236944
165	0xbe52ab8c	-0.20573252
166	0x3ce4192c	0.027844034
167	0xbde71b5a	-0.11284514
168	0x3e5b43a3	0.2141252
169	0x3e1d06fa	0.15334693
170	0x3e3104be	0.17286965
171	0x3e5a8585	0.21339996
172	0xbe841d93	-0.25803813
173	0xbe186577	-0.14882456
174	0x3e296298	0.16541517
175	0x3e88f345	0.267481
176	0x3e87f8c0	0.2655697
177	0xbd972a0c	-0.07381067
178	0x3e9f06b8	0.31059813
179	0xbe8a7eeb	-0.27049956
180	0x3e245cbf	0.16051005
181	0xbe8729ba	-0.26399022
182	0xbe9575a6	-0.2919132
183	0xbe97dd02	-0.29660803
184	0xbe6203b4	-0.22071725
185	0xbe7b8e86	-0.24566087
186	0x3e58fba6	0.21189746
187	0xbce21ff9	-0.027603136
188	0xbdf8c9c6	-0.1214786
189	0xbe298e45	-0.16558178
190	0xbdd51782	-0.104048744
191	0xbe6c599b	-0.23081057
192	0x3cbe1ffe	0.023208614
193	0xbe245382	-0.1604748
194	0xbd3f87f1	-0.046760503
195	0x3d759378	0.05995509
196	0x3e983327	0.29726526
197	0xbcad5bcb	-0.021161934
198	0xbe7c6786	-0.24648866
199	0xbe9febe5	-0.3123466
200	0x3cec7214	0.02886299
201	0xbde56183	-0.112002395
202	0xbdb12d4c	-0.08651218
203	0xbe6aced6	-0.22930464
204	0xbe93abd8	-0.28842044
205	0x3e55fb4f	0.20896648
206	0xbdc8d1a8	-0.09805614
207	0x3e90cc58	0.28280902
208	0x3b73a5e4	0.0037177736
209	0x3d984d80	0.07436657
210	0xbe6ab130	-0.22919154
211	0x3e2b1a84	0.16709334
212	0x3e46dcf6	0.19420227
213	0x3e9c11bf	0.3048229
214	0xbe09506c	-0.13409585
215	0x3da02bbf	0.07820844
216	0x3e90ed58	0.2830608
217	0x3e14c020	0.14526415
218	0x3e52151d	0.20515867
219	0x3e9cf1a6	0.30653113
220	0x3d9e002e	0.07714878
221	0xbcbeaacd	-0.023274804
222	0xbe5aa8b4	-0.21353418
223	0x3d325e65	0.043547053
224	0xbe4d0a1d	-0.20023389
225	0xbe9f2ab6	-0.31087273
226	0x3dd55b44	0.10417798
227	0x3dccdc46	0.10002951
228	0xbe9a0bdf	-0.30087182
229	0x3d2f91d7	0.042863693
230	0x3e4b2055	0.19836552
231	0x3e825657	0.25456497
232	0xbd0a61c4	-0.033784643
233	0xbe0f5782	-0.13998225
234	0x3e817e03	0.25291452
235	0x3e049463	0.1294723
236	0xbdb38089	-0.087647505
237	0xbea9f6ff	-0.33196256
238	0xbe44a07f	-0.1920185
239	0x3ea298e8	0.31757283
240	0x3d217552	0.039418526
241	0x3e18e13c	0.1492967
242	0x3e870c61	0.26376632
243	0xbea7fd41	-0.32810405
244	0xbd91062d	-0.07081256
245	0x3db7dc94	0.08977619
246	0xbe4e54b4	-0.20149499
247	0xbe3d188f	-0.184664
248	0xbe312306	-0.17298517
249	0xbd31f881	-0.043449882
250	0x3c38f823	0.011289629
251	0x3db9858b	0.090586744
252	0xbe817e28	-0.25291562
253	0xbe4e02dc	-0.20118278
254	0xbe791bf9	-0.24327077
255	0xbe669e5f	-0.22521351

head.3.weight f4 [256, 512]
0	0xbcba40b9	-0.02273594
1	0x3cce3127	0.025169922
2	0x3cbc086f	0.02295324
3	0x3d08319a	0.03325043
4	0x3cb94f3e	0.022620793
5	0x3d31525f	0.043291446
6	0x3cabb421	0.020959916
7	0xbcf6f411	-0.030145677
8	0x3c30c98f	0.010790243
9	0x3bca0fa5	0.0061664158
10	0x3cde89df	0.027165351
11	0xbd1e5a16	-0.03866013
12	0x3d312be2	0.04325474
13	0xbc1a7ed2	-0.00942965
14	0x3cb308df	0.021854816
15	0xbcb311c4	-0.021859057
16	0xbcf6f83e	-0.030147668
17	0x3c7ea032	0.015541123
18	0x3c861de7	0.01637168
19	0xbd306e67	-0.043074038
20	0x3c5d1c09	0.013495454
21	0x3d2c6327	0.042086747
22	0x3cb50e31	0.022101494
23	0xbd46fa2a	-0.04857842
24	0x3c178fc8	0.009250589
25	0xbcf6122a	-0.030037958
26	0xbbeb8b91	-0.0071882685
27	0x3c450bc5	0.012026732
28	0x3d00ca78	0.03144309
29	0x3d38c4ca	0.045109548
30	0xbd20ca8b	-0.03925566
31	0xbd21535d	-0.039386142
32	0x3b34de9b	0.0027598504
33	0x3d3739b2	0.044732757
34	0x3d2f431b	0.042788606
35	0x3cb80a3f	0.022465823
36	0x3beb873f	0.0071877535
37	0x3cf8b9c4	0.030362017
38	0xbd58acde	-0.052899234
39	0xbcb63f93	-0.022247111
40	0xba6e5329	-0.00090913713
41	0x3cc867ec	0.024463616
42	0xbc3858b4	-0.011251617
43	0x3c837f12	0.016051803
44	0x3bb47013	0.0055065244
45	0xbd027833	-0.031852912
46	0x3c02aee4	0.0079762675
47	0x3d671317	0.05641469
48	0xbca9d6ee	-0.02073237
49	0xbb9674d2	-0.004591563
50	0x3b0a0d4a	0.002106505
51	0x3c03d0d1	0.008045391
52	0x3ccc1b61	0.024915399
53	0xbb6bfbf5	-0.0036008332
54	0x3d2818b0	0.04103917
55	0x3cd3f4ef	0.02587363
56	0x3d03a604	0.032140747
57	0x3cd247f2	0.025669072
58	0x3cd6cad6	0.026219767
59	0x3cc8a3a5	0.024492094
60	0x3ceff904	0.029293545
61	0x3cabf22a	0.020989496
62	0x3c6f8143	0.014618221
63	0xbcaebe38	-0.021330938
64	0x3ca873cb	0.020563027
65	0xbd516687	-0.05112317
66	0xbd33d58e	-0.043904833
67	0xbcb2da33	-0.021832561
68	0x3c430f92	0.011905568
69	0xbc415776	-0.0118006375
70	0xbc817286	-0.01580168
71	0xbcd8dc62	-0.026472274
72	0x3cad64b3	0.021166181
73	0xbc9d537e	-0.019204851
74	0x3b944011	0.004524239
75	0xbcd2a4f1	-0.025713416
76	0xbca40edc	-0.020026617
77	0xbc7e0628	-0.015504397
78	0xbd14e036	-0.036346637
79	0x3d31d80d	0.043418933
80	0xbc2b1763	-0.010442588
81	0x3d70faec	0.058833048
82	0x3bd04f79	0.00635713
83	0x3c74d32c	0.014942925
84	0x3b6c434e	0.003605086
85	0x3cdcc1f5	0.026947955
86	0xbcee2886	-0.029072057
87	0xbc9446ab	-0.018100103
88	0x3aedefb6	0.0018153104
89	0x3d38cefe	0.045119278
90	0x3b42d300	0.0029727817
91	0x3cde96c9	0.02717151
92	0x3c8eb13b	0.017418494
93	0x3cc0155d	0.023447687
94	0x3d51fd28	0.05126682
95	0x3d3d76d0	0.046255887
96	0x3cd87d42	0.026426915
97	0x3d528e6a	0.051405348
98	0x3cc1b687	0.023646606
99	0xbb9bf169	-0.004759003
100	0xbd1eff8f	-0.03881794
101	0xbcb3d247	-0.021950854
102	0x3d0a325e	0.03373944
103	0x3c8d4690	0.01724556
104	0xbd5bb9a9	-0.053643856
105	0x3ce86aa8	0.02837117
106	0xbcc929e2	-0.024556104
107	0x3d0fd0db	0.03511129
108	0x3d060370	0.032718122
109	0xbcb6b8e3	-0.022304958
110	0xbc7e9e6f	-0.015540703
111	0x3d299090	0.04139763
112	0x3d295eb7	0.041350093
113	0x3c7bb018	0.015361808
114	0xbc81b8ee	-0.015835252
115	0x3ca5f503	0.020258432
116	0x3d31613f	0.04330563
117	0x3d5e498e	0.054269366
118	0xbd6a6d6d	-0.057233263
119	0x3d22773d	0.039664496
120	0xbcddbd91	-0.027067931
121	0x3ce89741	0.028392436
122	0x3c07bf14	0.008285303
123	0x3bada581	0.0052992706
124	0xbccac0bc	-0.024750106
125	0xbc595b09	-0.013266333
126	0x3c38a962	0.011270853
127	0x3c2b87d5	0.010469397
128	0x3cf33767	0.029689504
129	0xbb097e4d	-0.0020979822
130	0xbd4c6bf3	-0.049907636
131	0xbc8a0363	-0.016847318
132	0x3cc7c093	0.024383819
133	0x3cdfd7ca	0.027324576
134	0xbb7c8ecb	-0.003853726
135	0xbd5b3356	-0.053515755
136	0x3c9e45f0	0.019320458
137	0xbc88f0d8	-0.016716406
138	0x3d0aff91	0.033935133
139	0x3c73c5be	0.014878688
140	0x3c54d9f1	0.012991414
141	0x3c477bfc	0.012175556
142	0xbc5220a2	-0.012825163
143	0xbcbbb0ad	-0.022911394
144	0x3d7908b7	0.060799327
145	0xbb67c424	-0.0035364712
146	0xbcfe4d57	-0.031042738
147	0xbca5f702	-0.020259384
148	0x3b805d74	0.0039173905
149	0x3a0a1aeb	0.00052682933
150	0x3d29d36e	0.0414614
151	0xbc0bcc05	-0.008532529
152	0xbc7eea7c	-0.015558835
153	0xbcbdd923	-0.023174828
154	0x3d0a18e6	0.03371515
155	0xbd3b651e	-0.04575073
156	0x3d51168f	0.051046904
157	0x3c72c1b5	0.014816691
158	0x3d49ca2d	0.049265075
159	0x3ce7b5dd	0.028284961
160	0xbd1b63a6	-0.03793683
161	0xbd055918	-0.03255567
162	0xbc3e6707	-0.011621243
163	0xbca96077	-0.02067588
164	0x3cde6e6a	0.027152259
165	0x3c94e234	0.018174268
166	0x3bf8f788	0.0075978674
167	0xbd0b0c49	-0.033947263
168	0x3d173226	0.03691306
169	0x3b654999	0.0034986495
170	0x3c8c2a8d	0.017110134
171	0x3d48f698	0.049063295
172	0x3c63d7f6	0.01390647
173	0xbb84a81a	-0.0040483596
174	0x3c6a7b45	0.014311616
175	0x3d4906a5	0.049078602
176	0xbd5f4084	-0.054504886
177	0x3d29e1ad	0.041474987
178	0xbd0c09b8	-0.034188956
179	0x3c86026a	0.016358573
180	0x3cede52a	0.029039938
181	0x3cc02e03	0.02345944
182	0x3a20a96c	0.00061287615
183	0xbbf47b77	-0.007461007
184	0xbbe47288	-0.006971661
185	0x3c8ba982	0.017048601
186	0x3d37052c	0.044682667
187	0x3d0dcb81	0.034617905
188	0x3c62ef1a	0.013850952
189	0xbd4c97c3	-0.04994942
190	0xbc98deaa	-0.018660862
191	0xbcbd2ce5	-0.023092696
192	0xbc9ec914	-0.01938299
193	0x3d1d873c	0.038459048
194	0xbca9c9ce	-0.02072611
195	0xbcb81850	-0.02247253
196	0x3ceeee17	0.029166264
197	0x3d7f70a6	0.06236329
198	0x3d45809e	0.048218362
199	0xbcb52b3d	-0.022115344
200	0x3d11fb0a	0.0356398
201	0xba773ec1	-0.00094316533
202	0x3c1b522a	0.009480039
203	0xbc51db09	-0.01280857
204	0x3d4bdb84	0.049769893
205	0x3ca74c7b	0.02042221
206	0xbc86dec7	-0.01646365
207	0xbb6c9546	-0.0036099716
208	0x3cca3ed1	0.024688156
209	0xbd5669ac	-0.05234687
210	0xbce8a547	-0.028399123
211	0x3d328bef	0.043590482
212	0xbbd50aff	-0.006501555
213	0xba7f7deb	-0.0009746241
214	0x3d044642	0.032293566
215	0xbbcfa1d1	-0.0063364287
216	0x3d646f1e	0.055770032
217	0xbc3d63d3	-0.0115594445
218	0x3d63f9fb	0.05565832
219	0x3d10e68c	0.035376117
220	0xbc8a91f8	-0.016915306
221	0xbc10acae	-0.008830233
222	0x3bb727e5	0.0055894726
223	0x3d4a89ec	0.04944794
224	0x3d32c721	0.043646935
225	0x3d55a151	0.052155796
226	0xbb882768	-0.004155088
227	0xbc2029ff	-0.009775638
228	0x3b96f20d	0.0046064914
229	0xbd10ebdb	-0.03538118
230	0x3b4da83e	0.0031380798
231	0x3c2dc3d9	0.010605776
232	0xbcf26ca2	-0.029592816
233	0xbcbd6525	-0.023119519
234	0x3b983d13	0.0046459525
235	0x3d1ca5f1	0.03824419
236	0x3ce567bd	0.028003568
237	0x3b601cf8	0.0034196954
238	0xbc79794a	-0.0152266715
239	0x3c89f039	0.01683818
240	0x3c6c3cb9	0.014418774
241	0xbc176545	-0.009240453
242	0xbcac36b7	-0.021022184
243	0x3c88c538	0.016695604
244	0x3d1326dd	0.035925735
245	0xbd153adc	-0.036433086
246	0xbaa658d3	-0.0012691267
247	0xbc7e1421	-0.015507729
248	0xbd1bbc1e	-0.0380212
249	0x3b633b47	0.0034672783
250	0x3cd49f2c	0.025954805
251	0x3ca5239f	0.020158587
252	0x3d0e721a	0.034776784
253	0x3d411bde	0.047145717
254	0xbd00b54e	-0.031422906
255	0xbc1e8da9	-0.009677329

head.3.bias f4 [256]
0	0x3ca8211e	0.020523604
1	0xbd3ac213	-0.04559524
2	0x3c948580	0.018130064
3	0x3c37eb90	0.011225596
4	0x3cbbb256	0.022912186
5	0xbc8c430a	-0.01712181
6	0x3d2278d8	0.039666027
7	0x3cc75fba	0.024337638
8	0xbd1010bf	-0.03517222
9	0x3c94b6bf	0.018153546
10	0xbdd428c3	-0.10359337
11	0xbc5fa022	-0.0136490185
12	0xbca9dffb	-0.020736685
13	0x3b74b55b	0.0037339542
14	0x3c851b60	0.016248405
15	0xbd49e359	-0.04928908
16	0xbba164cd	-0.0049253465
17	0xbc7afe67	-0.015319443
18	0xbc9da406	-0.019243252
19	0x3d5631f3	0.05229373
20	0xbcbfbb50	-0.023404747
21	0xbd12e9fe	-0.035867684
22	0xbd001fe5	-0.031280417
23	0x3b8cf189	0.004301254
24	0xbd8d4733	-0.06898346
25	0xbca52ddd	-0.02016347
26	0x3d159e20	0.036527753
27	0xbd19e5bd	-0.03757261
28	0x3d09d425	0.033649582
29	0xbd72e607	-0.059301402
30	0xbd18bc3e	-0.037288897
31	0xbace7c34	-0.0015753568
32	0xbd6817a1	-0.05666316
33	0x3afc83d6	0.0019265364
34	0xbcdb711c	-0.026787333
35	0xbd79e268	-0.061006933
36	0xbd16a826	-0.036781453
37	0x3d0fc40e	0.03509908
38	0x3c301d7e	0.010749219
39	0xbcef763b	-0.029231181
40	0xbd59d09e	-0.05317747
41	0xbc3089a4	-0.010775004
42	0x3c3ba844	0.011453692
43	0xbd520b27	-0.051280167
44	0xbc351d57	-0.011054358
45	0x3c834f1b	0.016028931
46	0xbcea0e96	-0.028571408
47	0xbcd1c8be	-0.025608417
48	0xbd1c1a02	-0.03811074
49	0xbcfaaeb0	-0.030600876
50	0xbd0cdb87	-0.034389045
51	0xbd82082c	-0.06349215
52	0xbc9c8909	-0.019108312
53	0xbd1392e2	-0.03602875
54	0xbccf5d90	-0.025313169
55	0x3d16b50f	0.036793765
56	0x3ad1fd98	0.0016021011
57	0xbd2acc55	-0.041698772
58	0x3c91a1bf	0.017777322
59	0x3c2fc0c6	0.010727113
60	0xbd1c0574	-0.038091138
61	0xbb78bb6a	-0.0037953504
62	0x3d114e9a	0.03547535
63	0xbcc68337	-0.02423249
64	0xbd4d65e8	-0.050146013
65	0xbcb6fe1f	-0.022337971
66	0x3c896fea	0.016776998
67	0xbb9126b9	-0.004429665
68	0xbd32dfcb	-0.043670457
69	0x3c536b9d	0.012904075
70	0xbd707a34	-0.058710292
71	0xbcea2369	-0.028581338
72	0x3cf5b4cc	0.029993437
73	0xba226309	-0.0006194567
74	0x3b89d4bc	0.004206268
75	0xbd61e519	-0.055150125
76	0xbd4e1dad	-0.05032127
77	0x3d2b2779	0.04178569
78	0xbd533262	-0.05156172
79	0xbd364a00	-0.044504166
80	0xbc4b363f	-0.01240307
81	0xbd150509	-0.036381755
82	0x3b2826fc	0.0025658002
83	0xbd035794	-0.032065943
84	0x3c91bd31	0.017790409
85	0xb9c50b12	-0.00037583016
86	0x3cf9acea	0.03047796
87	0xbbc95fb5	-0.0061454424
88	0x3ab2f041	0.0013651924
89	0xbc960381	-0.018312218
90	0xbd177a5e	-0.036981933
91	0xbd8600f3	-0.0654315
92	0x3ca5950f	0.020212678
93	0x3d3e5f15	0.046477396
94	0xbcdc9989	-0.02692868
95	0xbc5dd8f2	-0.013540493
96	0xbc776d6e	-0.015101774
97	0xbca2219f	-0.019791422
98	0xbd528e88	-0.05140546
99	0xbc37e0fc	-0.011223074
100	0x3c404035	0.011734058
101	0xbd3000f9	-0.042969678
102	0x3c2bc0cf	0.010482981
103	0xbcfc7ce7	-0.030821277
104	0xbc345cb7	-0.011008433
105	0xbbf451ad	-0.0074560256
106	0xbc86e286	-0.016465437
107	0xbcc8ff1e	-0.024535712
108	0xbb9dad18	-0.004811894
109	0x3d02522e	0.031816654
110	0x3d490fd3	0.049087357
111	0xbd0c468c	-0.034246966
112	0x3be9a727	0.007130522
113	0x3d4d10f6	0.050065003
114	0xbd00215d	-0.031281818
115	0x3c3c84b2	0.011506246
116	0xbd6898a2	-0.056786187
117	0x3cc8d40b	0.024515172
118	0x3ce841d5	0.028351704
119	0xbca68660	-0.020327747
120	0xbca132f1	-0.019677611
121	0xbdd27f9c	-0.10278246
122	0xbd7b09b4	-0.06128855
123	0xbd58b4b5	-0.05290671
124	0x3c321a28	0.010870494
125	0x3bbf7e66	0.0058439253
126	0x3d2bb733	0.04192276
127	0xbce28a0a	-0.027653713
128	0xbc8a82a3	-0.016907996
129	0x3cc440dd	0.02395671
130	0x3cb12b16	0.02162699
131	0xbbafeade	-0.0053685745
132	0x3c9d735e	0.01922005
133	0x3c86e55d	0.01646679
134	0x3d33f1d9	0.043931816
135	0xbd19a122	-0.037507184
136	0x3c43ca64	0.011950109
137	0xbcf586b9	-0.029971467
138	0x3cda6481	0.026659252
139	0x3cf36bf0	0.029714555
140	0xbcfd21b5	-0.030899862
141	0x3c775234	0.015095282
142	0xbd34a80a	-0.044105567
143	0x37f4afdb	2.9168956e-05
144	0xbc91550c	-0.017740749
145	0x3cf3450b	0.029696008
146	0xbc6150f2	-0.013752209
147	0x3c93852c	0.018007837
148	0x3cee577b	0.029094448
149	0xbb7ca685	-0.0038551402
150	0xbbd7f27b	-0.006590185
151	0xbd2c0f27	-0.042006638
152	0xbce2b28a	-0.027673025
153	0xbc217cea	-0.009856442
154	0xbac79b97	-0.0015228865
155	0x3d0df2da	0.03465543
156	0x3baa1f52	0.005191722
157	0x3d114f10	0.03547579
158	0x3b79bade	0.0038105766
159	0xbce2bc25	-0.027677605
160	0x3ce6d225	0.028176377
161	0x3c9cc186	0.019135248
162	0xbccd9716	-0.025096457
163	0xbd7aa125	-0.061188836
164	0xbcc600bd	-0.024170274
165	0x3d5395c5	0.051656503
166	0xbc36dc6a	-0.011160949
167	0xbc98b39c	-0.018640332
168	0xbd60e4b8	-0.054905623
169	0xbcd5d5b1	-0.026102873
170	0x3d4a4a09	0.04938701
171	0xbc81c974	-0.01584313
172	0xbd411edf	-0.04714858
173	0x3c3a4376	0.011368623
174	0xbc3807d9	-0.01123234
175	0xbc878122	-0.016541068
176	0x3d30681d	0.04306804
177	0xbd4bea81	-0.049784187
178	0xbd30ca90	-0.04316193
179	0x3d084b09	0.033274684
180	0x3cd8992e	0.02644023
181	0xbcfe996a	-0.031079013
182	0x3c61eca8	0.013789333
183	0x3bbf31cb	0.005834793
184	0xbc4ae994	-0.012384791
185	0xbd5db180	-0.054124355
186	0x3d0bd8be	0.03414225
187	0xbcab78c5	-0.02093161
188	0xbd5779e1	-0.052606467
189	0x3ba539a4	0.0050422717
190	0xbd47ed17	-0.04881009
191	0xbd28dc2d	-0.0412256
192	0xbcefba95	-0.029263774
193	0xbd8bbc7f	-0.06823062
194	0x3cb99670	0.022654742
195	0x3ce8529c	0.028359704
196	0x3af3458a	0.0018560153
197	0xbb73f186	-0.0037222817
198	0x3c087f2a	0.0083310995
199	0x3cd5f85f	0.02611941
200	0x3c4075b5	0.011746814
201	0xbd078014	-0.03308113
202	0xbd0e5ad6	-0.034754597
203	0x3b9faab8	0.004872646
204	0xbc8d2569	-0.017229753
205	0xbd9430f2	-0.07235898
206	0x3badbc97	0.0053020227
207	0xbc08349c	-0.008313324
208	0xbcec33a0	-0.02883321
209	0x37cbeb1d	2.4308969e-05
210	0x3ce543eb	0.027986487
211	0xbce3a5ae	-0.027788963
212	0x3ce9e8f3	0.028553462
213	0xbd848dde	-0.064723715
214	0x3d32cce2	0.043652423
215	0x3d27dbf8	0.040981263
216	0xbc7b7ef0	-0.0153500885
217	0x3d19cb94	0.037547663
218	0x3cbbfb5d	0.022947008
219	0xbc698538	-0.014252953
220	0xbd46b1b6	-0.048509322
221	0xbc3be30d	-0.011467707
222	0xbd3e21c5	-0.046418924
223	0xbd361095	-0.044449408
224	0xbd6bf761	-0.057608966
225	0x3c68582f	0.014181181
226	0x3cd09f7f	0.025466679
227	0xbccc575e	-0.024944004
228	0x3cf6e150	0.030136734
229	0xbdad0e8c	-0.0845004
230	0xbc2a42df	-0.01039192
231	0x3d04c72e	0.032416515
232	0xbbb096c9	-0.0053890687
233	0xbc58d46c	-0.013234239
234	0x3c3eb20d	0.01163913
235	0x3d08c7c4	0.033393636
236	0xbbe36f50	-0.0069407597
237	0xbd00229c	-0.031283006
238	0x3cdaf322	0.026727263
239	0xbd902b81	-0.07039548
240	0xbc9ac15c	-0.018891029
241	0xbcb9c377	-0.022676213
242	0xbd2a69ab	-0.04160468
243	0xbcb8d1d2	-0.022560988
244	0xbb51b9f6	-0.003200171
245	0x3c5497de	0.012975661
246	0xbc8ce613	-0.017199552
247	0xbd698fdb	-0.057021957
248	0xbd0c3731	-0.034232322
249	0xbd1e5d30	-0.03866309
250	0xbc71bcdd	-0.014754501
251	0x3c1a1386	0.009404069
252	0xbd1b0219	-0.037843797
253	0xbd583737	-0.052787032
254	0xbc9615a0	-0.018320858
255	0xbcac1005	-0.021003732

head.6.weight f4 [128, 256]
0	0x3d8a4444	0.06751302
1	0x3d381200	0.04493904
2	0x3c9fa2e0	0.019486845
3	0x3cc42608	0.023943916
4	0x3cd6a01d	0.026199395
5	0xbd43e8f9	-0.047829602
6	0x3d518784	0.05115463
7	0xbc86e500	-0.016466618
8	0x3d87ed5c	0.066370696
9	0xbc2e41ce	-0.010635806
10	0xbdb8c23a	-0.09021421
11	0xbc438e11	-0.011935727
12	0x3cbbfbde	0.022947248
13	0xbd1e4393	-0.038638663
14	0xbba4c4cc	-0.005028343
15	0xbd362865	-0.044472117
16	0xbbfc8077	-0.007705744
17	0x3d0a22b6	0.03372451
18	0x3c01044b	0.007874559
19	0xbd4b0938	-0.04956934
20	0xbd4b6ad1	-0.049662415
21	0x3cbcea8f	0.023061065
22	0x3ceffd5e	0.02929562
23	0xbdc0fdc6	-0.094234034
24	0xbe2aeefa	-0.16692725
25	0xbd7aaae1	-0.06119812
26	0xbccb1f63	-0.02479524
27	0xbd64ebcb	-0.055888932
28	0x3c1f8e54	0.0097385235
29	0xbd2a6880	-0.041603565
30	0xbb118cba	-0.0022209124
31	0x3ceb1ca1	0.028700175
32	0xbd598bd2	-0.05311186
33	0xbc014cde	-0.007891862
34	0x3cc7ebc5	0.024404416
35	0xbbde5be6	-0.0067858575
36	0x3d0c4580	0.034245968
37	0x3cbe53eb	0.023233375
38	0xbdc6ab7b	-0.09700676
39	0xbd4e0377	-0.050296273
40	0xbca1493f	-0.019688247
41	0xbda110bc	-0.0786452
42	0x3d4765fb	0.04868124
43	0x3cc307b6	0.023807388
44	0x3ce619c9	0.028088467
45	0x3cdaeb5f	0.026723562
46	0x3c841b45	0.016126284
47	0x3d3975d4	0.045278385
48	0xbc207a75	-0.009794821
49	0x3d11aae5	0.03556337
50	0xbcda1584	-0.026621588
51	0xbd6386db	-0.05554853
52	0x3c922a45	0.017842421
53	0x3cde4ceb	0.027136287
54	0xbc5762e7	-0.013146139
55	0x3d74722d	0.0596792
56	0x3cc1d1d0	0.023659617
57	0x3d47b970	0.04876083
58	0x3d089174	0.03334184
59	0xbd3a430e	-0.045474105
60	0x3c95fdaa	0.018309433
61	0xbd697c3f	-0.057003256
62	0xbc4e695c	-0.012598362
63	0xbca45a61	-0.020062627
64	0xbd792a0f	-0.060831126
65	0xbd7e27a4	-0.062049523
66	0xbba0d810	-0.004908569
67	0xbd80fb9c	-0.06297991
68	0x3c42df0d	0.011894
69	0x3d620ed2	0.055189915
70	0x3d402bcb	0.046916764
71	0x3d62b2d4	0.055346325
72	0x3d603fb2	0.054748245
73	0x3d3b4b17	0.045725908
74	0x3d12938f	0.035785254
75	0xbd5c227a	-0.053743817
76	0xbcde6187	-0.027146114
77	0xbc48417e	-0.012222646
78	0x3ae47f29	0.0017432916
79	0x3c9293ea	0.017892797
80	0x3d2e2b86	0.042521976
81	0xbc6bf2a3	-0.014401111
82	0x3d58ee9d	0.052961934
83	0xbd9f3b61	-0.077749975
84	0x3ca9f566	0.020746898
85	0x3d6afeeb	0.057372015
86	0xbd83d3a3	-0.06436851
87	0x3bcbe7b8	0.0062226914
88	0xba9818be	-0.0011604053
89	0xbdb3b304	-0.08774379
90	0xbcf017be	-0.029308196
91	0xbd5c8969	-0.053841982
92	0x3d08d6f8	0.033408135
93	0xbce4a09c	-0.027908616
94	0x3c99d994	0.018780507
95	0x3bb4f2f1	0.005522125
96	0xbd1d3e31	-0.03838939
97	0xbd77d5a4	-0.060506478
98	0x3bb6f9dd	0.0055839852
99	0x3c7d7f98	0.015472315
100	0x3d2352cc	0.039873883
101	0xbd6b85d1	-0.057500664
102	0xbcb43f9c	-0.022002988
103	0xbc3f52be	-0.011677442
104	0x3cd483dd	0.025941784
105	0x3b5c84ba	0.0033648447
106	0x3d1c3ad0	0.038142025
107	0x3c2090bc	0.009800132
108	0xbd8b0d5f	-0.0678966
109	0x3d734a0f	0.0593968
110	0xbd26429c	-0.040590867
111	0xbad41b72	-0.0016182496
112	0x3ccb5786	0.024822008
113	0xbd522357	-0.051303234
114	0x3cfa3f92	0.03054789
115	0xbd3b6fcb	-0.04576091
116	0xbce18aac	-0.027531944
117	0x3cea14d6	0.028574388
118	0xbd90e8cc	-0.070756525
119	0x3d317302	0.04332257
120	0x3d036c16	0.0320855
121	0xbd1765c2	-0.03696228
122	0xbcbf8aa6	-0.023381542
123	0x3d6777fd	0.056510914
124	0x3d0aceae	0.03388851
125	0xbb9a0f3f	-0.0047015245
126	0xbc8ac6fb	-0.016940584
127	0xbd8d7062	-0.06906201
128	0xbd4ed2eb	-0.050494116
129	0xbd65f95a	-0.056146003
130	0x3d60e5d2	0.054906674
131	0x3d0b8cdc	0.03406988
132	0x3d4ac858	0.04950747
133	0xbd56438a	-0.052310504
134	0xbc86b744	-0.01644481
135	0xb96b4d9c	-0.00022440258
136	0xbcd75791	-0.026286872
137	0x3c0a938e	0.008458031
138	0x3d7a0685	0.061041374
139	0xbcdafca2	-0.026731793
140	0xbd377bba	-0.04479573
141	0x3ce915b6	0.028452735
142	0xbd51727c	-0.05113457
143	0x3ce657bc	0.028118007
144	0xbdd9a312	-0.10626806
145	0x3d32ace4	0.043621913
146	0x3cdac18b	0.026703617
147	0x3d82135e	0.0635135
148	0x3d0fb625	0.035085816
149	0x3d14d528	0.036336094
150	0x3d6b7263	0.057482135
151	0xbd9ec12c	-0.07751688
152	0x3b548db7	0.0032433101
153	0x3c2cfaf8	0.0105578825
154	0x3c068c2c	0.0082121305
155	0xbd1d9c6f	-0.038479265
156	0xbd5408d5	-0.051766235
157	0xbd7ac870	-0.06122631
158	0x3d6f7083	0.05845691
159	0x3c02d451	0.0079851905
160	0x3d62ecbe	0.055401556
161	0xbc04c300	-0.008103132
162	0x3c18f71d	0.00933626
163	0x3d59c510	0.05316645
164	0x3ce716e4	0.028209157
165	0xbcd902d2	-0.026490603
166	0x3d478a75	0.048716027
167	0x3cff793d	0.03118574
168	0x3d162e75	0.0366654
169	0xbc87175d	-0.016490633
170	0xbccbe5f2	-0.02488992
171	0xbd01704e	-0.031601243
172	0x3c358df9	0.011081212
173	0xbd39660b	-0.04526333
174	0xbd11eef1	-0.035628263
175	0x3d687fab	0.05676238
176	0xbd480a41	-0.048837904
177	0x3c9174fd	0.01775598
178	0xbcf3a3ef	-0.029741256
179	0x3cb35887	0.021892799
180	0x3c0082d9	0.0078436965
181	0xbd15b785	-0.03655197
182	0x3d3a65be	0.045507185
183	0xbd4f20d9	-0.050568435
184	0x3c81ed2c	0.015860163
185	0x3c69b5dd	0.014264551
186	0x3d873a9a	0.06602974
187	0x3d43a3f9	0.0477638
188	0xbd0f9882	-0.035057552
189	0x3d0a7c99	0.03381023
190	0x3cd010ae	0.025398578
191	0x3cefd7b9	0.02927767
192	0x3c2ab95b	0.010420169
193	0xbd31f38c	-0.043445155
194	0x3c60857d	0.013703701
195	0x3d1e59ac	0.038659737
196	0x3ce38291	0.02777222
197	0x3d8217c6	0.06352191
198	0x3ce5b7dd	0.028041774
199	0xbda72fea	-0.08163436
200	0x3d24df6f	0.040252145
201	0x3d7b4e19	0.061353777
202	0x3cf2288e	0.029560354
203	0xbcbc9845	-0.023021827
204	0xbd3dcdcb	-0.046338838
205	0x3b23a5fc	0.002497076
206	0x3c154ded	0.009112817
207	0xbd662279	-0.05618522
208	0xbc8ae5df	-0.016955314
209	0xbd5ca42c	-0.053867504
210	0x3d84bfc5	0.0648189
211	0x3bff0ef4	0.007783765
212	0xbd11d7bb	-0.035606127
213	0x3d0acc59	0.033886287
214	0xbc9a613e	-0.018845197
215	0xbc06c9c2	-0.008226814
216	0xbcb90885	-0.02258707
217	0xbd75bdcc	-0.059995458
218	0xbd10323b	-0.035204154
219	0xbbc93a5f	-0.0061409916
220	0x3cf7b689	0.030238407
221	0x3d2bc092	0.041931696
222	0xbdbabceb	-0.091180645
223	0x3d71b056	0.059006058
224	0xbd0935af	-0.033498462
225	0x3c9b5386	0.018960726
226	0xbd0298ba	-0.031883933
227	0xbd5ceb4e	-0.05393534
228	0xbc5d0304	-0.0134894885
229	0xbcef7fd4	-0.029235758
230	0xbc4fc753	-0.0126818
231	0xbc833415	-0.016016046
232	0xbc96c942	-0.018406514
233	0xbb91c787	-0.0044488343
234	0x3c381f16	0.01123788
235	0x3b807ad7	0.0039208937
236	0xbd0e1f26	-0.034697674
237	0xbcd735ae	-0.026270714
238	0x3d0906a8	0.033453614
239	0x3c18c907	0.009325272
240	0xbcb01a72	-0.021496985
241	0x3baea57c	0.005329786
242	0x3ca50926	0.020145964
243	0xbcf93efb	-0.03042554
244	0x3d39d151	0.045365635
245	0x3d600c98	0.05469951
246	0xbd42386e	-0.047417097
247	0x3d3bcfb2	0.04585237
248	0xbaa1b64a	-0.0012337652
249	0xbc7f5c80	-0.015586019
250	0x3ccaa88d	0.024738574
251	0x3d2b35a6	0.04179921
252	0xbd3a5c36	-0.045498095
253	0x3cc7954e	0.024363186
254	0x3c131076	0.008976093
255	0x3d40099a	0.046884157

head.6.bias f4 [128]
0	0xbccfbf25	-0.0253597
1	0xbc34f964	-0.0110457875
2	0xbce332e1	-0.027734222
3	0xbd83156a	-0.06400569
4	0x3dc48184	0.09595016
5	0x3dc25b65	0.094900884
6	0x3db62279	0.08893294
7	0xbd4f9045	-0.050674696
8	0xbd97f49d	-0.07419703
9	0xbd9d540f	-0.076820485
10	0xbdc84664	-0.09779051
11	0xbe0cc664	-0.13747555
12	0x3cd8ac3f	0.02644932
13	0x3b283ac1	0.0025669786
14	0x3d556b6c	0.0521044
15	0x3cefcb98	0.029271886
16	0x3dc4596a	0.09587367
17	0x3c0732e2	0.0082518775
18	0x3dbbcd28	0.0916999
19	0x3dcb5a07	0.09929281
20	0x3ce3ffee	0.027831998
21	0x3a6b491f	0.00089754345
22	0xbdb9703b	-0.090546094
23	0xbc7c4a81	-0.0153986225
24	0xbd97462b	-0.0738643
25	0xbdd02c42	-0.101646915
26	0x3dd243cc	0.102668375
27	0xbd7638ea	-0.06011287
28	0xbc00d8e7	-0.007864214
29	0x3cd20455	0.025636831
30	0x3d228f0d	0.039687205
31	0x3c5b7d91	0.013396637
32	0x3cfccf63	0.030860608
33	0xbd989b2c	-0.07451472
34	0x3c9cc9c9	0.019139187
35	0x3d50dead	0.05099361
36	0x3dcffc73	0.10155573
37	0xbbb2e9a7	-0.0054599824
38	0xbd2afc14	-0.041744307
39	0x3c2e3a13	0.010633963
40	0x3d4f9bf2	0.05068583
41	0xbcb112c9	-0.021615403
42	0xbdbcef08	-0.09225279
43	0xbc6dc593	-0.014512437
44	0xbd9ae0b6	-0.075623915
45	0x3d89d531	0.06730116
46	0x3dba972a	0.091108635
47	0xbd63a2a9	-0.055575047
48	0xbe123193	-0.14276724
49	0xbd54bfaa	-0.051940598
50	0xbd98fea2	-0.07470442
51	0xbd10c7aa	-0.035346664
52	0x3c499a48	0.01230485
53	0xbc5c7017	-0.013454459
54	0xbdb60663	-0.08887937
55	0x3d7cf2d5	0.06175502
56	0x3da485a9	0.08033306
57	0xbc9cb52b	-0.019129356
58	0xbdcd1a51	-0.10014785
59	0xbd2871d7	-0.04112419
60	0x3dc59ede	0.09649442
61	0xbdb0687a	-0.08613677
62	0xbce5a240	-0.028031468
63	0xbcf85860	-0.030315578
64	0x3b8481f7	0.0040438133
65	0xbd120bd5	-0.035655815
66	0xbca36f90	-0.019950658
67	0xbda4abd0	-0.08040583
68	0xbd15c39c	-0.0365635
69	0xbd1e5442	-0.038654573
70	0x3dbae761	0.09126163
71	0x3d47ef3b	0.048812132
72	0xbdecb064	-0.11557081
73	0xbc401a17	-0.01172497
74	0x3dd8e5bb	0.105906926
75	0x3d397fb5	0.045287807
76	0xbd5eb317	-0.054370012
77	0x3cf7086e	0.030155387
78	0x3c11598e	0.008871449
79	0x3d96105e	0.073273405
80	0xbd73a547	-0.059483793
81	0x3d0c3cb5	0.034237582
82	0xbc00eb93	-0.007868665
83	0xbd5727ac	-0.05252807
84	0xbd5fea7b	-0.054666977
85	0xbd817231	-0.063206084
86	0x3dcc75cd	0.09983406
87	0xbd296de9	-0.041364584
88	0x3c6cf5b0	0.014462873
89	0x3d03184e	0.0320056
90	0xbca6ded4	-0.020369925
91	0x3cf65ec7	0.03007449
92	0xbd7177c2	-0.0589521
93	0x3d835319	0.06412334
94	0xbcfdc187	-0.03097607
95	0x3d8ef87a	0.06980987
96	0x3dc9e8a8	0.09858829
97	0xbd244790	-0.04010731
98	0xbde40ef5	-0.11135665
99	0x3d75177c	0.05983685
100	0x3d8e7bdc	0.06957218
101	0x3d93b48d	0.07212172
102	0x3cd1fe89	0.025634067
103	0x3d1308d8	0.035897106
104	0xbc6c35b8	-0.014417104
105	0xbc6968a6	-0.014246142
106	0xbd2bef1c	-0.04197608
107	0xbcb6de00	-0.022322655
108	0xbd14e8e6	-0.03635492
109	0xbce25840	-0.027629972
110	0x3a124fde	0.0005581359
111	0xbde27ee6	-0.1105936
112	0x3d5eae27	0.054365303
113	0xbd2ad15a	-0.04170356
114	0x3d7da702	0.06192685
115	0x3db24da6	0.087062165
116	0xbd0acd89	-0.03388742
117	0xbdcca660	-0.09992671
118	0x3df07735	0.11741487
119	0x3c8af324	0.016961642
120	0xbdb4bd67	-0.08825188
121	0x3c7bb1a5	0.015362178
122	0xbd606c0f	-0.054790553
123	0x3d36cfd0	0.04463178
124	0xbd584460	-0.052799582
125	0xbdd6bfad	-0.10485778
126	0xbde4f132	-0.11178817
127	0x3d5cde65	0.05392303

head.9.weight f4 [7, 128]
0	0x3c5b7799	0.0133952135
1	0xba936c7f	-0.0011247544
2	0xbd17743d	-0.036976088
3	0x3a8e146d	0.0010839828
4	0x3a9e64c9	0.001208448
5	0x3944ce18	0.00018768793
6	0x3d3cd269	0.0460991
7	0xbca45ed7	-0.020064754
8	0x3b89a571	0.0042006304
9	0xbc504d23	-0.012713703
10	0xbcb95c34	-0.022626974
11	0xbc58dd2f	-0.013236328
12	0x3bc7b24c	0.0060942527
13	0x3b94f807	0.0045461687
14	0xbb1bdb04	-0.0023781667
15	0xbc3bbfdc	-0.011459317
16	0x3d01213a	0.031525828
17	0xbcc50cd6	-0.024053972
18	0x3b28cfcd	0.0025758625
19	0x3cf8401b	0.030304005
20	0xba0e6db7	-0.0005433219
21	0x3c78fb3d	0.015196619
22	0xbcd56866	-0.026050758
23	0x3c5fd3f9	0.013661378
24	0xbcf572e5	-0.029962013
25	0xbd08a60e	-0.033361487
26	0x3ce502ca	0.027955431
27	0xbd0b941b	-0.03407679
28	0x3c8b7486	0.017023336
29	0xbce4a830	-0.02791223
30	0x3cf482c9	0.02984752
31	0x3ccaf77f	0.024776218
32	0x3ba428d0	0.005009748
33	0xbd21ff91	-0.039550368
34	0x3c78a865	0.015176867
35	0x3d00fc4e	0.031490617
36	0x3ca6a492	0.020342145
37	0x3c6ae37b	0.014336462
38	0xbc733767	-0.014844752
39	0xbcd294fb	-0.025705805
40	0x3a9751aa	0.0011544724
41	0xbc6eb6b1	-0.014569924
42	0xbd2202d8	-0.039553493
43	0xbd06d3a0	-0.032916665
44	0xbcb3aabb	-0.021931997
45	0x3cbb2279	0.022843586
46	0x3d3596f0	0.0443334
47	0xbc86272e	-0.016376104
48	0xbcd86dfc	-0.026419632
49	0xbc79dbd6	-0.015250167
50	0xbccdbd25	-0.025114605
51	0x3b009a96	0.001962339
52	0xbccaa2ca	-0.024735827
53	0x3ca37a6d	0.019955838
54	0xbcfe651e	-0.031054076
55	0xba8b4a43	-0.001062699
56	0x3cc50a84	0.024052866
57	0xbccc812e	-0.024963941
58	0xbd2dc9e1	-0.042428855
59	0xbd27a4ad	-0.04092853
60	0x3b6dc831	0.0036282653
61	0xbce0aa2f	-0.0274249
62	0x3bdcc979	0.0067378846
63	0xbd10129e	-0.035174005
64	0xbb3bd7f1	-0.0028662647
65	0xbcff0ad3	-0.031133091
66	0x3bf1ed97	0.0073830592
67	0xbbb79552	-0.005602517
68	0xbc58437c	-0.013199683
69	0xbd063e91	-0.03277451
70	0x3c9537e1	0.018215122
71	0x3d1d6d01	0.038434032
72	0xbc935487	-0.017984642
73	0x3c15bd11	0.009139315
74	0x3cd2c5bb	0.02572905
75	0xbad2b2d0	-0.0016075019
76	0xbd0240e0	-0.03180015
77	0x3ca45de0	0.020064294
78	0xbb03ae9e	-0.0020093094
79	0x3d0e906e	0.034805708
80	0xbcfdae1f	-0.030966816
81	0x3c9771a0	0.018486798
82	0xbcb95eeb	-0.022628268
83	0xbc701004	-0.014652256
84	0xbcbabec9	-0.022796052
85	0xbccaf153	-0.024773275
86	0x3d4a283f	0.049354788
87	0xbd10bbf2	-0.03533549
88	0x3a08c03d	0.0005216634
89	0x3cb64d14	0.02225355
90	0xbcfda001	-0.030960085
91	0x3c9fd765	0.019511888
92	0xbb943cb9	-0.0045238403
93	0x3c9a20f4	0.018814541
94	0xbca5a25b	-0.020219019
95	0x3c88494c	0.016636513
96	0x3c994a59	0.01871221
97	0xbc4c4a13	-0.012468833
98	0xbcbca61f	-0.023028431
99	0x3ce18dd7	0.027533455
100	0x3ce6b5b5	0.028162817
101	0x3cba6824	0.022754736
102	0x3c743458	0.014905058
103	0xb98e4738	-0.00027137413
104	0x3be50259	0.0069888053
105	0x3c546a3e	0.012964783
106	0xbc8e2272	-0.01735041
107	0x3c69d419	0.014271759
108	0xbcdb73a1	-0.026788535
109	0xbc9a8c01	-0.018865587
110	0x3c103692	0.008802073
111	0xbce9297a	-0.02846216
112	0x3d1ff587	0.039052512
113	0xbc7205fc	-0.014771935
114	0x3d01ae3d	0.031660307
115	0x3d214053	0.039367985
116	0xbccb382e	-0.024807062
117	0xbcb7f466	-0.022455405
118	0x3bc98012	0.0061493004
119	0x3c3c1eda	0.011481965
120	0xbcbbde66	-0.022933196
121	0x3cc53ccd	0.024076844
122	0xbcff0861	-0.031131925
123	0x3ba4e5f8	0.005032297
124	0x3a83df7d	0.0010061112
125	0xbc358038	-0.011077933
126	0xbcb1b741	-0.021693828
127	0x3bb1f9a0	0.005431369
128	0x3db25106	0.0870686
129	0xbab3a4d7	-0.0013705742
130	0x3bd602d8	0.0065311007
131	0x3d912f70	0.07089126
132	0x3c205387	0.0097855395
133	0xbca15452	-0.019693527
134	0xbd4b4715	-0.049628336
135	0x3d1ad404	0.03779985
136	0xbd884146	-0.06653075
137	0x3cc57283	0.024102455
138	0x3cec3aad	0.028836573
139	0xbb4033ba	-0.0029327706
140	0xbd952c68	-0.072838604
141	0xbd9df720	-0.07713151
142	0xbd2de992	-0.042459078
143	0xbbb7f857	-0.005614321
144	0xbd1a3644	-0.037649408
145	0xbca319a3	-0.019909685
146	0xbdb5028c	-0.088383764
147	0xbd9104c1	-0.07080985
148	0xbd9d0229	-0.07666428
149	0x3d144515	0.036198694
150	0x3bab8386	0.0052341847
151	0x3d349ece	0.04409676
152	0x3d0dca97	0.034617033
153	0x39b907c8	0.00035291747
154	0xbd70bbe4	-0.058772936
155	0xba88e75d	-0.0010444928
156	0x3b9d66af	0.0048035006
157	0xbdaed00a	-0.08535774
158	0x3d2813dd	0.041034568
159	0x3d682df9	0.056684468
160	0xbdab06ba	-0.08350892
161	0xbcb068ce	-0.02153435
162	0x3d527c11	0.05138785
163	0x3c08b0df	0.008342951
164	0x3d026898	0.03183803
165	0xbd4b01c8	-0.049562246
166	0x3d32204c	0.043487832
167	0xbdb82d02	-0.089929596
168	0x3cca569f	0.024699507
169	0x3bec23b4	0.0072064046
170	0x3c7cc3f2	0.015427576
171	0x3d14e12a	0.036347546
172	0xbbbaa1ca	-0.0056955563
173	0x3cd956ee	0.02653071
174	0x3cc07e9c	0.023497872
175	0xbc2b78e6	-0.010465836
176	0x3bb56e38	0.0055368207
177	0x3c8baa84	0.017049082
178	0x3c089873	0.008337128
179	0x3ddd4429	0.10804016
180	0x3c896e94	0.01677636
181	0x3d6ac69f	0.057318326
182	0x3d4f0870	0.050545156
183	0x3cd3bdc0	0.025847316
184	0xbd1255e7	-0.035726454
185	0xbd7c500b	-0.061599772
186	0xbd7781bd	-0.060426462
187	0xbc75238f	-0.014962091
188	0xbd815a31	-0.06316031
189	0x3bcff02f	0.006345771
190	0xbe061050	-0.1309216
191	0x3bf4eb95	0.0074743726
192	0xbd7d53a0	-0.06184733
193	0xbc133c0c	-0.008986484
194	0x3ce79852	0.028270874
195	0xbd83d1ba	-0.064364865
196	0x3c21069d	0.009828237
197	0x3d0dbf50	0.034606278
198	0xbd48b9ee	-0.04900544
199	0x3ca07808	0.019588485
200	0x3aec4a02	0.0018027427
201	0xbe055fdd	-0.1302485
202	0xbca42955	-0.02003924
203	0xbd2b688e	-0.041847758
204	0x3d77d96f	0.060510095
205	0x3c119fee	0.008888228
206	0x3bd0e35e	0.0063747605
207	0x3bc0394d	0.005866206
208	0xbc948ffc	-0.018135063
209	0x3d7f373c	0.062308535
210	0xbb926f84	-0.00446886
211	0x3bc3703d	0.0059643076
212	0xbbc23e3f	-0.0059278305
213	0x3c2a9659	0.010411822
214	0x3c90b03b	0.017662158
215	0xbce0e91b	-0.027454903
216	0x3d449a57	0.047998752
217	0x3d704a10	0.05866438
218	0x3c11b6b2	0.008893656
219	0xbd0a0a8f	-0.033701476
220	0xbd30404c	-0.04303007
221	0xbdc3d07e	-0.09561251
222	0x3cd00667	0.025393678
223	0xbc49b179	-0.012310379
224	0x3d8483d9	0.064704604
225	0x3d8c1019	0.06839008
226	0x3b5387e0	0.0032277033
227	0x3d8bc3ae	0.06824432
228	0x3cad313d	0.021141643
229	0xbd99b8d4	-0.07505956
230	0x3ce656e9	0.028117614
231	0xbd794240	-0.060854197
232	0x3e2324fd	0.15932079
233	0x3de78664	0.1130493
234	0x3c77cf34	0.015125085
235	0x3dc7f894	0.097642094
236	0x3c938e66	0.018012237
237	0x3c03a91c	0.008035924
238	0x3bfc4731	0.0076989164
239	0xbc8b40d4	-0.016998686
240	0x3c14b8e0	0.009077281
241	0x3b0d58ce	0.0021567824
242	0x3cce95ce	0.025217917
243	0xbcfd8a54	-0.030949749
244	0x3cd2d183	0.025734669
245	0xbc70aad5	-0.014689167
246	0xbd4c621d	-0.049898256
247	0x3dd368bd	0.103227116
248	0x3cc8ddb4	0.024519779
249	0x3cd5eca8	0.026113823
250	0x3c0271f1	0.007961736
251	0x3c4567cb	0.012048672
252	0x3dafe95d	0.085894324
253	0x3d2c206f	0.04202312
254	0x3be27770	0.0069112107
255	0xbc8c3b7c	-0.017118208

head.9.bias f4 [7]
0	0x3d23bade	0.039973132
1	0xbd976456	-0.073921844
2	0xbb6c3add	-0.0036045827
3	0xbe30a6bd	-0.17251106
4	0xbce68044	-0.028137334
5	0x3e414392	0.18873432
6	0xbe1898e9	-0.1490208
