script/tabpfn_sabr_step8_stacking.pth (torch, 685015 bytes, 8 tensors)

head.0.weight f4 [512, 9]
00000000: 5107 283e 8854 e53c 4618 343e fa5a 5d3c
00000010: b4f3 2f3e 3e11 323d 1236 0c3e 717b 243e
00000020: 336b db3d 0b2f f73d 3457 293e e092 22bd
00000030: 5ec0 973e 6258 d4bd ee73 40be 3d67 5e3e
00000040: 2512 853e bb5e 0c3e 9375 953b 63d2 debd
00000050: d3bc 863c 9e52 483e b697 babd 7be9 ba3d
00000060: 849b 2ebd a112 e53d 5461 b63e 8646 3bbe
00000070: a735 e23d bd57 e13d 5a56 353d e47e 76be
00000080: 9a8f b03e b298 16be cdcd cfbe ddd3 2bbe
00000090: e5d4 333c b132 e93d be96 efbc 24d7 983e
000000a0: 4724 05be 838f 20be 3e4b 153e 79ae 903e
000000b0: e410 26be cb69 55bd 2200 de3d d607 64be
000000c0: 857e c4be 9693 053e 99bb 093e 76ae 4ebe
000000d0: 92bd 4dbd a687 e7be f9b7 25be c27f 4abd
000000e0: c7ee d93d 454c 083e 02a1 553e fc34 4d3e
000000f0: 3009 cdbd 687b a3be 6fb4 683e a6d0 0bbc
00000100: 0656 94bc 9562 08be a4c9 efbd b1d0 47bd
00000110: bb40 b83d 85f4 813d e96e 9ebe c935 f7bc
00000120: aedc e7bb 433a 713d df2a b63c e5ce 80be
00000130: 117b a63d 8019 2ebe 12e7 6cbe 05c3 9a3d
00000140: 1871 bebc 9e13 acbd 8ec0 083e 0a37 503e
00000150: 6a57 9cbe 2655 313e 44d8 603d 262c 703e
00000160: 3404 3c3e f18a 0ebe f1fb 933d 6c3a ffbb
00000170: 1c0d 85be 2c4a bc3e 7503 5b3e c93b 5abe
00000180: 08f9 babd ba76 95be 5065 b63b 3f48 5dbe
00000190: 5340 bfbe 07a0 94be 8942 423e 1254 d33d
000001a0: e9ce 4dbe 9673 053e 3311 6d3d 6793 8bbe
000001b0: 86d0 1b3d cb38 42be 7e26 1f3e b825 d3be
000001c0: 6a02 69bd 5358 54bc b296 8a3e 27ca 423d
000001d0: 6d28 f63d 850f 67bd 7d27 5d3e 75d3 bdbb
000001e0: e08e 4ebe b5fa 24be a298 01bb 13d1 833e
000001f0: ca3a 113e 211b 6a3e 8eaf 08be 172f a1bd
00000200: 0f77 18be 9a72 293d a4e2 4b3e 5d1b 6dbe
00000210: f982 a0be 17cc a43e 6d69 8fbd 26a3 3abd
00000220: 0433 2ebe 1436 bdbd f010 7cbe 64a0 12be
00000230: 0781 0bbd 7362 1dbe a227 2c3e 926b 7bbe
00000240: 3903 11bd 8cee 58be cef8 c83d 9e9d 223e
00000250: 9c41 9abd 3058 613d d21b a9be d1fd c1bd
00000260: 5d04 663d e3e6 ed39 4a1b 1bbe 9529 653d
00000270: 4017 593d 1cc7 013e 2b47 ea3e 923c cbbe
00000280: ac55 35be 92cc 68be bf99 a83d e9c4 373c
00000290: f6bb d9bc 6538 dabd dc6d 833d 6d97 04bd
000002a0: af9f c73e 604b 683e 8657 bbbd 42ec c23d
000002b0: 2596 123e ef6d 0fbe 062e a13e 64b0 c6bd
000002c0: f4c0 ffbd ea10 293e b7d8 a4be 03a4 283e
000002d0: a2f8 f6bd c6e4 2e3e 5453 0b3d cc88 763e
000002e0: e0f5 d0bc 6e7f 06be a739 0f3d 3f5a 47bd
000002f0: 7a57 223e 9a59 24be e6bc a2bd d7c3 023e
00000300: eda9 4e3e 581e f43d 1e2f 40be 3498 eaba
00000310: 0de0 393e fd77 dc3e 28e7 513d b71a 273d
00000320: 637c 033e cc52 463e 83a6 bebd 0291 143e
00000330: d935 9cbd 9dab c2be 3eb2 aa3b 0138 0ebd
00000340: 28e7 d8bc 380b 433e f072 3fbe 4283 463e
00000350: 1fcd abbb d475 bc3e 13b8 753e 3cec de3d
00000360: e11a 6d3e 7d48 8a3d 91c4 b83d 743b da3d
00000370: dbde 4bbc 3fe8 253e 53f3 94bd 164e f23d
00000380: 7a71 b63d 9122 82bd 1869 ba3d a54c ee3d
00000390: 6103 37be d11c 533e c73c 2d3d 3d7a 583e
000003a0: 5273 6c3e a1a7 763e ef4f 9b3c fd9d b73a
000003b0: 14b7 813d 9eaa dd3d 1aa5 313e 7d8b 433e
000003c0: 85db 3abe f47d aabe b0c5 563e b4be afbd
000003d0: 7303 8a3d 689d 003e f39c f73d 4c73 71be
000003e0: ee10 60be 67a7 ca3e 4318 3f3e 3385 84be
000003f0: 2208 3c3e df8f abbc e584 2fbe 175f 60bd
0.16409041 0.02799441 0.17587385 0.01351046 0.17182809 0.043473475 0.13692501 0.16062714
0.10713806 0.120695196 0.16537172 -0.039690852 0.29638952 -0.1036842 -0.18794224 0.2171907
0.25990406 0.13708012 0.004561135 -0.10879972 0.01644746 0.19562766 -0.09110968 0.09126564
-0.04262878 0.11185194 0.3562113 -0.18288621 0.110453896 0.11003063 0.044271804 -0.24071842
0.3448456 -0.14706686 -0.405867 -0.16780038 0.010976051 0.11386622 -0.029246684 0.2985164
-0.1300212 -0.15679745 0.14579484 0.28258112 -0.16217381 -0.052102845 0.10839869 -0.22268614
-0.38377777 0.13044581 0.13450469 -0.20183739 -0.050229616 -0.4522068 -0.16183461 -0.049438246
0.10641246 0.13310345 0.20862201 0.20039743 -0.10011518 -0.3193009 0.2272508 -0.008533632
-0.018107425 -0.13318856 -0.11708382 -0.048783008 0.08996721 0.063454665 -0.30943993 -0.030177014
-0.0070758676 0.058893453 0.02223724 -0.25157848 0.08128942 -0.17001915 -0.23135021 0.07556728
-0.023247287 -0.08402179 0.13354704 0.20333496 -0.30535442 0.17317638 0.054893747 0.23454341
0.18360978 -0.1392019 0.072257884 -0.007788947 -0.25986564 0.3677534 0.21388038 -0.21311869
-0.0912953 -0.29192144 0.0055662766 -0.21609591 -0.37353763 -0.2902834 0.18970694 0.103187695
-0.20098461 0.13032374 0.05787773 -0.27260897 0.03804066 -0.18966977 0.15542027 -0.41239715
-0.056887068 -0.012960511 0.27068096 0.04755607 0.12019429 -0.056411285 0.21597095 -0.00579303
-0.2017169 -0.16111262 -0.0019774814 0.25745448 0.14182582 0.22861911 -0.13348219 -0.0787031
-0.14889167 0.04136906 0.19910675 -0.2315497 -0.31349924 0.32186958 -0.0700253 -0.045565747
-0.17011648 -0.0923883 -0.24615836 -0.14318997 -0.034058597 -0.15369587 0.16811994 -0.24552754
-0.035403464 -0.21184748 0.09813081 0.15880439 -0.07532045 0.055015743 -0.33029038 -0.0947224
0.056156505 0.00045376187 -0.15147129 0.05594786 0.05300069 0.1267361 0.45757422 -0.3969465
-0.17708462 -0.22734287 0.0823245 0.011216381 -0.026578885 -0.10655288 0.064174384 -0.032370973
0.38989016 0.22685003 -0.09147553 0.09517719 0.14315088 -0.1400678 0.31480426 -0.097016126
-0.12487975 0.16510358 -0.3219659 0.16468816 -0.12059142 0.17079458 0.034015015 0.24075621
-0.025507867 -0.13134548 0.03496709 -0.04867005 0.15853682 -0.16049805 -0.07946186 0.1277002
0.20182009 0.1191985 -0.18767974 -0.0017898143 0.18151875 0.43060294 0.05124584 0.04079696
0.12840419 0.19367522 -0.09309103 0.14508441 -0.07627458 -0.38021556 0.0052092364 -0.03472138
-0.026477411 0.19047248 -0.18696189 0.19386008 -0.005242958 0.36808646 0.23996 0.10884902
0.23154785 0.06752107 0.09021867 0.10655871 -0.01244327 0.16201876 -0.07272973 0.118313
0.08908363 -0.06354249 0.09102076 0.116357125 -0.17872383 0.20616461 0.04229429 0.2114038
0.23090866 0.24087383 0.018959014 0.0014008876 0.063337475 0.10823558 0.17348137 0.1909618
-0.18247803 -0.3329922 0.2097385 -0.085812956 0.06738939 0.12560046 0.120904826 -0.23579139
-0.21881458 0.39580843 0.18661599 -0.25882873 0.18362477 -0.020942627 -0.17140539 -0.054778185

head.0.bias f4 [512]
00000000: 6473 8e3e 183b 8abe 25e9 20be 34b9 dcbd
00000010: 37fa 86be 93c0 1fbe 6002 2ebe e921 c03c
00000020: 28e0 063e d025 a23d f01e d73d 6b1c 89bd
00000030: bab6 88be c7b1 e3bd bad2 86be 8adf 88be
00000040: fc7b 1bbe 3f63 8c3e 3e59 5a3e f69b 7e3d
00000050: e098 ce3d 983b 81be a382 e53d f547 113e
00000060: c147 a5bc 915c a83d 63a3 05bd 4ac1 0b3e
00000070: 9532 fbbd 5f29 aabd 5355 b63d 8899 0bbc
00000080: 15e3 10be 1800 73be 8040 fabb e396 34be
00000090: cf04 97bd c192 1e3e 8ec2 38be 6cb0 40bd
000000a0: 3ca2 efbc 3a1c 683d 0d63 80be 539c ca3d
000000b0: 6a26 77be 66ef 1dbe e26b acbe 65d5 d0bc
000000c0: b39d 033e c000 86be 350c 333d 0c46 863d
000000d0: 3171 8a3e e30d 253e dd4e 83be f26c 853d
000000e0: 563d c6bd 8454 523e 3ef6 153e eded f9bc
000000f0: ab89 883e 3c4a 51be 29e4 46be a973 28be
00000100: e489 183e 534a 11be 935b 18be 1da4 5cbe
00000110: f793 383e 21de 07be 2251 0e3e 0e99 913e
00000120: 00eb 84bd 05cb a3be 392a a6be 9052 c3bd
00000130: 87fc db3c 1466 f53c 3527 8dbc 5674 5dbd
00000140: a533 f83d 68d0 453a 62e3 84be dc0f 71be
00000150: 64e6 1f3e 0031 42be 2aa5 553e eea1 0bbd
00000160: f937 8abe f7ff 253e 0381 d03c 465b 3dbd
00000170: b28a 01be c613 693d 5194 2ebe e8d5 163e
00000180: a95f a0be 8e27 493e 6090 7abe 5ca9 8f3c
00000190: fe63 5ebe 9f10 79be 896b 99be a10b 643d
000001a0: 3d64 4ebe 5b9f 9f3d 2a17 4fbd cf6d 713e
000001b0: 7dba 593d 7341 9abe 6471 0f3e 850f 843e
000001c0: 391c 91be baeb 0abe 9643 8f3d adc5 ed3d
000001d0: 2280 a3be db92 fdbd 5c5c 823e d8d4 8abe
000001e0: 0238 883d 6ffc ae3d 65f0 993e eb18 e13b
000001f0: 2c3a 933d 9819 4cbe fada e83d fd5a b3bd
00000200: 8597 60bd ea54 eebd 8a11 013e 4e00 723e
00000210: beb4 193e 2179 d03d 876d 1dbe e324 143c
00000220: 9fff 91be 4824 2c3c b22c 9ebe afda e23d
00000230: 54ca 3ebe f710 26be 312b 403d 648a 05bd
00000240: db5b b1be 0d0f 393e b6ce 03bd 4a99 92be
00000250: a7d3 bc3c be3b 1f3e f9c4 02be a648 1ebe
00000260: c69c 1b3e 0a86 853e 606e 54be 56fc 0e3e
00000270: b0a6 cfbb 680b 7bbe 607d 69be 393b 3abc
00000280: e2ce 1ebe d1c3 64be c429 663d 7dbf 52be
00000290: 5454 a1bd e018 97be ea71 28bd 022a 0dbd
000002a0: 9686 f63d b12b 18be 551a 263e a634 6cbe
000002b0: 8c31 acbe 7caf 63bc 0bfc 9bbd 1cca 3bbd
000002c0: e9cf 163e c9f8 77bd 9874 123e 2546 753d
000002d0: d559 283b c777 8dbc 72b9 fa3c c570 f93b
000002e0: 0e49 01bd b34d 34be 9b2c 1c3d 91e7 8f3e
000002f0: 567b 9ebd 32ca 6a3e 21a5 a53d bd21 793e
00000300: 8e2d 8e3d 668b 9ebd 32d3 a43d af22 3abe
00000310: 8307 73be e383 2ebe f43f 84bd 7248 d8bc
00000320: cf40 293e 9480 89bd 2437 b3be d0e0 0d3d
00000330: 47ea 8cbd 3ac2 8e3e 1adc 56bd 09d5 c6bd
00000340: 5a7c 883e 97db 3dbe 8daf 24be fedd 14be
00000350: 8b39 3a3e 6b47 80bd 7234 cb3d b06d 9fbd
00000360: 701d 993e e4a0 5f3e 95f9 043e f74f 9a3d
00000370: 1684 4abe cb4a 92bc 4062 113e c175 20be
00000380: 4431 d9bd f4d9 a0bc 3bc1 5abe 3432 003e
00000390: 3bd9 5ebd 171e ff3c 801d 60be 6e74 57be
000003a0: 8642 343e 76cd 853e 0526 b1bd 4031 37be
000003b0: 7095 b83d a3d1 6e3d 7a55 86bd d880 74bd
000003c0: 9bf7 f8bc 4594 6d3e f3e6 63bd edfe 7cbe
000003d0: 8321 41bb 6283 d23d 1eb1 483e 67a6 26be
000003e0: 5a19 b8bd c462 aebe 835d 1cbd 7d72 6cbe
000003f0: fe48 5d3e 8e70 703e 7b41 5fbe 68b5 043e
0.2782241 -0.2699821 -0.15713938 -0.10777512 -0.26362774 -0.15600805 -0.16993093 0.02345367
0.13171446 0.079173684 0.10503948 -0.066948734 -0.2670191 -0.11117893 -0.26332647 -0.26733047
-0.15184015 0.2741947 0.21323106 0.062160455 0.10087752 -0.2524078 0.112065576 0.14187606
-0.020175816 0.08220781 -0.03262652 0.13647953 -0.12265507 -0.08308672 0.08902993 -0.008520491
-0.14149125 -0.23730505 -0.0076370835 -0.17635684 -0.07373964 0.1548567 -0.18042967 -0.04704325
-0.029252164 0.056667544 -0.2507557 0.09893098 -0.24135748 -0.15423355 -0.33676058 -0.02549238
0.12853126 -0.26172447 0.043712813 0.06556329 0.27039483 0.16118579 -0.25646105 0.0651492
-0.09679668 0.20540053 0.14644715 -0.03050896 0.26667532 -0.20438474 -0.19422974 -0.16450371
0.14896351 -0.14188509 -0.14878683 -0.21546979 0.18025194 -0.13268329 0.13898137 0.28437084
-0.06490135 -0.3199083 -0.32454088 -0.09537232 0.026853813 0.029955901 -0.01723061 -0.054066025
0.121192254 0.00075460086 -0.2595473 -0.23541206 0.15615231 -0.18964005 0.20863786 -0.034089975
-0.2699583 0.16210924 0.025452143 -0.046229623 -0.12650564 0.056903623 -0.17048766 0.14730036
-0.31322983 0.19643995 -0.24469137 0.017536812 -0.21717831 -0.24322747 -0.29964855 0.055675153
-0.20155425 0.077940665 -0.0505592 0.23577045 0.053156365 -0.3012806 0.14008099 0.2579309
-0.28341845 -0.13566485 0.06995313 0.11609969 -0.31933695 -0.12381526 0.2546109 -0.27115512
0.06651308 0.08544242 0.3006622 0.0068694255 0.0718883 -0.19931638 0.113698915 -0.08757589
-0.054832 -0.1163729 0.12604347 0.23632929 0.15010354 0.101793535 -0.15373813 0.009041998
-0.28515336 0.010506697 -0.30893475 0.11076867 -0.1863187 -0.16217409 0.04691619 -0.032602683
-0.34640393 0.18072148 -0.032179557 -0.28632575 0.023050142 0.15550134 -0.12770452 -0.154574
0.15196523 0.26078826 -0.2074523 0.13963446 -0.0063370094 -0.2451607 -0.22801733 -0.011366659
-0.15508607 -0.22340323 0.056192175 -0.2058086 -0.078774124 -0.29511166 -0.041124262 -0.03446389
0.12037389 -0.14860417 0.16220982 -0.23066959 -0.3363155 -0.013896819 -0.07616433 -0.045847043
0.14727749 -0.060539994 0.1430229 0.05988135 0.002568831 -0.017269028 0.030606005 0.00761232
-0.03156381 -0.17607765 0.038128477 0.2810636 -0.07738368 0.22928694 0.080881365 0.24329276
0.069422826 -0.07741432 0.08048095 -0.18177293 -0.23733334 -0.17042498 -0.064575106 -0.026401732
0.16528629 -0.067139775 -0.35003006 0.034638226 -0.06880622 0.27882558 -0.052456 -0.09708602
0.26657373 -0.18540798 -0.16082592 -0.14537808 0.18186013 -0.06263622 0.099221125 -0.07784593
0.29905272 0.21838719 0.12985833 0.07534783 -0.1977695 -0.01785793 0.14197636 -0.1566992
-0.106051 -0.019635178 -0.21362774 0.12519151 -0.054406386 0.031142278 -0.21886253 -0.21040508
0.17603502 0.26133317 -0.0864983 -0.17889881 0.09012878 0.058305394 -0.06559272 -0.059693187
-0.030391505 0.23201092 -0.055640172 -0.24706621 -0.0029469437 0.102789655 0.19598815 -0.16274415
-0.089892104 -0.34059727 -0.038175117 -0.23090549 0.21609876 0.23480436 -0.21802323 0.12959826

head.3.weight f4 [256, 512]
00000000: 1333 8e3d 1b34 a53c e239 d5bc 3a17 0a3b
00000010: f215 a1bb 1a4e 7b3c 295e d1bc 0ca2 c2bd
00000020: 63e0 e83c 1ac8 f1bb dc84 9abd e01f a43c
00000030: 3c04 c6bb c67b 5c3c 2483 943d c9a3 07bd
00000040: c536 6e3d 19a5 d73c f62e 07bd bf66 68bd
00000050: b07c d4ba b0bf 543d b79a d7ba 49fe bebc
00000060: d9d3 253d f582 ad3b 1bc6 a5bc 5d92 20bd
00000070: 6afa 1ebd 06f4 913a be64 b93d e70a 89bd
00000080: 85e0 2ebc 9baf f5bc 3db4 b5bc b7db 8abb
00000090: 3dbd 2ebd dad9 71bd 128e a43c 4a8d aebc
000000a0: aa19 09bd 6f1c 8b3d a2c2 773d 4549 b2bc
000000b0: bcb9 abbc aec9 9dbd 4440 2ebd 7644 8dbb
000000c0: 6bd7 a43b 5ec8 01bd a07b 82bc 8397 b5bd
000000d0: 1197 b93d a66a 05bc 7ce2 78bd 3975 00bc
000000e0: 29cf c8bd f3c3 d93d db9d e43b 1b5c 15bc
000000f0: e382 2f3c 4122 a4bc 6735 193d da5e 7bbd
00000100: 9e68 f23c 850e 44bc 4fa9 953c 0095 b03c
00000110: f56d fabb ea23 03bc b3ad 233d 0c29 96bc
00000120: 25a8 42bd 62f3 46bd 283c c2bd 1791 37bd
00000130: 9ab0 3bbc f616 1abc c1f6 5f3c 03c9 033d
00000140: 2cde 633d bb83 f6bc c7eb 023d 643b 213d
00000150: 1355 1dbb c93d 5f3d e3d1 1cbd 8694 2dbd
00000160: f95f aabd 9bd4 be3c bfe3 fe3d 8eaf 8abd
00000170: 3db5 3fbd e943 133d 58fb 94bd d9fb 143d
00000180: 46b5 16bd a4a8 a43d 2c55 0e3d 74f0 c439
00000190: 6924 7bbc 7ede 64bc fba9 65bd 19ce 11bd
000001a0: 8d77 26bd 4aaa 183d c546 333d ee7f 33bd
000001b0: 771f 5fbd c4f7 e53b 3cfe fcbc 1d7b 29bd
000001c0: e351 713d 9b61 0abd 70db c5bd f98e 2c3b
000001d0: 7e8d abbc ec84 1a3d 02c9 0e3d 8b0c 88bc
000001e0: aee9 59bd b50b 00bd f3e3 7d3d a08c a3bd
000001f0: 3132 8bbc 2043 d8bb e7b6 c83c b5fd 90bb
00000200: ddc5 5abc a808 ddbd ff1b 493d e2e0 01bd
00000210: 056a 363c b21f aa3d 0c0c 9dbd 51f6 723d
00000220: 7c76 11bc 2e86 313a bb46 b4bd f652 f83c
00000230: 72f7 133d 4bbd e2bc 0d3b 30bd 6c6c cdbb
00000240: c52b cabc a2d3 0abc fd0c 0cbd a96f f4bc
00000250: 11ea 143d ed44 8a3c d730 b1ba af82 44bd
00000260: a1f5 9a3d 5451 343d c561 d23c f9e7 a3bd
00000270: 3518 46bc d2de 1fbc 09c7 e03c 2d9d 7bbd
00000280: 64ae d6bd 4836 e5bc 84c7 8fbc 5795 1b3c
00000290: f3d1 8fbd ec71 0e3d ed30 083e 7211 243d
000002a0: 8979 f5bc e97a 563c 794c 58bd 0dad 113d
000002b0: 5fbd 1f3d a9e7 613d f33d 9dbc 82f2 863d
000002c0: 2dee 4f3d 0b04 4a3d a989 9b3d 3056 243c
000002d0: b94c 5fbd 94f0 013e 50a0 343d 8656 133d
000002e0: 25bb 6cbc 9c20 db3a 0277 61bc 3fbe 24bd
000002f0: 3b12 003c 9cc1 cebd f64c f93c e1b8 1a3b
00000300: 793e 16bd 452a 56bc b36b 023d 303d e93d
00000310: c376 adbd 67b9 083d 505d 0b3d 3f84 0dbd
00000320: ae66 86bd bc03 bfbb 44fb 63bc c315 76bd
00000330: bbaa d93c 448c 113d 7433 a9bc ac48 973c
00000340: 51c0 b33d 72bc 19bd 672b 9a3c 3ec0 5dbd
00000350: 5913 903b d362 723d 2a4f 083b eaf6 403d
00000360: 7180 383d 0c57 b23c a0ee f5bc 2861 1abd
00000370: d047 e7bc e5fe f2bc 559b 90bd d84f fbbc
00000380: c6ba 90bc 94e9 f4bb 51fb fcbc 285b 89bd
00000390: 9582 66bd 4279 383c d61f bb3c 49b1 b43c
000003a0: a7fa 1cbd 8d64 953d 04f4 2fbd bb86 3b3d
000003b0: 5473 58bd a7ac a1bc 23ee 1f3d 9358 bdbb
000003c0: 3946 d2bc c707 ee3d 1e49 a8bd 9a8a 77bc
000003d0: 9a5c e7bc ef19 773c aceb ffbb 15cc c7bd
000003e0: 2ed4 b13d 7f2c 30bd d455 a2bc 41fe bebc
000003f0: fd4e 483d 6143 823d 33ad dfbd 155a 5dbc
0.069433354 0.020166447 -0.026028577 0.0021070973 -0.004915946 0.015338445 -0.025557594 -0.09503564
0.028427308 -0.0073785903 -0.07544872 0.02003473 -0.0060429852 0.013457244 0.072515756 -0.033115182
0.0581577 0.026323842 -0.03300377 -0.05673861 -0.0016211476 0.05194062 -0.0016449307 -0.023314612
0.040485237 0.0052951523 -0.020236066 -0.039202083 -0.038813032 0.0011135347 0.09052418 -0.066915326
-0.010673647 -0.029990962 -0.02218067 -0.004237618 -0.04266094 -0.05904565 0.020087276 -0.021307606
-0.03347174 0.06792533 0.06048835 -0.021763453 -0.020962588 -0.07704483 -0.042541757 -0.0043111397
0.0050305626 -0.031685226 -0.01592809 -0.08866789 0.09062017 -0.008143103 -0.060762867 -0.007840448
-0.09805138 0.106330775 0.0069768257 -0.009116198 0.010712358 -0.020035865 0.037404444 -0.061369754
0.029590901 -0.011966352 0.01826921 0.021555424 -0.0076425024 -0.008004168 0.039960574 -0.01833012
-0.047523636 -0.04857195 -0.0948413 -0.044816103 -0.011455679 -0.009404888 0.013669671 0.03217412
0.0556318 -0.03009211 0.031963136 0.03936328 -0.0024007007 0.054502282 -0.0382861 -0.04237797
-0.083190866 0.023294738 0.12445783 -0.06771766 -0.0468037 0.035953436 -0.072745025 0.036372993
-0.03679397 0.08039978 0.034749195 0.00037563185 -0.015328505 -0.013969062 -0.05607031 -0.03559694
-0.040641356 0.037271775 0.043768663 -0.043823175 -0.054473367 0.0070180614 -0.030882947 -0.041377176
0.058915984 -0.03378449 -0.09660995 0.0026330336 -0.020941492 0.03772442 0.034859665 -0.016607543
-0.05320137 -0.031261165 0.061984967 -0.079858065 -0.016991707 -0.006599799 0.024501277 -0.0044247755
-0.013352838 -0.10792667 0.049098965 -0.031708606 0.011133675 0.08306827 -0.076683134 0.059316937
-0.0088783465 0.00067720085 -0.08802553 0.030312996 0.036124654 -0.027678153 -0.043025065 -0.0062690284
-0.024679074 -0.008473309 -0.034192074 -0.0298384 0.036356036 0.01687857 -0.0013518584 -0.047976192
0.07566381 0.044022873 0.025681386 -0.0800323 -0.012090732 -0.009757714 0.027438657 -0.06142919
-0.10482481 -0.027979985 -0.017551191 0.009496055 -0.070224665 0.034776613 0.13299914 0.0400557
-0.029965179 0.0130908275 -0.052807305 0.035565425 0.038998958 0.05515257 -0.019194579 0.065892234
0.05076425 0.049320262 0.07594616 0.010030314 -0.054516528 0.1268943 0.0440982 0.035971187
-0.014448916 0.0016718092 -0.013761284 -0.040220495 0.0078168465 -0.10095522 0.030432206 0.0023608732
-0.036680672 -0.013071601 0.03184099 0.11388624 -0.084699176 0.03337994 0.034024537 -0.034549948
-0.06562553 -0.0058293026 -0.013914887 -0.060079347 0.026570668 0.03553416 -0.020654418 0.01846727
0.08776916 -0.03753323 0.018819524 -0.054138415 0.0043968377 0.059176277 0.0020799139 0.047110476
0.045044366 0.021770023 -0.030021012 -0.03769031 -0.028232485 -0.029662559 -0.07060877 -0.03067772
-0.017667186 -0.0074741337 -0.030881556 -0.0670684 -0.056276876 0.011259379 0.022842329 0.022057192
-0.03832498 0.07294569 -0.04295732 0.045782786 -0.05284436 -0.019735647 0.039045464 -0.005778381
-0.02566825 0.11622577 -0.08217071 -0.015108729 -0.028242398 0.015081867 -0.0078100767 -0.097557224
0.08683048 -0.043011185 -0.019816317 -0.023314597 0.048903454 0.06360508 -0.10921707 -0.013510247

head.3.bias f4 [256]
00000000: 446a b33c 97db b2bb 8db4 aebd bb30 0cbc
00000010: d228 56bd 3512 433d faee cabc 686d 053c
00000020: 4c70 943b fb97 e43c 4554 e3bd 0244 a5bd
00000030: 0a45 d7bc ee1f b2bd 7cb3 4b3d 9b52 3cbd
00000040: fbff 8f3b 7f4b 98bd 409f f3bd 8270 15bb
00000050: 5a07 84bc 320b 8bbd 9873 0dbd db2f 37bd
00000060: f8d0 46bd a7e5 29bc aac3 63bd e33d 263c
00000070: f07e 31bd 7317 85be 5f83 b2bd 18f2 47bd
00000080: f0d4 c23c baa7 8f3c 9436 92bd d406 aebc
00000090: 1183 b2bd 9ab7 24bd f6cc 0fbd 89a6 7a3c
000000a0: 35f1 f1bd 92cc a0bd 271f 99bd 9f08 a8bc
000000b0: dc8c 8fbc 930a 04bd 4a0e 9dbc 6439 d63c
000000c0: 0088 e7bb da36 24bd e5e8 323c 6853 debd
000000d0: 7daf 9a3b 915a 97bd c3fa 46bd 7092 b1bb
000000e0: da8c 1d3d f84a 90bd 4692 8dbd 4066 6fbd
000000f0: 1e20 b539 527e 27bd f202 0bbd 92f5 f7bc
00000100: e2f7 c8bb 0cff dbbc ac90 513c 9ed3 953c
00000110: 73ca b4bd 607d f0bc fbbb e73c 87aa 21bd
00000120: a99e cabc 90c4 c93c 1c3f 0abe bff7 81bc
00000130: 7354 0e3d 1312 b7bd ee9f 9cbd 70d7 bb3c
00000140: 9c95 7fbd 026c b73c 9e93 96bd c97a 6b3c
00000150: 6108 443c 55cd ccbc de75 4cbe 2ef0 c8bd
00000160: a858 cb3c d4f7 c2bb fcb0 7b3c fee4 e0bb
00000170: 8db8 c3bc 056b 99bb aba7 d5bd e2c8 0abd
00000180: b312 83bd 278a 0ebd d780 49bd 54fc 2bbd
00000190: 7474 ef3c 344c b9bc 9d80 80bd 347d 17bd
000001a0: ac5a 063c ed9c 03bd f1e9 823c eb7c c2bd
000001b0: 658f 053d 7655 09be acd2 a7bc cad8 68bc
000001c0: 5ec9 c2bd 2eb9 f7bc 5175 b93c a05b 5e3a
000001d0: 6ea2 043d 42a9 9ebc d5c8 773b 6784 3e3c
000001e0: 0cc1 aa3c f3c0 ccbd afdf 6dbd 16f6 3d3c
000001f0: ccac dbbd def6 b03b bd40 debb 3c0d 66bd
00000200: e298 32bd b5ad c5bc 90c3 c8bc f181 e33c
00000210: 6b6c 80bb 4ceb 01be e00a 65bc edd9 8ebc
00000220: 4d62 9d3c ddbe 5dbd e58d b5bd fe61 643c
00000230: eb37 673c a9a5 6bbd 5f0a b5bd 084e b7bd
00000240: 8e26 4cbd bf76 dabd 4f16 82bc 8f37 10be
00000250: e8fa 1a3c fd14 6cbd 79e2 8ebd bbfd 51bd
00000260: 7a3f 2fbb 2762 b0bd 37b3 133c fe74 61bc
00000270: 0ab3 68bc 1084 88bd 5738 943b 7c60 2abd
00000280: bd8b 183d ebd0 6dbd b79b 0abd c1a0 e6bc
00000290: 1990 3f3c 2bf8 b4bc f523 2cbe 0dd0 35bd
000002a0: f5a7 43bd ee30 14be 8c8a 07bd 2823 c1bc
000002b0: ce82 27bd 4d50 bd3b dfb2 c33b cafa 1ebd
000002c0: 199f f7bc bdc2 88bc 329e 71bd d150 07bc
000002d0: 9ceb 6c3c c67c 48bc ab8f dfbd d724 0d3d
000002e0: b8ad 7a3c f094 023d a9af 82bc 6881 30bd
000002f0: 6e84 9abc 24d5 3a3c 1fe5 2abd 9d8b 77bd
00000300: b99d 46bd b000 44bd 94d7 1c3c 8182 75bc
00000310: 2223 18bc ff9e 24bd 01ad 1ebd 85bf 0a3d
00000320: 3673 25be 9a7f 6ebd f000 313c c4d4 e0bd
00000330: 18e4 c8bc 36a1 afbd 3f3e cfbc 7c7c 51bc
00000340: ec78 47bd a121 58bd 77a5 9cbc 97e8 67be
00000350: 22d4 82bc d88b 473b ddd5 d0bc 3131 343c
00000360: 0391 c53c c0b6 91bd 5d91 be3c 9d10 86bc
00000370: 2eda a3bb d57f 1ebd 4304 8dbd 4ce6 9abd
00000380: 001a 6b3d 4c0d 6cbc d6c7 98bc caca 273d
00000390: 759b 31bd ecc7 0e3d c41e 05bc e92a d9bb
000003a0: 9431 103c 0519 77bd 6e86 83bd e8b3 9fbc
000003b0: bd81 adbd c56c b3ba 3091 9f3c d55b e8bd
000003c0: 66ca 06be 51f3 72bc df8f 683d 017c 45bd
000003d0: 3966 b03c c726 b3bc f4a4 d2bc be72 debc
000003e0: c8f7 7cbd 770a 05be b5ea 13bd 2f4a 3bbc
000003f0: ace5 e1bc 53d6 debc 3f5e f43c 6b23 babd
0.021901257 -0.005458306 -0.08530531 -0.00855654 -0.052285023 0.047624785 -0.024772156 0.00814376
0.0045299884 0.027904501 -0.111000575 -0.08069612 -0.026278038 -0.08697496 0.049731717 -0.045977216
0.004394529 -0.07436275 -0.11895609 -0.0022802656 -0.016116787 -0.06789245 -0.034534067 -0.044723373
-0.048539132 -0.010369695 -0.05560652 0.010146591 -0.043333948 -0.25994453 -0.08716463 -0.048814863
0.023783177 0.017536033 -0.07139316 -0.02124349 -0.08716405 -0.04021416 -0.035107575 0.015298494
-0.11813585 -0.07851519 -0.07476645 -0.020511923 -0.017523222 -0.032236647 -0.019171853 0.026150413
-0.007065773 -0.040091373 0.010919784 -0.10855752 0.004720627 -0.07390321 -0.04857899 -0.005419068
0.038464405 -0.07045549 -0.06912665 -0.058447123 0.0003454694 -0.040891953 -0.033938356 -0.030268464
-0.0061330656 -0.026855014 0.01279084 0.018289384 -0.088276766 -0.029356658 0.028287878 -0.03946927
-0.024733858 0.024629861 -0.13500637 -0.015865205 0.034748506 -0.08938994 -0.07647692 0.022929877
-0.062398538 0.02239037 -0.073523745 0.014372536 0.011964888 -0.025000254 -0.19966838 -0.09811436
0.024822548 -0.0059499536 0.015362021 -0.0068632355 -0.023891712 -0.004681947 -0.10432371 -0.033882983
-0.06400051 -0.03479972 -0.049195137 -0.041988686 0.029230334 -0.022619344 -0.06274531 -0.036984637
0.008200329 -0.032132078 0.015980693 -0.094964825 0.032607455 -0.13411507 -0.020486198 -0.014211843
-0.09511064 -0.030239668 0.022638949 0.0008482281 0.032381468 -0.019367818 0.0037808914 0.011628247
0.020844005 -0.0999774 -0.05807465 0.011594316 -0.10726318 0.0054005226 -0.0067826197 -0.056164965
-0.04360283 -0.024130682 -0.024507314 0.027771922 -0.0039191744 -0.12687415 -0.013979644 -0.0174379
0.019211913 -0.0541371 -0.08864955 0.013939379 0.014112453 -0.057531033 -0.08839869 -0.0895043
-0.049841456 -0.1066718 -0.015879778 -0.14083694 0.009459235 -0.057637203 -0.0697679 -0.051267367
-0.0026740716 -0.08612471 0.009014896 -0.013760803 -0.0142028425 -0.06665814 0.004523318 -0.04159592
0.03724264 -0.058060568 -0.033839907 -0.028152825 0.01169207 -0.022090992 -0.16810592 -0.044387866
-0.0477676 -0.1447179 -0.033091113 -0.023576334 -0.04089623 0.005777395 0.005972251 -0.03881339
-0.03022723 -0.016694421 -0.058988757 -0.008259014 0.0144604705 -0.01223678 -0.10916074 0.03445896
0.015300207 0.03188032 -0.015952902 -0.04309216 -0.018861976 0.011403356 -0.041722413 -0.06043588
-0.04849026 -0.04785222 0.009572882 -0.014984728 -0.00928572 -0.040190693 -0.038739208 0.033874054
-0.1615723 -0.05822716 0.010803446 -0.10978082 -0.024522826 -0.085756704 -0.025298236 -0.012786027
-0.048699304 -0.052766446 -0.019121869 -0.2264732 -0.015970293 0.0030448344 -0.025492603 0.010998056
0.024116999 -0.07114935 0.023262674 -0.016365344 -0.0050003743 -0.03869613 -0.068855785 -0.07563457
0.057397842 -0.014407467 -0.018649977 0.04096488 -0.043361146 0.03485863 -0.008125011 -0.0066274297
0.008800883 -0.060326595 -0.06422125 -0.019494966 -0.08472011 -0.0013689032 0.01947841 -0.113456406
-0.13163146 -0.014828519 0.05677783 -0.048213962 0.021533119 -0.021869076 -0.025713421 -0.027154323
-0.06175974 -0.12992273 -0.036112506 -0.011431261 -0.027575336 -0.027201807 0.029830096 -0.09088787

head.6.weight f4 [128, 256]
00000000: 8a7d 8a3c 05a7 83bc 37e1 25bc e0a9 483c
00000010: 6113 b83b b39e 113d 9578 323d d9ee 46bc
00000020: eb8b 5f3c 7ec2 0dbd 6d6f a43d 26c4 abbc
00000030: ef04 0b3d 4d7d f83c c7b9 853b c0b0 a6bd
00000040: 5be4 033d a88d b23c ceb8 dfbc 27a3 ed3c
00000050: a875 50bc 699f 293c 42ab 64bc e0b1 0fbc
00000060: 5cd7 2fbd 6b3d 8ebc 5cf6 b53b e966 11bd
00000070: 16ae 00bd 3876 a5bb 15cf 25bd a5de 8cbc
00000080: b3b2 653b bcd6 3ebc 4b9d 26bd af48 8fbd
00000090: 0e35 8c3a e898 8fbc f049 7c3d d581 d7bc
000000a0: 040f 3cbd 3b35 6f3d 699c 033b 8f8a f83c
000000b0: fbab 873c 9878 8d3d 46db c73c 166b 073d
000000c0: ea44 1cbd 6f0b 97bc 8e73 84bc ed60 1abd
000000d0: 260f adbc 9400 3abd 4b4f 31bd 830e 9e3b
000000e0: 1de8 183c a749 64bc 515b 8d3b 1db5 d73c
000000f0: f950 55bd 1518 3abd 124f 1c3d 27fc 813c
00000100: cdb8 803c 1b72 42bc 98c1 113d fa8c d33c
00000110: f75e 1b3c 37d5 8d3c d524 053b 7fe6 3fbd
00000120: 667b 42bd 48f9 e6bc bf64 12bc b13a 0bbd
00000130: 1c2c 88bc 7a5c ec3c bb60 94bb 9728 8c3c
00000140: 271d 713c 5093 8fbd 3afb ad3a 331e 2dbd
00000150: d786 fa3c 1e61 94bc e82e 1abc 2c44 3dbd
00000160: ec98 603c d555 683d 5d6d fa3b b9f1 3b3d
00000170: dc5d 0f3d 8034 96b7 91d8 d4bb a80b e1bb
00000180: 743f 763d 2787 54bc 91d1 053c d3a9 213d
00000190: c8dd a83c b0bf 7e3c ae94 b5bc 6b34 debb
000001a0: afdf 1e3d 2841 8b3c 534f 373b a2b8 a6bc
000001b0: f097 723b 3862 3cbd 8375 93bc 6928 103d
000001c0: e1f6 493d bf28 2e3c fcd8 04bd a494 93bc
000001d0: 241a 3b3c cd19 04bd d5f4 9cbd a0a2 17bd
000001e0: db2f 8a3c de08 183d bc4a cdbc 113d b1bc
000001f0: 6c2e 83bc 260e 8cbc 72ba b23c be7d 533d
00000200: 0470 073d da77 4e3b 8540 9ebc 9db9 3dbd
00000210: 994b 06bc a2ba 1e3d 7327 0d3d 4a97 d43a
00000220: a949 d1bd 6e94 263d d0f8 583c 212a a0bc
00000230: 48bd 793c efdf 47bd e5bf 7fbd e95e ca3c
00000240: 5f33 dc3b 97f1 2c3d ee3d ee3c 56af 703d
00000250: 48b6 0f3d 4264 fc3b 8ec1 333d 3832 cbbc
00000260: 7893 633d 4f7b e33c 27b3 9f3b 32ed 5abd
00000270: 41fd 5c3d 453a 31bd 19bb 2fbd 5877 24bd
00000280: fb1e a9bb f429 503c b668 49bd 2245 2d3c
00000290: dc3a 89bc d030 453d cebb 0a3e 0032 8b3c
000002a0: 629b 233b 9445 053c caec 62bd 2e85 393d
000002b0: 917f 62bd 2dad c9bc cbf1 59bd 4490 ecb9
000002c0: 3d23 4d3d ad8c cebc 41ed 38bd 0dce d63c
000002d0: 13a5 01bd 1399 833c 14c7 eebc 0dbf 26bd
000002e0: 97c3 4abd bc0e 21bd a833 863c 170d 183d
000002f0: a3d0 54bc 934d 133d 1cdc 6fbd e81a 3abd
00000300: 899d b8bc c991 bcbb 255b f3bd 4433 403d
00000310: 4954 87bc 1c40 323d 3164 83bc 973a edbc
00000320: 6513 4f3c a900 0c3c 342c 343d 9377 ad3b
00000330: d20a 2839 edeb e4ba 4382 42bd 6c66 bb3c
00000340: 9b04 90bd af34 823c 40fb 943b 400a 03bc
00000350: 8120 f2bc b496 efbc 93dc 00bd 09b3 ca3c
00000360: c4b6 353d 1856 b2bd f35a 66bd c88a b7bd
00000370: ea37 30ba 54bf 653c 5e4c 0b3d 05be 3dbd
00000380: 059d f03c cb5b 04bd d1a4 16bd 22ce 22bd
00000390: 0f72 9d3c a49b 2d3d 3326 0dbd 3cda 8c3c
000003a0: 7333 e3bb a17e 49bd 61d8 adbc f4cb fa3c
000003b0: 84b7 2cbd 11d2 ed3c e359 07bc 0d69 b13c
000003c0: f9b0 c03c e725 2ebd 9187 53bd 87a0 05bd
000003d0: dbf2 ebbb 925e 683d 542b 64bd 45c3 ee3b
000003e0: fa42 3a3c 79e1 383d f495 75bc c46b 13bd
000003f0: 8ef1 a8bc e28b 53bb bba9 163d 3f06 3fbd
0.016905565 -0.016070852 -0.010124496 0.012247533 0.0056175445 0.035551738 0.043572027 -0.012141907
0.013644199 -0.03460931 0.08029065 -0.020967554 0.033940252 0.030333186 0.0040809843 -0.08139181
0.0322002 0.021796063 -0.027309801 0.029008461 -0.012723364 0.010352948 -0.013956847 -0.008770436
-0.042929992 -0.01736327 0.00555305 -0.035498533 -0.03141602 -0.005049493 -0.040480692 -0.017196009
0.003504914 -0.011647876 -0.04067735 -0.06996285 0.0010696964 -0.017528966 0.06159395 -0.026307026
-0.045912758 0.058400374 0.0020082241 0.030339507 0.016561499 0.06907767 0.02439655 0.03306111
-0.03815166 -0.01843807 -0.016168382 -0.037690092 -0.021125387 -0.045410708 -0.04328851 0.0048235073
0.009332684 -0.013933576 0.0043138643 0.026331479 -0.052079175 -0.045433123 0.038161345 0.015867306
0.01571312 -0.011868025 0.035585016 0.025824059 0.009483091 0.017313583 0.0020316143 -0.046850678
-0.047480963 -0.028195038 -0.008935153 -0.03399152 -0.016622595 0.02885269 -0.0045281327 0.017109198
0.014716423 -0.070105195 0.0013273724 -0.04226513 0.030581875 -0.018112715 -0.009410597 -0.046207592
0.013708334 0.05672248 0.0076424317 0.04588482 0.03500162 -1.790584e-05 -0.0064955433 -0.0068678446
0.060119107 -0.012971676 0.00816764 0.039468598 0.020613566 0.015548632 -0.022165623 -0.006781151
0.03878754 0.016998842 0.0027970865 -0.020351712 0.0037016831 -0.045992106 -0.01800037 0.035194788
0.049307708 0.010629832 -0.032433495 -0.018015213 0.011419807 -0.032251168 -0.076638855 -0.037020326
0.016868522 0.03711783 -0.02506005 -0.021635564 -0.016013347 -0.01709659 0.02181742 0.05163359
0.03306581 0.0031504543 -0.019317875 -0.046319593 -0.008196735 0.038752206 0.03446145 0.0016219404
-0.10219128 0.040668897 0.013242915 -0.019551339 0.015242882 -0.048797544 -0.062438864 0.02470346
0.006719991 0.042222586 0.029082265 0.058760963 0.035085946 0.0077023814 0.04388576 -0.02480422
0.05556056 0.027768759 0.0048736515 -0.053448863 0.05395246 -0.04326846 -0.04290304 -0.040152878
-0.005161164 0.012705315 -0.049172126 0.010575565 -0.0167517 0.048142254 0.13548204 0.016991615
0.0024964442 0.0081342645 -0.0554016 0.045293026 -0.055297438 -0.02461871 -0.053209107 -0.00045120914
0.050082434 -0.025213564 -0.045148138 0.0262213 -0.031651568 0.016064202 -0.029147662 -0.040709544
-0.049502935 -0.039320692 0.016382053 0.03712186 -0.012989196 0.035962652 -0.058559522 -0.045435816
-0.022536056 -0.0057546836 -0.11882619 0.04692389 -0.016519682 0.04351817 -0.016038986 -0.028958602
0.012638901 0.008545079 0.043987468 0.0052937954 0.0001602576 -0.0017465331 -0.04748751 0.022875987
-0.070321284 0.015894262 0.004546553 -0.007998049 -0.029556515 -0.029246666 -0.031460356 0.024743574
0.044363752 -0.08707827 -0.05623908 -0.08962017 -0.0006722199 0.014022667 0.034008376 -0.046323795
0.029371748 -0.032314103 -0.036778275 -0.039747365 0.019219426 0.04238476 -0.034460258 0.017193906
-0.0069336235 -0.04919303 -0.021221342 0.03061483 -0.0421672 0.029030832 -0.008261177 0.021656537
0.023521887 -0.042516615 -0.051642958 -0.032623794 -0.0072005815 0.056730814 -0.055705383 0.0072864615
0.0113685075 0.045136902 -0.014989365 -0.035991445 -0.020622995 -0.0032279422 0.03678296 -0.046636816

head.6.bias f4 [128]
00000000: 0217 6a3c 164d 9b3d 467d 103d 70c6 2fbe
00000010: 1259 b4bd e87b 90bd adfc 533d df8c a7bd
00000020: ce2e 80bc f561 b4bd ab1c 84bd 02f2 fbbc
00000030: b042 91bd 0b22 aa3d bae6 b0bb 4ddf 9bbc
00000040: b9fc cebc d40e 11be b442 883d cced 1fbd
00000050: 49ba e8bc 7f4f 3bbd aa58 7abd ea7c a3bd
00000060: a6ea 78bd e4a5 86bb 7236 03be 28b6 62bc
00000070: 9039 0c3c d3b4 0fbe b6e7 94bd 705d a8bc
00000080: fbd6 0dbd 9034 8d3d cf78 2e3d e0c4 1ebd
00000090: 4034 42bd 5053 8fbd 2636 923d 0a97 02be
000000a0: 9b51 19bc 8d12 703d 23b1 14bd f3e1 62bd
000000b0: abe0 4bbd f05a 2fbe f2d6 533c d71b 3a3d
000000c0: 09c1 2abd ed0f 803c 44df 5fbe aa09 debc
000000d0: ab1a 58bb 5ccb 99bd 7197 88bd 4c4f ccbc
000000e0: e419 c3bd a00c b6bd a667 29bb cca5 94bc
000000f0: 6026 74bd 5425 abbc 4144 6dbd fcc9 90be
00000100: 248d 6dbc a589 00bd 6228 90bd e573 02bd
00000110: c869 843d 5c9b 89be a4a9 37be d672 6b3d
00000120: 38d2 443d 5de5 e93c 9d79 ad3c cb6f cc3b
00000130: 2c4e b7bd 7384 71bd 401e b13c 455d a2bd
00000140: 7659 9ebd 0211 2c3d c986 ad3d f55e f0bc
00000150: 6d59 e1bd 17e0 a4bc b48a 263d 38d6 de3c
00000160: b853 d8bc 5756 113d ecd3 8dbd 8166 3bbd
00000170: 0a50 dd3c d5ad 3fbb d50e 8dbe 870a 00bc
00000180: 005e 023d e00c f0bd 8161 c63d aa7a 04be
00000190: 959d f5bd 84af ed3c bb8a 96bd 8e81 76be
000001a0: 51b9 813d 531b 4e3d 60ad 78bc cd34 f9bd
000001b0: efe1 633d bf30 083d 9acf c2bd 87ad 6d3d
000001c0: fe7b 743d a49f d0bd 1087 1e3d c10d 00bd
000001d0: 49a8 623d 7a7d cf3c e053 8dbd 2462 933c
000001e0: 4579 413d 4e4e 0bbc b36d 943d be67 6cbb
000001f0: 23bb 7f3c 4d3c ac3d 2384 38bd dd87 20bd
0.014287712 0.07583062 0.03527572 -0.17165542 -0.08806051 -0.07054883 0.051754642 -0.08181166
-0.015647318 -0.08807746 -0.064507805 -0.030755047 -0.07092798 0.083072744 -0.0053985985 -0.019027377
-0.025266992 -0.14165813 0.066533476 -0.03904514 -0.02840914 -0.04573011 -0.061119713 -0.0798281
-0.060770653 -0.004109131 -0.12813738 -0.013837375 0.008558646 -0.14033823 -0.07270758 -0.020552367
-0.03462885 0.06894791 0.04259568 -0.038761973 -0.04741311 -0.069983125 0.07139234 -0.1275293
-0.009357835 0.05861144 -0.036301743 -0.055391263 -0.049774807 -0.17124534 0.012929665 0.045436706
-0.041688 0.015632594 -0.21862513 -0.027104218 -0.003297488 -0.07509491 -0.0666951 -0.024940155
-0.095264226 -0.08889127 -0.0025849133 -0.018145464 -0.05960691 -0.020891823 -0.05792642 -0.28279102
-0.014498983 -0.031381268 -0.070389524 -0.031848807 0.06465489 -0.26876342 -0.17935807 0.057482563
0.048052043 0.028551752 0.021176154 0.0062389127 -0.08950457 -0.058964204 0.02162087 -0.07927946
-0.07731907 0.042008407 0.08472974 -0.029342154 -0.11003385 -0.020126386 0.04065962 0.027201757
-0.026407108 0.03548273 -0.069251865 -0.045752052 0.027015705 -0.00292479 -0.27550378 -0.00781501
0.031827927 -0.11721206 0.09686566 -0.12937418 -0.11992947 0.029014356 -0.073506795 -0.24072859
0.063341744 0.050319027 -0.015178055 -0.12168274 0.05563539 0.033249613 -0.09512253 0.058026817
0.05968856 -0.10186699 0.038703024 -0.031263117 0.05533627 0.025328387 -0.069007635 0.017991133
0.047234792 -0.008502556 0.07247486 -0.0036072577 0.015608582 0.08409939 -0.04504789 -0.03919207

head.9.weight f4 [7, 128]
00000000: d99a 343b 4118 5a3a 5834 f63a b6a1 813b
00000010: 112e 0dbb 2f46 00bc d60c 283b 528f 85bc
00000020: 6af8 4bbc b0ca 2fbc 8196 2abb b3a5 393c
00000030: 9fa0 2bbb c1e2 513b bf61 bebb 6158 bb3a
00000040: 504c e63b b426 063a 8958 36b9 0da0 4bbc
00000050: 29e7 f73a 1f35 7fbc 69f8 36bc 47c3 18bb
00000060: db75 d3bb 6493 31bc 64ed 633b bc56 3f3c
00000070: 61d2 f13b c309 823b 7c10 c83a bee4 38bc
00000080: 41f2 6ebc c468 3b3c 9ebe 873a cb05 e63b
00000090: 9850 62bc 359f 8cbc 384a 783c f758 653b
000000a0: dcec 633b e749 5c3c e474 2c3b 4a17 633b
000000b0: d1da d0ba 9617 253b abb8 363c abe8 18bb
000000c0: aecd 6dbc 50e3 55bc 9e67 b7bb c1f1 553c
000000d0: bbdf f13b 100f 2abc e2eb 78bc d3b6 ff3b
000000e0: 0d4a 81bc 3555 47bc 0ed6 a23a a039 feba
000000f0: c1f5 4cbc c0a3 1cbc c393 4f3b 545c 89bc
00000100: 0c77 61bc d382 023c 533c 5ebc 383c b73a
00000110: 1d34 6a3b 6fac 8ebc 2e5b 14bc 44f1 533c
00000120: 3cc3 1d3c 5b6c 7ebb 1402 363c 2e77 0b3b
00000130: 2009 86bc 9545 203b 6f4f aeba bab9 ea3b
00000140: 6a48 4a3b 439c 343c d393 01bb ada5 86bc
00000150: ac71 a63a 372d 313c c4fa ac3b 2616 a83a
00000160: ddba 083c 9508 5c3c 477b 24bc 80a4 d239
00000170: bedd f53b 463e 8cbc 7dd1 65bc 3de5 453b
00000180: 514c 7d3a 46fb cdba 23cb 45bc 4f33 c6ba
00000190: 7733 61bc 9d46 3f3c f964 4abc 6026 2ebc
000001a0: 9b6b 673b 1454 1c3c 798f 113c 9c26 b6bb
000001b0: 95fa ec3b 23bb 23ba 3126 1a3b ea92 7d3b
000001c0: edeb 683c 6abe 21bc 6cc5 4d3c a301 5f3b
000001d0: fff6 873b 093a 413c db74 4abb d959 733c
000001e0: e3aa 403c 2acc 3bbc 242b cc3b 1daa 63bc
000001f0: b0b8 4ab8 be7f cf3b 2d2c 50bc e567 2bbb
00000200: 440d 53bd 10af 03bd 5728 ca3b 54f1 7bbc
00000210: 658c d53c fb9f 19bc 7049 ccbc 1b7f a8ba
00000220: 8307 30bc 32e0 033b 09fb 183d 2d06 203d
00000230: 669c 133c 5823 0bbd 4565 7e3d 6477 933b
00000240: 0755 b53c 5b74 5bbc 1f8a c53b 385e 0bbc
00000250: 45fc 2a3d ba32 e93b 54d0 8f3a 7de8 feba
00000260: 10f3 0bbd c230 35bc cf07 93bb 9f2b eebb
00000270: 0106 5dbd 962b c5bb 227b 18bd 6299 53bc
00000280: 9729 e8bc ff28 ae3c bd72 9fbd bde8 003c
00000290: 3ee9 b83b 58a8 48bc cde9 243d 4e91 47bb
000002a0: 7e91 b43b 9e64 313c d547 babd d54a 67bc
000002b0: b63f 923b fc81 0d3c 27cd d53b 195a eebc
000002c0: f2da 443a 95aa bc3b 818b 973c 5c31 43b8
000002d0: 730c 4d3c 6521 44bc b4b8 d1ba f2f0 023d
000002e0: 5fe7 6539 a9b8 f83b 8a95 1b3c 20d4 87bb
000002f0: 02fa 203c 3c37 2fbc fc87 e7ba 7895 6fbb
00000300: 79ba 3d3c f214 803d 657e ca3b e93c a3bb
00000310: 9316 ae3d 70f3 66bb ef93 b33a 7c39 82ba
00000320: 44e7 ca3c 29eb 42bd f045 083d 99cb 22bd
00000330: 87ab 6bbb 31a5 3b3d f199 9ebd be1a 5a3d
00000340: 58b1 8a3c 2556 833c 4fd8 4fba ce41 6abb
00000350: ad5a f63b 20c9 783b 6010 02b7 4c4c d2bc
00000360: 5da9 e63c 0317 303c 7027 b33b 77d6 a53c
00000370: 2ac5 653d cdb6 44bc b10e 273c 13d4 98bd
00000380: 60d8 a1bc 0fff 3abc 9d0e a03c f3c6 e13c
00000390: 1f42 39bc d0d1 d8bc 0779 ef39 59f0 473c
000003a0: 4640 b4bd 7519 5c3d d6f2 5fbc ff33 e6bc
000003b0: 5f54 823d 60bb 37bd c0cb 123d 75df ec3d
000003c0: a50c 4fbb f3e1 613d b732 9fbb 9d44 a3bc
000003d0: f488 09bd b012 0b3c 4d76 1c3d ea24 ba3c
000003e0: 9987 733d 89be 8bbc 228c 63bd a409 ec38
000003f0: 56bb db3b 54cd a43d 6429 c7bb 2ab1 a63c
0.0027558117 0.0008319654 0.001878391 0.003956045 -0.002154235 -0.007829233 0.0025642416 -0.016303692
-0.012449363 -0.010729477 -0.0026029649 0.01133101 -0.0026188267 0.0032026025 -0.005809992 0.0014293307
0.00702814 0.00051174616 -0.00017389854 -0.012428296 0.0018913496 -0.01557663 -0.011167624 -0.0023309754
-0.0064532585 -0.010838363 0.0034778947 0.011678394 0.0073798154 0.003968449 0.0015263702 -0.011285005
-0.014584125 0.011438552 0.0010356491 0.0070197335 -0.01381316 -0.01716576 0.015154414 0.0034995654
0.003477863 0.013445354 0.002631479 0.0034651333 -0.0015934353 0.002519106 0.011152427 -0.002333204
-0.01451437 -0.013054684 -0.005597069 0.013058127 0.007381407 -0.010379568 -0.015192958 0.0078037768
-0.01578238 -0.012166311 0.0012423412 -0.0019395836 -0.012509764 -0.009560525 0.0031673766 -0.016767658
-0.013761293 0.007965761 -0.013564187 0.0013979739 0.0035736628 -0.017416207 -0.009054942 0.01293594
0.009629067 -0.003882191 0.011108894 0.0021280753 -0.016361773 0.0024455537 -0.001329882 0.0071632536
0.0030865916 0.011023584 -0.0019771948 -0.016436422 0.0012698672 0.010814003 0.005278917 0.0012823984
0.008345333 0.0134297805 -0.010039157 0.00040176883 0.0075032404 -0.017119538 -0.014026997 0.003019645
0.0009662556 -0.0015715144 -0.012072357 -0.0015121492 -0.01374518 0.01167455 -0.012353175 -0.0106292665
0.003531194 0.00954153 0.008884304 -0.005558802 0.00723202 -0.0006245842 0.00235213 0.0038692304
0.014216405 -0.009872058 0.012559276 0.0034028075 0.0041493173 0.011793622 -0.0030892405 0.014852964
0.011759493 -0.011462251 0.0062307287 -0.013895539 -4.8332557e-05 0.0063323667 -0.012705845 -0.0026154455
-0.051526323 -0.032149374 0.0061693597 -0.015377361 0.026067922 -0.009376521 -0.024937361 -0.0012855263
-0.010743978 0.0020122644 0.03734878 0.03906839 0.009009456 -0.033969253 0.062108297 0.0045003165
0.02213527 -0.0133944405 0.006028428 -0.00850635 0.04174449 0.007116643 0.0010972121 -0.0019447949
-0.03416735 -0.011058988 -0.004487015 -0.0072683836 -0.053960804 -0.0060171587 -0.037226804 -0.012914987
-0.028340144 0.021259783 -0.077855565 0.007867989 0.005643039 -0.0122471675 0.040262032 -0.0030451599
0.005510508 0.010827212 -0.09095732 -0.014116962 0.0044631613 0.008636948 0.0065247 -0.029095696
0.0007509432 0.0057576397 0.018499138 -4.6537592e-05 0.012515175 -0.0119708525 -0.001600048 0.031968065
0.00021925334 0.0075903726 0.009496102 -0.0041451603 0.0098252315 -0.010694321 -0.0017664428 -0.0036557596
0.011580103 0.06253995 0.006179618 -0.0049816263 0.085003994 -0.0035240315 0.0013700704 -0.0009935345
0.02476848 -0.047587547 0.033269823 -0.039744947 -0.0035960393 0.045811836 -0.07744206 0.05324816
0.016930267 0.016032288 -0.0007928656 -0.003574479 0.0075181336 0.0037961677 -7.752416e-06 -0.025671147
0.02815693 0.010747674 0.005467348 0.020243866 0.056096233 -0.012006474 0.010196374 -0.07462325
-0.019756496 -0.01141335 0.019538218 0.027560687 -0.011307268 -0.026467234 0.00045675805 0.012203299
-0.08801322 0.053735215 -0.013668736 -0.028100966 0.06363749 -0.04485643 0.035838842 0.115660585
-0.003159323 0.055147123 -0.0048583406 -0.019930178 -0.033577874 0.008488342 0.038198758 0.02272268
0.059455488 -0.017058628 -0.055553563 0.00011255153 0.006705682 0.08046976 -0.006077932 0.02034815

head.9.bias f4 [7]
00000000: a927 8f3e 7a78 f5bd 0278 39bd b4bd 11bf
00000010: 4833 b0bd 0eb7 353f 9bee 2dbf
0.27959946 -0.1198587 -0.045280464 -0.5693009 -0.08603531 0.70982444 -0.6794221
