script/tabpfn_sabr_step9_causal_final.pth (torch, 685071 bytes, 8 tensors)

head.0.weight f4 [512, 9]
0	0x3e98e0dd	0.29859057
1	0x3d8774fb	0.06614109
2	0x3d620ee8	0.055189997
3	0xbea0c6a8	-0.31401563
4	0xbe519a73	-0.20469074
5	0x3e8f1d59	0.27952078
6	0x3dfba850	0.122879624
7	0x3dd82d1a	0.105554774
8	0x3df76465	0.120796956
9	0xbcbffd65	-0.023436258
10	0x3e30077d	0.17190357
11	0xbccf5ff8	-0.025314316
12	0x3e07a5a9	0.13246788
13	0xbdea131a	-0.114294246
14	0xbe7d68cd	-0.2474701
15	0xbe36ac56	-0.17839178
16	0x3b0e58a6	0.002172032
17	0xbe51a7a7	-0.2047411
18	0x3e54e21a	0.20789376
19	0x3e08a6ee	0.13344929
20	0x3d8ef0eb	0.06979545
21	0xbe64794c	-0.22311896
22	0xbdeb868d	-0.11500273
23	0x3d519ab4	0.051172927
24	0xbe8e5097	-0.2779586
25	0xbdef8b7a	-0.11696525
26	0x3b8acae2	0.0042356113
27	0xbe4809c5	-0.19534977
28	0x3e9cec23	0.30648908
29	0x3e504a46	0.20340833
30	0x3e25deff	0.16198348
31	0x3e97f259	0.29677084
32	0x3e3bb602	0.18331149
33	0xbe10f445	-0.14155681
34	0x3e850978	0.25983787
35	0x3ea47be1	0.32125762
36	0xbe1c6fce	-0.15277025
37	0xbe4d091f	-0.2002301
38	0x3c861ebb	0.016372075
39	0x3cbe2190	0.023209363
40	0x3e39e03e	0.18151948
41	0x3e3abc4d	0.18235894
42	0xbd6da425	-0.05801787
43	0xbde424ea	-0.11139853
44	0xbdd644d4	-0.10462347
45	0x3cd8f1e4	0.02648253
46	0x3e78d855	0.24301274
47	0xbe22b68e	-0.15889952
48	0x3e2a4a28	0.16629851
49	0x3e81c433	0.25345
50	0xbe92d5ae	-0.2867865
51	0x3e11463a	0.14186946
52	0x3da18f9a	0.07888718
53	0xbe9003f7	-0.28128025
54	0x3d8043e4	0.06262949
55	0x3e4a2e2b	0.19744174
56	0xbbf75eb7	-0.0075491327
57	0xbe051cf0	-0.1299932
58	0x3e7a2adb	0.2443041
59	0x3e7064d9	0.2347597
60	0xbded17e6	-0.11576824
61	0xbdb4d706	-0.08830075
62	0x3db3d039	0.0877995
63	0x3ea8f565	0.3299972
64	0xbcc41140	-0.023934007
65	0xbe0e120b	-0.1387407
66	0xbd3c696a	-0.04599897
67	0x3e9a0e59	0.3008907
68	0xbd96ee64	-0.07369688
69	0xbe3a6317	-0.18201862
70	0x3e8d74c5	0.2762815
71	0x3e0898c2	0.13339522
72	0xbe2134e8	-0.15742838
73	0x3e397d90	0.18114305
74	0xbe4da6c7	-0.20083152
75	0x3deba5fa	0.11506267
76	0x3df8dcd1	0.121514924
77	0x3d87c78d	0.06629858
78	0xbe89c7a3	-0.26910123
79	0xbe20f117	-0.15716968
80	0xbcc1d7a4	-0.023662396
81	0x3e5927ff	0.21206664
82	0xbe497719	-0.19674338
83	0xbe061eb2	-0.13097647
84	0x3e4cbdf3	0.19994335
85	0x3d746373	0.059665155
86	0xbd440ff9	-0.047866795
87	0xbe669bdc	-0.22520393
88	0x3d9ce13d	0.07660148
89	0xbdd9891f	-0.10621857
90	0x3e7e5264	0.24836117
91	0xbe1a8693	-0.15090398
92	0xbdf22455	-0.11823336
93	0x3eac131e	0.33608335
94	0xbdfe83a9	-0.12427456
95	0xbe862d77	-0.26206562
96	0x3e8c6831	0.27423242
97	0xbd84bc2a	-0.06481202
98	0xbe62ce42	-0.22148994
99	0x3e17e98d	0.14835186
100	0xbd460772	-0.048346944
101	0x3e875cae	0.26437896
102	0xbe88c376	-0.26711625
103	0x3e75abf7	0.2399138
104	0xbea48399	-0.3213165
105	0xbd15b176	-0.036546193
106	0x3e4c6b58	0.19962823
107	0xbd536656	-0.051611267
108	0xbe9a9b2f	-0.3019652
109	0xbd951a39	-0.07280392
110	0x3e71369f	0.23555993
111	0xbdefc0f6	-0.11706726
112	0xbdfb48d1	-0.12269748
113	0xbe35708e	-0.17718717
114	0x3e52c79d	0.20583959
115	0x3d2a5bc2	0.041591413
116	0xbe4073a4	-0.18794113
117	0x3d4162c8	0.047213346
118	0x3d8e31bf	0.06943082
119	0x3cccc1e1	0.024994792
120	0x3eab035d	0.33401003
121	0x3e0af373	0.13569431
122	0xbe6ef124	-0.23334175
123	0x3e886998	0.26643062
124	0x3e522470	0.20521712
125	0xbd9d9804	-0.0769501
126	0xbeac905d	-0.3370389
127	0x3d470c09	0.048595462
128	0xbe3ac058	-0.18237436
129	0xbe4c6dda	-0.1996378
130	0x3df77e37	0.120846204
131	0x3c8fafdb	0.01753991
132	0x3e905fe9	0.28198174
133	0xbe0ea2aa	-0.13929239
134	0xbe0b89e2	-0.13626817
135	0xbb04a3a9	-0.002023915
136	0xbe339b85	-0.17539795
137	0x3dcc01ed	0.09961305
138	0x3e8b6ece	0.27232975
139	0xbe86b619	-0.26310804
140	0x3e4e95be	0.2017431
141	0x3e6a425f	0.22876881
142	0xbe7174b5	-0.23579676
143	0x3e10b595	0.14131768
144	0x3ce0304d	0.027366782
145	0x3c5108a0	0.012758404
146	0xbe750cdf	-0.23930691
147	0x3b838022	0.0040130774
148	0x3e4846f2	0.19558313
149	0x3e34a3a3	0.17640547
150	0x3baefd8a	0.005340283
151	0x3d8c8ef0	0.06863201
152	0x3e7f99af	0.2496097
153	0xbde0cf83	-0.1097708
154	0xbe66416c	-0.22485894
155	0x3e0b3d8a	0.13597694
156	0xbc81ef63	-0.015861219
157	0x3e9d551e	0.30729002
158	0xbd157ab7	-0.036493983
159	0x3e32a9af	0.17447542
160	0xbe515537	-0.20442663
161	0x3dd81757	0.10551327
162	0xbe775769	-0.24154438
163	0xbc3732e4	-0.011181567
164	0x3e8c5015	0.27404848
165	0x3d46a5a6	0.04849782
166	0xbe1d1c5d	-0.15342851
167	0x3e72118d	0.23639508
168	0x3e2652e1	0.16242553
169	0xbe6c3899	-0.23068465
170	0x3d9c981a	0.076461986
171	0x3e7d1dab	0.24718349
172	0x3e565b3d	0.20933242
173	0xbe1d9be5	-0.153915
174	0x3e000538	0.12501991
175	0x3ded7b64	0.115958005
176	0xbca03803	-0.019557958
177	0xbe177f4e	-0.14794657
178	0x3ea417b2	0.32049328
179	0x3db690c3	0.0891433
180	0x3e5ac977	0.21365915
181	0x3d719a3a	0.058984973
182	0xbe83bc2f	-0.2572951
183	0x3e0928e7	0.1339451
184	0xbe033aa8	-0.12815344
185	0xbca15ea8	-0.019698456
186	0x3e923dca	0.28562766
187	0x3df16e0f	0.1178857
188	0xbe0c268d	-0.13686581
189	0xbe68a86d	-0.227205
190	0x3e1659aa	0.14682642
191	0x3e10405d	0.14087053
192	0x3e8c8caf	0.27451083
193	0x3d97404a	0.07385309
194	0x3e062330	0.1309936
195	0x3d3391ce	0.043840222
196	0x3e1206cf	0.1426041
197	0xbe29be29	-0.16576447
198	0x3e97fd8d	0.2968563
199	0x3d4d97f4	0.050193742
200	0xbe8040a6	-0.25049323
201	0x3e466d00	0.19377518
202	0xbe0b94c2	-0.13630965
203	0x3e85f040	0.2615986
204	0xbe8b6718	-0.27227092
205	0x3e08c5a3	0.13356642
206	0x3e8ead50	0.27866602
207	0xbe21328e	-0.15741941
208	0xbe7c19e0	-0.24619246
209	0x3cf970f9	0.030449377
210	0x3e22a8e9	0.15884747
211	0xbcab65ae	-0.020922508
212	0x3e31924f	0.17340969
213	0xbdff3614	-0.124614865
214	0x3dc27160	0.09494281
215	0x3dfee4d2	0.12445988
216	0x3e563d63	0.20921855
217	0xbd450082	-0.048096187
218	0xbe7067b0	-0.23477054
219	0xbea2b2c7	-0.3177702
220	0xbe0e5021	-0.13897754
221	0x3e17adad	0.14812346
222	0xbdc92056	-0.09820621
223	0xbe2f0808	-0.17092907
224	0x3d6a8ef6	0.057265244
225	0x3ddf4203	0.109012626
226	0xbe94d60d	-0.29069558
227	0x3dfe855a	0.124277785
228	0xbe9c50ff	-0.30530545
229	0xbe547518	-0.20747793
230	0x3d65ab31	0.056071464
231	0xbe2011c3	-0.15631776
232	0xbe76cfb4	-0.2410267
233	0x3e245ebe	0.16051766
234	0x3e94011d	0.289071
235	0xbc9a9f48	-0.01887478
236	0xbe30017f	-0.1718807
237	0x3dc3033d	0.09522102
238	0xbe5f4632	-0.21804121
239	0xbe7c5fdb	-0.24645941
240	0x3e1366e1	0.14394714
241	0xbd99f5ee	-0.075176105
242	0xbeb8fe88	-0.36131692
243	0xbe94f996	-0.2909667
244	0xbe9b036d	-0.3027605
245	0x3debd5e3	0.11515405
246	0xbdd9cac2	-0.10634376
247	0xbe6c6380	-0.23084831
248	0x3e58b0ab	0.21161143
249	0x3e57ba5f	0.21067189
250	0xbd39ffc2	-0.045409925
251	0x3b1d8da1	0.0024040716
252	0x3e68f55e	0.2274985
253	0xbe8ba6a5	-0.27275577
254	0x3e1a98ab	0.150973
255	0x3e5b1e38	0.21398246

head.0.bias f4 [512]
0	0xbea1869a	-0.31548005
1	0xbe62dee4	-0.22155339
2	0xbe9c0449	-0.3047202
3	0xbe90a469	-0.28250435
4	0xbd5abe11	-0.053403918
5	0xbe7d36c4	-0.24727923
6	0xbe8becff	-0.2732925
7	0x3e0c942b	0.13728397
8	0x3e24ab88	0.16081059
9	0xbd570684	-0.05249645
10	0xbc3f6b07	-0.011683232
11	0x3d8db569	0.06919367
12	0x3d24022c	0.040041134
13	0xbb9123aa	-0.0044293003
14	0xbe9c043c	-0.3047198
15	0x3e221f63	0.15832286
16	0x3dd519ea	0.10405333
17	0x3e9356f1	0.2877727
18	0xbd64beef	-0.05584615
19	0x3db4b069	0.0882271
20	0x3d8ec7be	0.069716915
21	0x3e288ca7	0.16459905
22	0x3e9fc7ec	0.31207216
23	0xbe65f4bc	-0.2245664
24	0xbe981ab3	-0.2970787
25	0xbe80368f	-0.25041625
26	0xbd6a6288	-0.057222873
27	0x3d5a760a	0.053335227
28	0xbd3ae82f	-0.045631584
29	0xbdfcae13	-0.123378895
30	0x3e452c8f	0.19255279
31	0xbdbf4a4d	-0.093403436
32	0xbd411c61	-0.047146205
33	0xbe26aadf	-0.1627612
34	0x3e1fcf46	0.15606412
35	0xbe58f6ac	-0.21187848
36	0xbe9a7801	-0.3016968
37	0x3df5aa57	0.1199538
38	0x3dbdc100	0.092653275
39	0xbd5b04d3	-0.053471398
40	0xbe97ef6d	-0.29674855
41	0xbe21b377	-0.15791117
42	0x3e60c88a	0.219515
43	0x3e8af33c	0.27138698
44	0x3c9f046b	0.019411286
45	0x3e711a03	0.23545079
46	0x3ddaca62	0.10683133
47	0xbe4054fe	-0.18782422
48	0xbd8486f7	-0.06471055
49	0x3d2113db	0.039325576
50	0x3da15995	0.078784145
51	0xbe1bc1b8	-0.15210617
52	0x3e9b412a	0.30323154
53	0xbe0f82cb	-0.14014737
54	0x3e868bfe	0.2627868
55	0x3e9916e8	0.2990029
56	0x3e91fed8	0.28514743
57	0x3e916d35	0.2840363
58	0xbc4e7e63	-0.012603375
59	0xbe920cf5	-0.2852551
60	0xbdef074f	-0.11671316
61	0x3c430ec8	0.01190538
62	0xbd000d7d	-0.031262863
63	0xbe185715	-0.14876969
64	0x3e8bba9c	0.2729081
65	0x3e1d3d43	0.153554
66	0x3dfb8d2b	0.12282785
67	0x3d97b581	0.07407666
68	0x3e040731	0.12893368
69	0xbd881a0b	-0.06645592
70	0xbe9d2890	-0.3069501
71	0xbe6ef011	-0.23333766
72	0x3e18ec4c	0.1493389
73	0x3c4e8498	0.012604855
74	0xbdbf775c	-0.09348938
75	0x3e821d39	0.2541292
76	0x3e05ecd4	0.13078624
77	0xbe766046	-0.24060163
78	0x3e0c84eb	0.13722579
79	0xbe80f6d3	-0.25188312
80	0xbe8f5e0d	-0.28001443
81	0x3e95ed0c	0.29282415
82	0x3e0a9b8b	0.13535897
83	0x3e683e29	0.22679962
84	0xbd22ba47	-0.03972843
85	0x3e97998b	0.2960933
86	0x3c923d79	0.017851578
87	0xbe8a0f0e	-0.2696461
88	0xbe3fc05f	-0.18725727
89	0x3e9345c4	0.28764164
90	0x3de93332	0.11386718
91	0x3e8721c2	0.26392943
92	0xbd845536	-0.06461565
93	0x3e97875f	0.29595467
94	0xbdfb76c1	-0.1227851
95	0x3e804487	0.25052282
96	0x3d71ae18	0.05900392
97	0xbe368a14	-0.1782611
98	0x3df9c208	0.12195212
99	0x3d6b0c22	0.057384618
100	0xbd1ad925	-0.03780474
101	0xbe4387f6	-0.19094834
102	0xbe48b879	-0.1960162
103	0xbe090735	-0.13381656
104	0xbdd52b6c	-0.10408673
105	0x3e4c34eb	0.19942062
106	0x3d481979	0.048852418
107	0x3ea2f3e5	0.31826702
108	0xbe1adc7f	-0.15123175
109	0xbe322df8	-0.17400348
110	0x3e5f4130	0.21802211
111	0x3e279f41	0.16369344
112	0xbd3ecc46	-0.04658153
113	0x3ea5d4f8	0.32389045
114	0x3e7e39e1	0.24826767
115	0x3e87ba91	0.26509526
116	0x3e7a074a	0.24416843
117	0xbe2afdad	-0.16698332
118	0x3e6592d2	0.22419289
119	0xbe971c9e	-0.2951402
120	0x3d2f2972	0.042764135
121	0xbe5dd729	-0.21664108
122	0xbe7f8537	-0.24953161
123	0x3dc4259b	0.09577485
124	0xbda44218	-0.08020419
125	0xbe7ef1e7	-0.24896966
126	0x3db364fc	0.087594956
127	0xbe2d231e	-0.16907927
128	0x3dc25102	0.09488107
129	0xbe05e24e	-0.1307461
130	0x3e6bd134	0.23029023
131	0xbddeca9d	-0.10878489
132	0xbe861972	-0.26191288
133	0xbe11cc71	-0.14238144
134	0x3e880995	0.2656981
135	0x3be4bff5	0.006980891
136	0x3de06412	0.10956587
137	0xbe892c60	-0.26791668
138	0xbe96e55c	-0.29471862
139	0x3cc856f8	0.024455532
140	0x3e993989	0.29926708
141	0xbe881d6e	-0.26584953
142	0x3e2fe26f	0.17176221
143	0xbdde3a67	-0.10850983
144	0xbdc7df0e	-0.09759341
145	0xbe68ba4e	-0.2272732
146	0x3e92d693	0.28679332
147	0xbe2382a9	-0.15967812
148	0xbe0f4d97	-0.13994442
149	0x3d58b816	0.052909933
150	0xbdaa4920	-0.08314729
151	0xbb061142	-0.0020457064
152	0x3dca2c68	0.09871751
153	0x3db8b9d3	0.09019818
154	0x3e2b735b	0.16743223
155	0xbd21c5d1	-0.039495293
156	0x3e3eed98	0.18645322
157	0x3e61ade4	0.2203899
158	0x3e8d46d8	0.27593112
159	0x3dab40b4	0.083619505
160	0x3e85f898	0.26166224
161	0x3e85f5c3	0.26164064
162	0xbe69cf4c	-0.22832984
163	0x3e46c292	0.1941016
164	0xbde5649f	-0.112008326
165	0x3e11f7e6	0.14254722
166	0xbe87181e	-0.26385587
167	0x3e4d2eb2	0.20037344
168	0xbe9e70b0	-0.3094535
169	0xbddb5436	-0.10709421
170	0x3da6a096	0.08136098
171	0x3e31781a	0.17330971
172	0x3e461ff7	0.19348131
173	0xbe0bc022	-0.13647512
174	0xbe82173f	-0.2540836
175	0x3dc95372	0.09830369
176	0x3dd9c38e	0.10633002
177	0xbe810bee	-0.25204414
178	0x3ea70e1d	0.32627955
179	0x3e67254f	0.22572826
180	0x3e3e1c71	0.18565537
181	0xbdb5c2c9	-0.08875043
182	0x3dbcb8e4	0.092149526
183	0xbdf8d945	-0.12150816
184	0x3d1a15f9	0.03761861
185	0x3d953798	0.07285994
186	0x3e1b99a1	0.15195324
187	0x3e95cb08	0.29256463
188	0x3df41434	0.11917916
189	0xbd784fb7	-0.060622897
190	0x3e064933	0.13113861
191	0x3cd34c8d	0.025793338
192	0x3d111e2c	0.035429165
193	0x3ce3fd78	0.027830824
194	0x3e7aaae0	0.24479246
195	0xbe9042b0	-0.2817588
196	0x3e0dc72d	0.13845511
197	0xbde5e934	-0.112261206
198	0xbe31a0b6	-0.17346463
199	0xbdb93b7c	-0.09044549
200	0xbe46d1d9	-0.19415988
201	0xbdff1c17	-0.124565296
202	0x3c5682c9	0.013092705
203	0x3e605763	0.21908335
204	0x3e9cf2f1	0.306541
205	0x3c94ae52	0.018149529
206	0x3db34f61	0.08755375
207	0xbdd40c1e	-0.10353874
208	0xbd685fa9	-0.056731854
209	0xbd871c7f	-0.06597232
210	0xbd3cc72d	-0.046088386
211	0x3e1fef50	0.15618634
212	0xbe0743d9	-0.13209476
213	0x3e7e89aa	0.24857202
214	0xbe3772ba	-0.17914858
215	0xbe67aaeb	-0.22623794
216	0x3e8375fa	0.25675946
217	0x3d8efe77	0.06982129
218	0xbe22b4d6	-0.15889296
219	0x3d6ee62e	0.058324985
220	0x3d46057a	0.048345067
221	0xbcd2d473	-0.02573607
222	0x3dd56bda	0.10420962
223	0x3e6c3bac	0.23069638
224	0xbe36e627	-0.17861234
225	0x3e080807	0.13284312
226	0x3e56b307	0.20966731
227	0xbe9fa4c1	-0.31180385
228	0x3d86f7e8	0.06590253
229	0xbd99e646	-0.07514624
230	0x3cd70553	0.026247656
231	0xbdcdea10	-0.100544095
232	0xbe7cca1c	-0.24686474
233	0x3e724cee	0.23662159
234	0xbca2456b	-0.019808492
235	0xbe709493	-0.23494177
236	0xbe6b1ceb	-0.2296025
237	0xbe7edc48	-0.24888718
238	0x3e79a1d1	0.24378134
239	0x3e8d93c1	0.2765179
240	0xbdccc3c0	-0.09998274
241	0x3e99458e	0.2993588
242	0xbe26a783	-0.16274838
243	0x3d4a9cbc	0.04946588
244	0x3ea049ee	0.31306404
245	0x3e20bd72	0.15697268
246	0x3e351b2a	0.17686144
247	0x3e62f7f3	0.22164898
248	0x3e936df2	0.2879482
249	0xbe5949fe	-0.21219632
250	0x3e1044c8	0.14088738
251	0xbd07b23a	-0.033128954
252	0x3e7bafe6	0.24578819
253	0x3e586c2b	0.21135013
254	0x3ea0826f	0.31349513
255	0xbe62b6bc	-0.2214002

head.3.weight f4 [256, 512]
0	0x3cec8737	0.02887307
1	0xbcbc5767	-0.022990895
2	0xbb08b123	-0.0020857535
3	0xbc9afdd9	-0.018919872
4	0xbcff1f4e	-0.031142857
5	0xbd3caad7	-0.046061363
6	0x3a5def14	0.00084661064
7	0xbd684ca8	-0.05671373
8	0x3cbb5b49	0.022870677
9	0xbd1cc495	-0.038273413
10	0xbd20856c	-0.03918974
11	0xbd55f1ef	-0.05223268
12	0xbafe40b2	-0.0019397943
13	0xbd2bbd25	-0.04192843
14	0xbc71bd16	-0.014754554
15	0x3bbbb0c5	0.0057278597
16	0x3bf9a2a4	0.007618265
17	0x3cd1c59a	0.02560692
18	0x3d1ec8e9	0.03876582
19	0xbd1ec3ba	-0.03876088
20	0xbd1f9675	-0.038961846
21	0xbc5be095	-0.013420244
22	0xbb76ee48	-0.0037678648
23	0xbc30d0ac	-0.010791939
24	0xbbf6c0d3	-0.0075303107
25	0x3d2074ee	0.039174013
26	0x3c71a999	0.014749908
27	0xbb24a000	-0.0025119781
28	0xbb940d3c	-0.004518179
29	0xbb089b03	-0.0020844347
30	0xbd52d9fe	-0.051477425
31	0xbc7d0e12	-0.015445249
32	0xbca526aa	-0.020160038
33	0x3d27b894	0.04094751
34	0x3d4cd45c	0.05000721
35	0xbd09b58d	-0.033620406
36	0x3bf5bf2e	0.007499597
37	0x3ca72e9f	0.020407973
38	0xbd34bcbc	-0.044125304
39	0xbd55be08	-0.05218318
40	0xbd0a2b2f	-0.03373259
41	0x3cf912ca	0.030404467
42	0x3b5b0e6e	0.0033425349
43	0x3b85a50a	0.004078512
44	0x3bc1b0e5	0.00591098
45	0x3cbdf6c6	0.02318896
46	0x3cb02d95	0.02150611
47	0xbc6f0d64	-0.014590595
48	0xbc2f48ed	-0.010698539
49	0x3d24085a	0.040047027
50	0x3c846303	0.016160494
51	0xbc21b2d3	-0.009869295
52	0xb944067c	-0.00018694432
53	0x3c9cd20b	0.019143125
54	0x3d27cec1	0.04096866
55	0x3c9a7842	0.018856172
56	0x3c83e239	0.016099082
57	0x3ca9b054	0.020713963
58	0x3d083e45	0.03326251
59	0x3d269fbe	0.040679686
60	0x3bfdcf09	0.007745628
61	0xbcd77112	-0.026299033
62	0x3cd89509	0.026438253
63	0x3c906e88	0.01763083
64	0xbd28e256	-0.041231476
65	0x3cef9fa4	0.029250927
66	0x3c7bd3f9	0.015370362
67	0xbd16a963	-0.036782634
68	0xbc5db4b1	-0.01353185
69	0x3d51ebde	0.05125033
70	0x3bae8564	0.00532596
71	0x3c5e7d5a	0.013579691
72	0x3ce5af4e	0.028037693
73	0x3b3719e6	0.002793902
74	0x3c91a7f5	0.017780283
75	0x3c822319	0.015885876
76	0x3c28c029	0.010299721
77	0xbd212783	-0.039344322
78	0xbcd410a0	-0.025886834
79	0x3d788559	0.060674045
80	0x3b12ba0d	0.0022388727
81	0x3c958915	0.018253842
82	0xbbd5bb0b	-0.0065225414
83	0x3cd75718	0.026286647
84	0xbccb9e7f	-0.02485585
85	0xbbb2f6f8	-0.00546157
86	0x3d20ec9d	0.039288152
87	0xbd191f19	-0.037383173
88	0x3c7f5c10	0.015585914
89	0xb9d2710c	-0.00040138548
90	0xbd268e31	-0.040662948
91	0x3d11433c	0.03546451
92	0xbcbf1d5c	-0.02332943
93	0x3b847877	0.004042681
94	0xbc8d7f80	-0.01727271
95	0x3d35ebd7	0.044414368
96	0x3bf19c77	0.0073733884
97	0x3cb8cdc6	0.022559058
98	0x3c94f21c	0.018181853
99	0xbc1b72f6	-0.009487858
100	0xbd2dcd7f	-0.042432304
101	0xbd19077e	-0.03736066
102	0xbcce757b	-0.025202503
103	0xba82e68f	-0.0009986925
104	0x3cd220f8	0.025650486
105	0xbc78c16c	-0.015182834
106	0x3d318ca5	0.04334702
107	0xbc6c0985	-0.0144065665
108	0xbbcdfae6	-0.006286013
109	0x3ce6ae0d	0.028159166
110	0x3cae2730	0.02125892
111	0x39e6cd77	0.00044022102
112	0xbbcd23d9	-0.006260377
113	0x3b1c450b	0.0023844864
114	0xbbfc4d5a	-0.0076996507
115	0xbcf6dccc	-0.030134581
116	0x3d8b45b1	0.06800402
117	0x3c365f57	0.011131129
118	0xbcee9cc6	-0.02912749
119	0xbd2b202a	-0.04177872
120	0xbacc0128	-0.001556431
121	0xbd2dbc94	-0.04241617
122	0xbce3d87f	-0.027813194
123	0xbca48759	-0.02008407
124	0xbc0d7c54	-0.008635599
125	0xbc57bc61	-0.013167472
126	0xbad98012	-0.0016593954
127	0x3c6abb71	0.014326916
128	0xbceee357	-0.029161138
129	0x3d072b91	0.033000533
130	0xbd0b00e8	-0.03393641
131	0x3c8f799b	0.01751404
132	0x3ab71782	0.0013968798
133	0x3d063690	0.03276688
134	0xbd3a8389	-0.045535598
135	0x3c6c9fc1	0.014442385
136	0xbc8050cc	-0.015663527
137	0x3ca26286	0.01982237
138	0xbd11eedb	-0.03562818
139	0xbc4cef44	-0.012508217
140	0xbc2b7294	-0.010464329
141	0xbba22f78	-0.0049495064
142	0x3c671363	0.014103743
143	0x3c7b46c5	0.015336697
144	0xbc8645ac	-0.016390644
145	0x3cc507a8	0.024051502
146	0xbc90dd59	-0.017683672
147	0x3d761a69	0.06008378
148	0x3ca64540	0.020296693
149	0x3c931c33	0.017957782
150	0x3c30ed6f	0.010798796
151	0xbd1e17de	-0.03859698
152	0xbd284aca	-0.04108695
153	0x3d7e2c01	0.062053684
154	0xbcbb5e8d	-0.022872234
155	0x3a670b62	0.0008813647
156	0xbc0d41e4	-0.008621667
157	0xbd101734	-0.03517838
158	0x3c851f55	0.016250292
159	0x3c82025f	0.015870271
160	0xbd28118a	-0.04103235
161	0x3d2954d8	0.04134068
162	0xbb23060d	-0.0024875433
163	0x3d88daf3	0.06682386
164	0x3cc02cce	0.023458865
165	0x3d1070b5	0.035263736
166	0xbd2f1406	-0.042743705
167	0x3ceadc7c	0.028669588
168	0x3d0e9425	0.03480925
169	0xbcc80a85	-0.024419079
170	0x3c8e5d93	0.017378604
171	0x3cd79b76	0.026319247
172	0xbbc976b8	-0.0061481856
173	0xbc754e4d	-0.014972282
174	0x3c3a9234	0.011387397
175	0x3ced4df8	0.028967842
176	0xbc8068df	-0.015675006
177	0x3d2c2b3e	0.042033426
178	0xbc7b6226	-0.015343225
179	0xbc4ad5a3	-0.0123800365
180	0x3b2cd695	0.0026373018
181	0x3d0e1137	0.034684386
182	0x3d2e6bb9	0.0425832
183	0xbc4c5880	-0.012472272
184	0xbccac456	-0.024751823
185	0xbd0d429d	-0.034487356
186	0xbc9da371	-0.019242974
187	0xbc9e1648	-0.019297734
188	0xbd533919	-0.051568124
189	0xbc5fbfed	-0.0136565985
190	0x3d321647	0.043478277
191	0xbd1b1df9	-0.03787038
192	0xbd28dd0d	-0.041226435
193	0x3d1e11cd	0.038591195
194	0x3d27ee7f	0.040998932
195	0x3c42a1b9	0.011879378
196	0xbc7184f5	-0.014741172
197	0xba283811	-0.0006417046
198	0x3d17cde6	0.037061594
199	0x3ca658c8	0.020306006
200	0xbd1cad51	-0.038251225
201	0xbbf4409e	-0.007453992
202	0x3cacd19a	0.02109604
203	0xbccbd8aa	-0.024883587
204	0xbcf68e06	-0.030097019
205	0x3bc48385	0.0059971237
206	0x3da6c45e	0.08142923
207	0xbd42b2c2	-0.047533758
208	0x3bcc73a0	0.0062393695
209	0xbd1829f7	-0.037149396
210	0x3aaebc7a	0.0013331317
211	0xbcc78908	-0.024357334
212	0x3d21b253	0.039476704
213	0xbca47e88	-0.020079866
214	0x3c4f6c0e	0.01266004
215	0xbc630d82	-0.013858201
216	0xbc3a5617	-0.0113730645
217	0xbc202dc5	-0.009776537
218	0xbb0e8fd8	-0.0021753218
219	0xbd028ce9	-0.031872664
220	0xbd4c050b	-0.049809497
221	0xbd365d19	-0.04452238
222	0x3d25b122	0.04045213
223	0x3b91b5a2	0.004446701
224	0xbd62d6a0	-0.055380464
225	0x3cb2d71b	0.021831086
226	0x3cfe5881	0.031048061
227	0xbc90b5a3	-0.017664736
228	0x3c2d1c55	0.010565837
229	0xbd1b4e2a	-0.03791634
230	0x3ba7900f	0.0051136087
231	0xbc8f0c58	-0.01746194
232	0x3c01e331	0.007927702
233	0xbcdfee67	-0.027335359
234	0x3c9392ef	0.0180144
235	0xbae6b3a6	-0.0017601147
236	0x3c822550	0.015886933
237	0x3cb93d39	0.022612201
238	0x3d110df6	0.035413705
239	0x3b9ac758	0.0047234707
240	0x3ca46eaf	0.02007231
241	0x3d0fe354	0.035128906
242	0xbd0ffc54	-0.03515275
243	0xbca6556a	-0.0203044
244	0xbd206331	-0.039157096
245	0xbd16ad34	-0.036786273
246	0xbce7bd8b	-0.028288623
247	0xbcfda4fe	-0.030962463
248	0x3ae50297	0.0017472085
249	0xbd215f77	-0.039397683
250	0x3bdf37b5	0.0068120607
251	0x3c9dbcf8	0.019255146
252	0x3d4d24e0	0.050083995
253	0xbccc3060	-0.02492541
254	0xbad4b436	-0.0016228023
255	0xbcd25c61	-0.025678815

head.3.bias f4 [256]
0	0x3cee7178	0.02910684
1	0xbbac11c9	-0.0052511436
2	0xbca17bb9	-0.019712316
3	0x3b192ec5	0.0023373824
4	0xbcef918c	-0.029244207
5	0x3ce2e5f8	0.027697548
6	0xbd014822	-0.03156293
7	0x3d122b02	0.035685547
8	0xbca612be	-0.020272609
9	0x3cece8c1	0.02891958
10	0xbca5d50c	-0.02024319
11	0xba6c0079	-0.0009002756
12	0xbcdfabe1	-0.027303638
13	0xbc8593e5	-0.016305873
14	0xbb7d4e94	-0.0038651573
15	0xbd326136	-0.04354974
16	0x3c964819	0.018344926
17	0xbd17ac14	-0.03702934
18	0x3cfeb06f	0.03108999
19	0xba162ca4	-0.0005728698
20	0x3cc13123	0.023583
21	0x3d28fb65	0.041255374
22	0xbc606f24	-0.013698373
23	0xbd39edc5	-0.04539277
24	0xbd160fbd	-0.036636103
25	0x3d1c7ba3	0.038203847
26	0xbcdb7829	-0.026790695
27	0xbc2768e3	-0.010217878
28	0x3cb2003c	0.021728627
29	0xbc995556	-0.01871745
30	0xbd03649d	-0.032078374
31	0x3d188f24	0.037245885
32	0x3d1ef3d5	0.038806755
33	0xbd408928	-0.047005802
34	0x39dca8be	0.00042087393
35	0xbae763fe	-0.0017653701
36	0x3d3cd357	0.046099987
37	0x3bbd84cb	0.0057836524
38	0x3c3f4950	0.011675194
39	0x3c862038	0.016372785
40	0x3cd3beb9	0.02584778
41	0xbc95914d	-0.018257761
42	0xbd194e29	-0.037428055
43	0x3d32f952	0.0436948
44	0x3cad4998	0.021153256
45	0x3d03c458	0.03216967
46	0xbc740907	-0.01489473
47	0x3ca88f28	0.020576075
48	0xbd318992	-0.043344088
49	0x3d167654	0.03673394
50	0xbc6b8858	-0.014375769
51	0x3c998d37	0.018744094
52	0xbb25d527	-0.002530405
53	0x3d30bf7d	0.043151367
54	0xbc13b4cf	-0.009015276
55	0xbcf16910	-0.029469043
56	0x3c16e538	0.009209923
57	0x3d13b93c	0.036065325
58	0x3ca518c0	0.020153403
59	0x3d14fe14	0.03637512
60	0xbca03bcf	-0.019559769
61	0xbc3e2481	-0.011605383
62	0xbc386d4a	-0.011256525
63	0x3d0590d0	0.032608807
64	0xbbaa0108	-0.005188111
65	0xbc9223ad	-0.017839277
66	0xbd215cca	-0.03939513
67	0xbc400422	-0.011719735
68	0xbd2e6b04	-0.042582527
69	0x3b06b0fd	0.002055227
70	0x3cbdab6c	0.02315303
71	0x3d09cff6	0.033645593
72	0xbcdc984a	-0.026928086
73	0x3c7a97cf	0.015294983
74	0xbbd4d336	-0.006494905
75	0xbc2b49a6	-0.010454571
76	0x3ccbaf3e	0.024863835
77	0x3b1d155c	0.002396903
78	0x3ce42f9b	0.027854731
79	0xbce06cc5	-0.027395615
80	0x3b61c4e2	0.0034449627
81	0x3d3c944d	0.04603987
82	0xbcec892f	-0.028874008
83	0xbcaa61eb	-0.020798644
84	0x3c47a8f4	0.012186278
85	0xbca10bbf	-0.019658921
86	0x3b887662	0.004164503
87	0x3d1fd12f	0.039017852
88	0xbcb8dd09	-0.022566335
89	0xbcfa3644	-0.030543454
90	0xbc5b6998	-0.013391875
91	0x3d06021d	0.03271686
92	0xbcc56ff2	-0.024101231
93	0xbc8a01a5	-0.016846487
94	0x3b7ea514	0.0038855718
95	0xbc664187	-0.014053709
96	0xbc57305d	-0.013134089
97	0xbce326e6	-0.02772851
98	0x3c8f841d	0.017519051
99	0x3cd23046	0.025657784
100	0xbc173e10	-0.009231105
101	0xbd499bcc	-0.049220845
102	0xbc5541ea	-0.013016203
103	0xbcfefa4a	-0.031125207
104	0xbd0879c4	-0.03331925
105	0x3c94e962	0.018177692
106	0xbd371f4f	-0.044707593
107	0xbcd6aeef	-0.026206462
108	0xbd0cc793	-0.034370016
109	0x3bd03ada	0.006354672
110	0x3cda7bed	0.02667042
111	0x3cd83bf7	0.026395781
112	0x3b429b39	0.002969457
113	0xbd074585	-0.033025283
114	0x3d004bc5	0.03132226
115	0xbd1658d2	-0.0367058
116	0x3cc4edf2	0.024039242
117	0x3cf97755	0.03045241
118	0x3b7da948	0.0038705636
119	0x3c08a17c	0.008339282
120	0x3d3737f9	0.044731114
121	0x3d3b22c8	0.045687467
122	0x3c95ecf4	0.018301465
123	0x3d1b0e70	0.037855566
124	0xbd2065e6	-0.039159678
125	0x3c1b767a	0.009488696
126	0xbcfb84b6	-0.03070293
127	0xbbb7297f	-0.0055896635
128	0xbca191ee	-0.019722905
129	0x3d1f23bb	0.038852435
130	0x3c2de3fe	0.01061344
131	0x3bfcd996	0.007716368
132	0x3cfaf4f3	0.030634379
133	0x3d380944	0.04493071
134	0xbc8f69d3	-0.017506516
135	0x3d352cfa	0.044232346
136	0x3cb41855	0.021984259
137	0xbd099050	-0.033584893
138	0x3c736913	0.014856595
139	0x3b93d0a6	0.004510957
140	0x3ce4bb41	0.02792132
141	0xbd0b3d4b	-0.033994
142	0x3d29f543	0.041493665
143	0xbd0584e6	-0.032597445
144	0xbc83e116	-0.01609854
145	0x3d05f463	0.03270377
146	0x3d2e62f8	0.042574853
147	0x3c96284b	0.01832976
148	0xbc6c5e57	-0.014426789
149	0xbcf9d961	-0.030499162
150	0x3cedfbf7	0.02905081
151	0xbd3562d8	-0.044283718
152	0x3d0f4e1c	0.0349866
153	0x3bf2fc27	0.007415313
154	0xbc84b34a	-0.016198773
155	0x3d0137eb	0.03154747
156	0x3d317f58	0.043334335
157	0x3c220030	0.00988774
158	0x3d2b59dd	0.041833747
159	0xbcd359d6	-0.025799673
160	0xbd0b91c4	-0.03407456
161	0xbd1c5491	-0.038166586
162	0x3cff83b5	0.031190732
163	0x3c54af28	0.012981214
164	0xbcf84807	-0.030307783
165	0xbd0d40a6	-0.03448548
166	0x3d1cc3b6	0.038272582
167	0xbc937211	-0.017998727
168	0x3d1c6c13	0.038189005
169	0xbd0ad143	-0.033890974
170	0x3cd02c0a	0.025411624
171	0xbcff0658	-0.031130955
172	0x3d0cf37e	0.0344119
173	0xbd40bab3	-0.04705305
174	0x3c282ffc	0.010265347
175	0xbc7e7e4b	-0.01553304
176	0xbc87bd6f	-0.016569821
177	0xbc86d839	-0.016460525
178	0x3ce37472	0.027765486
179	0x3c3358fe	0.01094651
180	0x3d24d5aa	0.04024283
181	0xbbd5e8e5	-0.0065280073
182	0xbd1f5ab5	-0.038904864
183	0xba92aeab	-0.0011190971
184	0x3d089692	0.03334672
185	0x3d08d1a6	0.03340306
186	0x3d20bf48	0.03924492
187	0x3b32779d	0.002723194
188	0xbc768513	-0.015046376
189	0x3c3baab5	0.011454274
190	0x3b8ac91b	0.0042353994
191	0xba38855e	-0.0007038916
192	0xbc328151	-0.010895089
193	0x3b1d7d07	0.002403082
194	0x3bda177e	0.0066556325
195	0xbc9af680	-0.018916368
196	0x3bda89c6	0.006669256
197	0xbb7e46db	-0.0038799557
198	0x3d1380fb	0.036011677
199	0xbd05f9dc	-0.032708988
200	0xbd0be3d2	-0.034152813
201	0xbc2727ed	-0.01020239
202	0x3ce4e02c	0.027938925
203	0x3c7794db	0.0151111735
204	0xbbc23e67	-0.005927849
205	0x3c710669	0.014711001
206	0x3cd6065c	0.02612608
207	0x38fe9c46	0.00012140772
208	0xbca9227e	-0.02064633
209	0x3cf08850	0.029361874
210	0xbbef5bbe	-0.0073046377
211	0xbcd00f34	-0.025397874
212	0xbb114a7e	-0.0022169645
213	0xbc982e29	-0.018576698
214	0x3b45beb7	0.003017349
215	0xbcb09478	-0.02155517
216	0xbca350f7	-0.019936068
217	0xbb311c4f	-0.002702493
218	0xbca1a112	-0.019730125
219	0xbd1ca884	-0.038246647
220	0xbd21d6b5	-0.0395114
221	0xbb4c8eaf	-0.0031212976
222	0xbbaa7dc3	-0.0052029802
223	0x3ce21f2e	0.027602758
224	0xbcda13c8	-0.02662076
225	0xbc5d6682	-0.013513209
226	0x3c2e4d91	0.01063861
227	0xbb79200e	-0.003801349
228	0xbb361a61	-0.002778672
229	0xb936902a	-0.00017410578
230	0xbd17bcdd	-0.03704535
231	0x3ce20241	0.027588965
232	0xbd371906	-0.0447016
233	0xbc440aff	-0.011965512
234	0x3c2742c9	0.010208794
235	0x3c80301b	0.015647938
236	0xbca8d8c0	-0.020611167
237	0x3ca1b6ca	0.01974048
238	0x3ca29fd0	0.019851595
239	0x3d06ce8f	0.032911833
240	0x3caf1b56	0.02137534
241	0x3ca31423	0.019907063
242	0xbd0c3c23	-0.03423704
243	0x3cdcac60	0.026937664
244	0x3ba96c52	0.0051703835
245	0x39a23ed0	0.00030945847
246	0x3c0f8c15	0.0087614255
247	0x3ce27894	0.027645387
248	0x3c7833af	0.015149041
249	0xbd0a2590	-0.03372723
250	0xbb22c3e1	-0.0024835991
251	0xbcd0787f	-0.025448082
252	0xbb13de92	-0.0022563082
253	0x3d055d52	0.0325597
254	0xbbd15291	-0.0063880165
255	0xbd0eba75	-0.034845788

head.6.weight f4 [128, 256]
0	0x3d006c49	0.03135327
1	0xbcb7b355	-0.02242438
2	0xbc86e2a6	-0.016465496
3	0xbd2e5fff	-0.042572018
4	0xbd2c5b52	-0.042079277
5	0x3d7554fe	0.059895508
6	0xbd7d3ce0	-0.061825633
7	0xbd29cd87	-0.04145577
8	0x3ccccc0b	0.024999639
9	0xbcf2d77f	-0.029643772
10	0xbb148e8f	-0.002266798
11	0xbb312fc1	-0.002703652
12	0xba8368d7	-0.0010025752
13	0x3d2d87e0	0.04236591
14	0xbcbe770d	-0.023250127
15	0x3d4166d0	0.04721719
16	0xbbc0798a	-0.0058738636
17	0xbd0c457e	-0.03424596
18	0xbcb6b00e	-0.022300746
19	0xbd20222e	-0.039095096
20	0x3bc9327c	0.0061400514
21	0x3b140c33	0.002259028
22	0xbd0aa747	-0.033850934
23	0x3d581dcf	0.052762803
24	0xbcc5d503	-0.024149423
25	0x3d334afb	0.04377268
26	0xbd33d44b	-0.04390363
27	0x3d01670e	0.03159242
28	0x3bfd266c	0.0077255275
29	0x3d33d223	0.043901574
30	0x3c0ad2c5	0.008473103
31	0xbc2b04b8	-0.010438137
32	0x3d336cb8	0.043804854
33	0x3d22563a	0.039633013
34	0x3c973500	0.01845789
35	0x3d51431a	0.051089384
36	0x3d5870a0	0.052841783
37	0xbb2a9a96	-0.0026032082
38	0xbce3f802	-0.02782822
39	0xbd731169	-0.059342775
40	0xbc0c02eb	-0.008545618
41	0xbd0c6482	-0.03427554
42	0xbd2590f4	-0.04042144
43	0xbd4b2d1a	-0.04960356
44	0xbd79b4e2	-0.06096352
45	0x3cecde44	0.028914578
46	0x3c93ce2a	0.018042643
47	0x3b08e45c	0.0020888066
48	0xbce4fe45	-0.027953276
49	0x3d243baf	0.04009598
50	0xbd666b0d	-0.056254435
51	0x3c9bd550	0.019022614
52	0xbd0bad8e	-0.03410106
53	0x3d44566b	0.047933977
54	0xbcbf5591	-0.02335623
55	0x3cd9d672	0.026591513
56	0xbcccfe10	-0.02502349
57	0x3d3de28e	0.046358638
58	0x3c8e2c5c	0.017355137
59	0x3d1f5ceb	0.038906973
60	0xbc4fe1a8	-0.012688078
61	0x3d7345b4	0.059392646
62	0x3c988be3	0.01862139
63	0xbd6c88ab	-0.057747524
64	0x3d2a3fb3	0.041564655
65	0xbd543fb5	-0.05181857
66	0xbd19d69c	-0.037558183
67	0x3cba7921	0.022762837
68	0xbb3ccb89	-0.002880784
69	0xbd262846	-0.04056575
70	0xbd809c29	-0.06279785
71	0xbd7ea03e	-0.062164538
72	0xbd00763e	-0.031362765
73	0xbc5f7349	-0.013638326
74	0x3d395812	0.045250006
75	0xbd7768d8	-0.06040272
76	0x3d47e5a9	0.048803005
77	0x3c85fecc	0.016356848
78	0x3d08be2b	0.033384483
79	0x3cfd3d41	0.030912997
80	0xbc129451	-0.008946494
81	0x3ca307dc	0.019901209
82	0x3cd57acd	0.026059533
83	0xbcad43d7	-0.021150513
84	0xbcb76a02	-0.022389416
85	0xbcfb1d02	-0.03065348
86	0x3c97932d	0.018502796
87	0xbc98a234	-0.018632032
88	0x3c996011	0.018722566
89	0x3d1cc781	0.0382762
90	0x3cab59d4	0.020916857
91	0xbd799130	-0.060929477
92	0xbd490d2f	-0.04908484
93	0x3c62b342	0.013836684
94	0xb82f105a	-4.173848e-05
95	0x3d723fe8	0.059142977
96	0xbbfb98e8	-0.00767814
97	0x3d0cb9e8	0.03435698
98	0x3d2ad896	0.04171046
99	0x3d0bea64	0.03415908
100	0x3d595d35	0.053067405
101	0x3ca1574a	0.019694943
102	0xbbfbbc49	-0.0076823574
103	0xbc983712	-0.018580947
104	0xbd52d451	-0.051472012
105	0xbcb2ab03	-0.02181006
106	0x3bcb2f7d	0.0062007294
107	0xbd7c68ae	-0.061623268
108	0xbd04bf30	-0.032408893
109	0xbd6308d8	-0.055428356
110	0x3c7ea98d	0.015543354
111	0x3d50cbc2	0.05097557
112	0xbc1eb086	-0.009685641
113	0xbd3ef3d4	-0.04661925
114	0xbcecd9d1	-0.028912457
115	0x3cb46dea	0.022025067
116	0xbb07aa2e	-0.00207008
117	0xbd0e6a98	-0.034769624
118	0x3c9836bf	0.018580792
119	0x3d4ac0fe	0.049500458
120	0x3d7ba8e2	0.061440356
121	0x3ccc8bc4	0.02496899
122	0xbd81a74d	-0.06330738
123	0xbcddbc86	-0.027067434
124	0x3c32355c	0.01087698
125	0x3bf2bc76	0.00740772
126	0x3cb7d4ac	0.022440277
127	0xbd55ba5e	-0.052179687
128	0x3d995e02	0.07488634
129	0x3d80a5e7	0.06281643
130	0xbd3430d9	-0.043991897
131	0xbd7b3f80	-0.061339855
132	0xbb12a1a6	-0.0022374182
133	0x3ca3fb35	0.020017246
134	0x3cbfe3c5	0.023424039
135	0x3cb17a7b	0.021664849
136	0x3d1e9811	0.03871924
137	0xbc20d971	-0.009817467
138	0x3cde6e0a	0.02715208
139	0x3c71cc58	0.014758192
140	0xbd4058a6	-0.04695954
141	0x3cc8f463	0.024530595
142	0x3b8b7474	0.0042558257
143	0x3c6c2ba9	0.014414706
144	0x3d256dc6	0.04038789
145	0xbd566817	-0.05234536
146	0xbd6a1adf	-0.057154533
147	0xbca2851d	-0.019838864
148	0x3d128fee	0.035781793
149	0xbd76ebcf	-0.06028348
150	0xbcdee33f	-0.027207969
151	0x3ce373dd	0.027765209
152	0xbd0fb552	-0.03508503
153	0xbd10a593	-0.035314154
154	0xbcf4bf25	-0.029876301
155	0x3c5232ee	0.012829525
156	0x3d85bb72	0.06529893
157	0x3d60c4ce	0.054875188
158	0x3c8d3ef1	0.017241927
159	0xbd11b62c	-0.035574123
160	0xbd4b861f	-0.049688455
161	0xbab2a77d	-0.0013630238
162	0x3d43e273	0.04782338
163	0x3ccb2a85	0.024800548
164	0xbd0c3490	-0.034229815
165	0xbd6570fb	-0.05601595
166	0x3cd5e32d	0.026109302
167	0x3d7d8ae1	0.061900023
168	0x3d5cb4f7	0.05388352
169	0xba26ae69	-0.00063583866
170	0x3d2af19a	0.041734315
171	0x3d3b2d0a	0.04569725
172	0x3d793488	0.060841113
173	0x3cac0c15	0.021001855
174	0xbd06b35a	-0.032885887
175	0xbc6bc4e1	-0.014390201
176	0xbd515630	-0.051107585
177	0x3ab878c1	0.0014074073
178	0x3cbfd9dd	0.023419315
179	0xbb793665	-0.0038026806
180	0xbd2307be	-0.039802305
181	0x3c3e8c77	0.011630169
182	0xbac0327a	-0.0014663481
183	0x3c4b149b	0.012395049
184	0x3d30e954	0.04319127
185	0x3cd30904	0.025761135
186	0xbd4dbb6d	-0.05022757
187	0x3d33f3e9	0.043933783
188	0x3c33da9c	0.0109774135
189	0x3d25910c	0.04042153
190	0x3bf9b6ec	0.007620683
191	0xbc92b1b1	-0.017906995
192	0x3d1818c6	0.037133
193	0x3d82f028	0.063934624
194	0xba04acec	-0.0005061168
195	0xbcfe1639	-0.031016456
196	0x3d37bc6b	0.044857424
197	0xbd505728	-0.05086437
198	0xbd5f56b0	-0.05452603
199	0x3d135bce	0.035976224
200	0xbd144862	-0.036201842
201	0x3cef6f62	0.029227916
202	0x3d6ca55f	0.057774898
203	0x3d060fd1	0.032729927
204	0xbd3494d4	-0.044087246
205	0x3c308eed	0.010776264
206	0xbd630ae0	-0.055430293
207	0x3d114f26	0.035475872
208	0x3d253bd7	0.04034027
209	0xbcf36fb9	-0.02971636
210	0xbd5e8d2d	-0.054333854
211	0xbcb51662	-0.0221054
212	0xbd66ee5e	-0.05637967
213	0x3d5ed885	0.054405708
214	0xbd2d489b	-0.04230557
215	0xbd1cea31	-0.03830928
216	0x3d511d42	0.051053293
217	0x3cf670eb	0.03008314
218	0x3d38b27b	0.045092087
219	0xbb5402ae	-0.003235023
220	0x3d68e1a5	0.056855816
221	0x3cf095f5	0.02936838
222	0xbca826ba	-0.020526279
223	0xbd48f099	-0.049057577
224	0x3ce53dbb	0.027983537
225	0xbd518c55	-0.05115922
226	0x3d6f8dac	0.05848472
227	0x3d6a32c4	0.05717732
228	0xbd474496	-0.048649393
229	0xbd77a358	-0.06045851
230	0x3d5a2423	0.05325712
231	0xbd836590	-0.06415856
232	0x3cc978d3	0.024593746
233	0x3c742fdd	0.01490399
234	0xbcc83591	-0.024439605
235	0x3c75f3a8	0.015011705
236	0xbbb1fba3	-0.0054316088
237	0x3d3dcc4b	0.046337407
238	0x3a9dfc2e	0.0012053305
239	0xbc9e5fd1	-0.019332798
240	0x3cff44ef	0.0311608
241	0xbcc6d23d	-0.024270171
242	0xbc648987	-0.013948805
243	0x3ca8c072	0.020599578
244	0x3d115534	0.035481647
245	0xbd712182	-0.058869846
246	0xbcbb062b	-0.02283009
247	0x3c36332e	0.011120601
248	0xbcea1ba7	-0.028577639
249	0xbd407cd0	-0.04699403
250	0xbd2f20f2	-0.04275603
251	0x3d079d3d	0.03310894
252	0xbd14b501	-0.03630543
253	0x3c665377	0.0140579855
254	0x3d0e2328	0.034701496
255	0xbd13821f	-0.036012765

head.6.bias f4 [128]
0	0x3d435799	0.04769096
1	0x3c719146	0.014744109
2	0x3d618d57	0.055066433
3	0xbd3a660d	-0.04550748
4	0xbc90756d	-0.017634118
5	0xbd557bd9	-0.052120063
6	0xbb121707	-0.0022291557
7	0xbd01a0d5	-0.031647522
8	0x3cc60b48	0.024175301
9	0xbd10dd9b	-0.03536759
10	0xbcd495bc	-0.025950305
11	0xbd472e32	-0.04862804
12	0xbbe43cc3	-0.006965251
13	0xbd489b10	-0.048976004
14	0xbbacf923	-0.005278723
15	0x3d8d7951	0.06907905
16	0x3cfdb56f	0.030970303
17	0x3d3517fc	0.044212326
18	0xbd0abac7	-0.03386953
19	0xbd28e42f	-0.041233238
20	0x3d9d737b	0.07688042
21	0xbd848fa2	-0.06472708
22	0xbc5d42a6	-0.01350466
23	0x3d01bd05	0.031674404
24	0x3d277513	0.040883135
25	0xbc7fe07d	-0.015617487
26	0x3cb7a74b	0.022418639
27	0x3d15664d	0.036474515
28	0xbc3bca67	-0.011461831
29	0xbc50ff06	-0.012756115
30	0x3c74ee2b	0.014949362
31	0x3d177f41	0.036986593
32	0xbce5deea	-0.028060395
33	0xbc2f9a65	-0.010717963
34	0x3a02b9c4	0.00049867877
35	0xbd44795a	-0.047967292
36	0x3b8ee7c3	0.0043611242
37	0x3b2720d4	0.0025501745
38	0x3d412340	0.047152758
39	0xbd11641c	-0.035495862
40	0xbd157e44	-0.03649737
41	0x3d1ffe13	0.039060663
42	0x3d903ec7	0.07043224
43	0xbd2ac104	-0.04168798
44	0xbccc46f3	-0.024936175
45	0x3cb31d21	0.021864476
46	0xbd4db686	-0.050222896
47	0x3cfd6300	0.030930996
48	0x3b6fbace	0.003657985
49	0x3c85e324	0.01634366
50	0xbd1cb91d	-0.038262475
51	0xbd909c3f	-0.070610516
52	0x3d29e1b1	0.041475
53	0xbca388c1	-0.01996267
54	0xbc6a443b	-0.014298494
55	0xbd159ab6	-0.036524497
56	0x3d25a02b	0.04043595
57	0xbd180606	-0.03711512
58	0x3c3f6f8b	0.011684309
59	0x3d0f7eb1	0.03503293
60	0xbd87d4f9	-0.06632418
61	0xbd344185	-0.044007797
62	0x3baf2520	0.005345002
63	0xbcbe2d6f	-0.023215024
64	0x3c87abc9	0.016561406
65	0xbc5b4dda	-0.0133852605
66	0xbd71764e	-0.058950715
67	0xbd5948be	-0.053047888
68	0x3d14e8dc	0.036354885
69	0xbc8f5942	-0.017498616
70	0x3d5fa1ea	0.054597773
71	0x3c288249	0.010284969
72	0x3d85a8cb	0.06526335
73	0x3d980706	0.074232146
74	0x3d898906	0.06715588
75	0x3d250f59	0.04029784
76	0xbc31dd0c	-0.010855924
77	0x3c5573e7	0.013028122
78	0xbd163053	-0.03666718
79	0x3d7e8a21	0.06214345
80	0xbd8d33e8	-0.06894666
81	0x3d3b3579	0.045705292
82	0xbcea5807	-0.028606428
83	0x3d8e507f	0.06948947
84	0xbd438f7c	-0.04774426
85	0x3c8fde07	0.017561926
86	0x3d1e4238	0.03863737
87	0xbcd12347	-0.025529517
88	0xbd946b01	-0.07246972
89	0xbca48779	-0.02008413
90	0xbcb04415	-0.021516839
91	0x3d43aa12	0.047769614
92	0xbd9795f2	-0.07401647
93	0x3d180836	0.037117206
94	0xbd4fa620	-0.05069554
95	0x3d8a3604	0.06748584
96	0xbd6e429e	-0.058169
97	0xbd1798d5	-0.037010986
98	0xbd6624a6	-0.056187294
99	0xbd3e580c	-0.046470687
100	0xbd00e3c4	-0.031467214
101	0x3cd807bc	0.026370876
102	0x3d92486d	0.0714272
103	0xbc8a5b3d	-0.016889209
104	0x3c3bc43b	0.011460359
105	0x3d074d75	0.033032853
106	0x3ccfff8f	0.025390415
107	0x3d4aa4e0	0.049473643
108	0x3c0547cf	0.008134796
109	0xbc9258ae	-0.017864551
110	0x3cd07039	0.025444137
111	0x3cd44688	0.025912538
112	0xbc121e8d	-0.008918417
113	0xbd18fb32	-0.037348934
114	0x3d041fa4	0.032256737
115	0xbd48c87e	-0.04901933
116	0xbda8d2f6	-0.082433626
117	0x3c94703d	0.018119926
118	0xbcbf835b	-0.023378065
119	0xbd939458	-0.07206029
120	0x3cf0d851	0.029400023
121	0xbb6fe2b3	-0.003660363
122	0xbd39743e	-0.045276873
123	0x3d7f340c	0.062305495
124	0xbb13a8cb	-0.0022531028
125	0x3d160943	0.036629926
126	0xbcc68b47	-0.024236334
127	0x3ca0f9a0	0.01965028

head.9.weight f4 [7, 128]
0	0x3d1305d2	0.035894223
1	0x3d4d2b3b	0.050090056
2	0x3da1a345	0.07892469
3	0x3d58dd39	0.05294535
4	0xbc0a8e4a	-0.008456776
5	0x3be00730	0.0068367943
6	0x3ce526c7	0.027972592
7	0x3d7e196a	0.062035955
8	0x3ce5bcb0	0.028044075
9	0xbccadff7	-0.024764998
10	0x3c7e1491	0.015507833
11	0xbd7b5aa9	-0.061365757
12	0x3a6e9b2a	0.0009102101
13	0xbb9694d8	-0.0045953803
14	0xbd3d4124	-0.0462047
15	0x3d66e334	0.05636902
16	0xbbc2d081	-0.0059452658
17	0x3d5afa71	0.053461496
18	0x3d401e91	0.04690415
19	0xbdac0696	-0.08399694
20	0x3c305d4c	0.010764431
21	0xbc68ff14	-0.014220972
22	0x3b24bd0f	0.0025137102
23	0x3d136241	0.035982374
24	0x3d72fa7b	0.059320908
25	0xba6f150d	-0.0009120263
26	0xbba7b572	-0.0051180655
27	0xbd02a3e8	-0.031894594
28	0x3d7e5c94	0.062100008
29	0xbd8e2181	-0.06939984
30	0x3bae2a01	0.005315066
31	0xbce87067	-0.02837391
32	0xbd9afe5a	-0.07568045
33	0xbda606ce	-0.08106767
34	0xbd6472da	-0.055773593
35	0x3c6e7d0c	0.014556181
36	0xbd3c59a8	-0.04598394
37	0xbd87ecbf	-0.066369526
38	0xbc368bfb	-0.011141772
39	0x3d3820b3	0.04495306
40	0xbd4d6fb5	-0.05015536
41	0xbd91ea97	-0.071248226
42	0x3c4544db	0.012040342
43	0x39793998	0.00023767946
44	0xbc0002c5	-0.00781316
45	0xbd6aa977	-0.05729052
46	0xbd96a87a	-0.07356353
47	0x3d962dc7	0.0733295
48	0x3c8f84ea	0.017519433
49	0xbc48ff9c	-0.012267973
50	0x3d67c2fb	0.056582432
51	0xbbab1d2a	-0.0052219825
52	0xbc963c63	-0.018339342
53	0xbd8cc69e	-0.06873821
54	0xbd9f13e9	-0.077674694
55	0x3d293eeb	0.04131977
56	0xbc2707e0	-0.010194749
57	0xbd3ef987	-0.046624687
58	0x3d933efc	0.07189748
59	0xbd76a19d	-0.06021272
60	0xbda1aafc	-0.07893941
61	0xbbc31b63	-0.0059541925
62	0xbcabcf08	-0.020972744
63	0xbbe22085	-0.0069008493
64	0x3bce20d2	0.0062905336
65	0x3bcfa44b	0.006336724
66	0xbd844ca4	-0.064599305
67	0xbb8bb494	-0.00426347
68	0xbd530234	-0.051515773
69	0xbd8b6598	-0.06806487
70	0x3c95b941	0.018276813
71	0x3d1ef015	0.03880318
72	0x3d8e924d	0.069614984
73	0x3d035e77	0.03207251
74	0x3da58fed	0.08084092
75	0xbd1735ae	-0.036916427
76	0x3d9fdb9d	0.0780556
77	0x3b6e9730	0.0036406033
78	0x3c8677aa	0.016414482
79	0x3ace5af4	0.0015743659
80	0xbd496873	-0.049171876
81	0x3d7a2dd3	0.061078858
82	0x3c9084ad	0.01764139
83	0x3c2578b7	0.010099581
84	0x3ceb4990	0.0287216
85	0x3d814b18	0.06313151
86	0xb9add250	-0.00033153826
87	0x3d5b3648	0.053518564
88	0xbd7aaf84	-0.06120254
89	0x3d2bc229	0.041933212
90	0xbd33131f	-0.043719407
91	0x3c0991e1	0.008396597
92	0xbd8a2205	-0.0674477
93	0x3c91846f	0.017763345
94	0xbc01be62	-0.007918926
95	0x3ca57932	0.020199392
96	0xbcf3dc85	-0.029768238
97	0x3ce0ef8e	0.027457979
98	0xbd3863db	-0.045017105
99	0x3be325fd	0.006932019
100	0xbcdc6689	-0.026904361
101	0xbd58e975	-0.052957017
102	0x3d476d2f	0.04868811
103	0xbb28f04e	-0.0025777998
104	0x3c1a33f9	0.009411805
105	0x3c527e02	0.012847425
106	0xbd3513e1	-0.04420841
107	0xbd6a920d	-0.05726819
108	0x3d4f7618	0.050649732
109	0x3c86e845	0.016468177
110	0x3d9763d4	0.073920876
111	0xbd25f6c0	-0.040518522
112	0x3d8d346c	0.06894764
113	0x3d54d150	0.05195743
114	0xbcfa4a93	-0.030553138
115	0xbc638954	-0.013887722
116	0xbc92a490	-0.017900735
117	0xbd2070fa	-0.039170243
118	0x3d08328c	0.03325133
119	0xbc2a3f41	-0.0103910575
120	0x3b681c52	0.003541727
121	0xbc4b8c9e	-0.0124236625
122	0x3d178ed3	0.037001442
123	0x3d44e6b7	0.04807159
124	0xbd8f8202	-0.07007219
125	0xbd531e39	-0.051542494
126	0x3d7bd0c3	0.061478388
127	0xbd10f6c5	-0.035391588
128	0xbdff6631	-0.12470663
129	0xbd755219	-0.059892748
130	0xbd5e8b5a	-0.054332115
131	0x3d03c8ef	0.032174047
132	0x3c7722c3	0.015083971
133	0x3de2f934	0.11082688
134	0x3d93a8ae	0.072099075
135	0x3a79c24d	0.0009527549
136	0xbd5b5aa5	-0.053553242
137	0x3dc85114	0.097810894
138	0x3e05e145	0.13074215
139	0x3ce303e1	0.02771181
140	0x3cba1777	0.022716267
141	0x3c9ae792	0.01890925
142	0xbd1ea9a8	-0.038736016
143	0xbdb5d275	-0.08878032
144	0xbc83fc79	-0.0161116
145	0x3d4722be	0.048617117
146	0xbc72c14c	-0.014816593
147	0xbccdc34d	-0.02511754
148	0xbdb1f617	-0.08689516
149	0x3d993b3e	0.07482003
150	0x3daba2f9	0.08380694
151	0x3e03d102	0.12872699
152	0xbd2a5549	-0.04158524
153	0x3cc7e236	0.024399858
154	0xbdb098b5	-0.086228766
155	0x3d7fc2d7	0.062441673
156	0xbd93457f	-0.0719099
157	0x3d93ebab	0.072226845
158	0xbdace6f7	-0.084424905
159	0xbd3b2cd1	-0.045697037
160	0xbca07c0f	-0.019590406
161	0xbc8b3f64	-0.016998
162	0xbda8ad85	-0.08236221
163	0x3d7f906f	0.062393602
164	0x3ccef660	0.025263965
165	0x3bf65dcd	0.007518506
166	0xbc20ca6f	-0.009813889
167	0x3d8a90a9	0.06765873
168	0xbd03f49f	-0.03221571
169	0xbd71bccd	-0.059017945
170	0xbd47cc19	-0.048778627
171	0x3d43b118	0.04777631
172	0x3ca48fdb	0.020088127
173	0xbcf15f3a	-0.029464353
174	0xbd0dd2b1	-0.03462476
175	0x3d6b523b	0.057451468
176	0xbd82f7be	-0.06394909
177	0xbe0ac6e8	-0.13552439
178	0x3dd086de	0.10181974
179	0x3c909e7e	0.0176537
180	0xbd7b63f8	-0.061374635
181	0xbc47032d	-0.012146753
182	0xbcdc33fd	-0.026880259
183	0x3d64329c	0.055712327
184	0xbdc28e46	-0.09499793
185	0x3d18440a	0.037174262
186	0xbd8ee7ad	-0.069777824
187	0x3b787228	0.003790984
188	0xbd626531	-0.055272285
189	0xbc7b6679	-0.015344256
190	0xbd7ed633	-0.062215995
191	0x3ddd6e89	0.108120985
192	0xbd0fe3c7	-0.035129335
193	0xbcd00123	-0.025391167
194	0x3d22f2ea	0.039782442
195	0x3d641c93	0.055691313
196	0xbd2dafca	-0.042403974
197	0x3d975327	0.07388907
198	0x3d9d3f23	0.07678058
199	0xbd033a8e	-0.032038264
200	0x3d299895	0.04140528
201	0xbd556bda	-0.05210481
202	0xbe0dff8b	-0.13867013
203	0xbdc0e34c	-0.094183534
204	0xbc309a73	-0.010779011
205	0xbd80717f	-0.06271648
206	0xbdd773f5	-0.10520164
207	0xbdb68798	-0.08912581
208	0x3caf5f76	0.021407824
209	0x3c92cecf	0.01792088
210	0x3dff1463	0.1245506
211	0x3cb3a3fa	0.021928776
212	0x3ddaa6a6	0.10676317
213	0x3c3d417c	0.011551257
214	0xbd6e4653	-0.058172535
215	0xbd912ea4	-0.07088974
216	0x3da98f50	0.08279288
217	0x3de3db96	0.11125867
218	0x3de139e6	0.109973714
219	0xbd2f4b91	-0.042796675
220	0x3c5ba77c	0.013406631
221	0x3da7fdb8	0.0820269
222	0xbdede2ba	-0.1161551
223	0x3d57715d	0.052598346
224	0xbe07a8c4	-0.13247973
225	0xbcfd4dc1	-0.030920865
226	0xbd49ea59	-0.049295757
227	0x3c1cc399	0.0095681185
228	0xbcb0f2c6	-0.021600138
229	0xb84b896d	-4.852696e-05
230	0x3d7e98be	0.062157385
231	0xbd9838ea	-0.074327305
232	0x3dd7d842	0.10539295
233	0x3d41751a	0.047230817
234	0xbc61a839	-0.013773018
235	0x3d495e8f	0.049162444
236	0xbddf42b9	-0.10901398
237	0x3d30012d	0.04296987
238	0xbc94dff0	-0.018173188
239	0x3d62bff8	0.055358857
240	0x3d122d27	0.035687592
241	0x3dd550bd	0.1041579
242	0xbd3d3471	-0.04619259
243	0xbd05dff2	-0.032684274
244	0x3cc31560	0.023813903
245	0xbd41708b	-0.04722647
246	0xbd5bc927	-0.05365863
247	0x3d831802	0.064010635
248	0x3ce02bcc	0.027364634
249	0xbd3dd047	-0.046341207
250	0x3c06672d	0.00820331
251	0xbe0bfc5a	-0.13670483
252	0xbd0dc2fe	-0.034609787
253	0x3dd0071f	0.10157608
254	0xbe33d23f	-0.17560671
255	0xbdda3c8f	-0.10656082

head.9.bias f4 [7]
0	0xbcba2982	-0.02272487
1	0x3c4678ba	0.012113744
2	0xbb3a565d	-0.0028432824
3	0xbdf484c2	-0.11939384
4	0x3d7640ac	0.06012027
5	0x3df49a9d	0.11943553
6	0x3c87cb03	0.016576296
